module attributes {dlti.dl_spec = #dlti.dl_spec<#dlti.dl_entry<i128, dense<128> : vector<2xi32>>, #dlti.dl_entry<f128, dense<128> : vector<2xi32>>, #dlti.dl_entry<i64, dense<64> : vector<2xi32>>, #dlti.dl_entry<i16, dense<16> : vector<2xi32>>, #dlti.dl_entry<i32, dense<32> : vector<2xi32>>, #dlti.dl_entry<f16, dense<16> : vector<2xi32>>, #dlti.dl_entry<f64, dense<64> : vector<2xi32>>, #dlti.dl_entry<!llvm.ptr, dense<64> : vector<4xi32>>, #dlti.dl_entry<i1, dense<8> : vector<2xi32>>, #dlti.dl_entry<i8, dense<8> : vector<2xi32>>, #dlti.dl_entry<"dlti.stack_alignment", 128 : i32>, #dlti.dl_entry<"dlti.endianness", "little">>, llvm.data_layout = "e-m:o-i64:64-i128:128-n32:64-S128", llvm.target_triple = "arm64-apple-macosx15.0.0", "polygeist.target-cpu" = "apple-m1", "polygeist.target-features" = "+aes,+crc,+dotprod,+fp-armv8,+fp16fml,+fullfp16,+lse,+neon,+ras,+rcpc,+rdm,+sha2,+sha3,+v8.1a,+v8.2a,+v8.3a,+v8.4a,+v8.5a,+v8a,+zcm,+zcz"} {
  llvm.mlir.global internal constant @str0("checksum(lu)=%f\0A\00") {addr_space = 0 : i32}
  llvm.func @printf(!llvm.ptr, ...) -> i32
  func.func @rhs4sg_rev(%arg0: i32, %arg1: i32, %arg2: i32, %arg3: i32, %arg4: i32, %arg5: i32, %arg6: i32, %arg7: memref<?xi32>, %arg8: memref<?xf32>, %arg9: memref<?xf32>, %arg10: memref<?xf32>, %arg11: memref<?xf32>, %arg12: memref<?xf32>, %arg13: memref<?xf32>, %arg14: memref<?xf32>, %arg15: f32, %arg16: memref<?xf32>, %arg17: memref<?xf32>, %arg18: memref<?xf32>) attributes {llvm.linkage = #llvm.linkage<external>} {
    %c-2_i32 = arith.constant -2 : i32
    %c-6_i32 = arith.constant -6 : i32
    %c-5_i32 = arith.constant -5 : i32
    %c9 = arith.constant 9 : index
    %c-1_i32 = arith.constant -1 : i32
    %cst = arith.constant 0.16666666666666666 : f64
    %cst_0 = arith.constant 0.083333333333333329 : f64
    %cst_1 = arith.constant 0.0069444444444444441 : f64
    %c7 = arith.constant 7 : index
    %c288_i32 = arith.constant 288 : i32
    %c96_i32 = arith.constant 96 : i32
    %c336_i32 = arith.constant 336 : i32
    %c240_i32 = arith.constant 240 : i32
    %c192_i32 = arith.constant 192 : i32
    %c144_i32 = arith.constant 144 : i32
    %c5_i32 = arith.constant 5 : i32
    %c4_i32 = arith.constant 4 : i32
    %c48_i32 = arith.constant 48 : i32
    %c8_i32 = arith.constant 8 : i32
    %cst_2 = arith.constant 8.000000e+00 : f32
    %cst_3 = arith.constant 2.000000e+00 : f32
    %cst_4 = arith.constant 3.000000e+00 : f32
    %c1 = arith.constant 1 : index
    %c6_i32 = arith.constant 6 : i32
    %c7_i32 = arith.constant 7 : i32
    %c2_i32 = arith.constant 2 : i32
    %c3_i32 = arith.constant 3 : i32
    %c0_i32 = arith.constant 0 : i32
    %c1_i32 = arith.constant 1 : i32
    %cst_5 = arith.constant 7.500000e-01 : f32
    %cst_6 = arith.constant 1.000000e+00 : f64
    %cst_7 = arith.constant 0.000000e+00 : f32
    %0 = arith.truncf %cst : f64 to f32
    %1 = arith.truncf %cst_0 : f64 to f32
    %2 = arith.truncf %cst_1 : f64 to f32
    %3 = arith.subi %arg1, %arg0 : i32
    %4 = arith.addi %3, %c1_i32 : i32
    %5 = arith.subi %arg3, %arg2 : i32
    %6 = arith.addi %5, %c1_i32 : i32
    %7 = arith.muli %4, %6 : i32
    %8 = arith.subi %arg5, %arg4 : i32
    %9 = arith.addi %8, %c1_i32 : i32
    %10 = arith.muli %7, %9 : i32
    %11 = arith.muli %4, %arg2 : i32
    %12 = arith.addi %arg0, %11 : i32
    %13 = arith.muli %7, %arg4 : i32
    %14 = arith.addi %12, %13 : i32
    %15 = arith.subi %c0_i32, %14 : i32
    %16 = arith.subi %15, %10 : i32
    %17 = arith.mulf %arg15, %arg15 : f32
    %18 = arith.extf %17 : f32 to f64
    %19 = arith.divf %cst_6, %18 : f64
    %20 = arith.truncf %19 : f64 to f32
    %21 = arith.addi %arg4, %c2_i32 : i32
    %22 = affine.load %arg7[4] : memref<?xi32>
    %23 = arith.cmpi eq, %22, %c1_i32 : i32
    %24 = arith.select %23, %c7_i32, %21 : i32
    %25 = arith.addi %arg5, %c-2_i32 : i32
    %26 = affine.load %arg7[5] : memref<?xi32>
    %27 = arith.cmpi eq, %26, %c1_i32 : i32
    %28 = scf.if %27 -> (i32) {
      %29 = arith.addi %arg6, %c-6_i32 : i32
      scf.yield %29 : i32
    } else {
      scf.yield %25 : i32
    }
    omp.parallel   {
      %29 = arith.index_cast %24 : i32 to index
      %30 = arith.subi %28, %24 : i32
      %31 = arith.addi %30, %c1_i32 : i32
      %32 = arith.addi %24, %31 : i32
      %33 = arith.index_cast %32 : i32 to index
      omp.wsloop   for  (%arg19) : index = (%29) to (%33) step (%c1) {
        %38 = arith.index_cast %arg19 : index to i32
        %39 = arith.addi %arg2, %c2_i32 : i32
        %40 = arith.addi %arg3, %c-1_i32 : i32
        %41 = arith.index_cast %40 : i32 to index
        %42 = arith.index_cast %39 : i32 to index
        scf.for %arg20 = %42 to %41 step %c1 {
          %43 = arith.subi %arg20, %42 : index
          %44 = arith.index_cast %39 : i32 to index
          %45 = arith.addi %44, %43 : index
          %46 = arith.index_cast %45 : index to i32
          %47 = arith.addi %arg0, %c2_i32 : i32
          %48 = arith.addi %arg1, %c-1_i32 : i32
          %49 = arith.index_cast %48 : i32 to index
          %50 = arith.index_cast %47 : i32 to index
          scf.for %arg21 = %50 to %49 step %c1 {
            %51 = arith.subi %arg21, %50 : index
            %52 = arith.index_cast %47 : i32 to index
            %53 = arith.addi %52, %51 : index
            %54 = arith.index_cast %53 : index to i32
            %55 = arith.addi %15, %54 : i32
            %56 = arith.addi %55, %c-1_i32 : i32
            %57 = arith.muli %4, %46 : i32
            %58 = arith.addi %56, %57 : i32
            %59 = arith.muli %7, %38 : i32
            %60 = arith.addi %58, %59 : i32
            %61 = arith.index_cast %60 : i32 to index
            %62 = memref.load %arg13[%61] : memref<?xf32>
            %63 = arith.addi %54, %c-1_i32 : i32
            %64 = arith.subi %63, %arg0 : i32
            %65 = arith.index_cast %64 : i32 to index
            %66 = memref.load %arg16[%65] : memref<?xf32>
            %67 = arith.mulf %62, %66 : f32
            %68 = arith.addi %55, %57 : i32
            %69 = arith.addi %68, %59 : i32
            %70 = arith.index_cast %69 : i32 to index
            %71 = memref.load %arg13[%70] : memref<?xf32>
            %72 = arith.subi %54, %arg0 : i32
            %73 = arith.index_cast %72 : i32 to index
            %74 = memref.load %arg16[%73] : memref<?xf32>
            %75 = arith.mulf %71, %74 : f32
            %76 = arith.addi %55, %c-2_i32 : i32
            %77 = arith.addi %76, %57 : i32
            %78 = arith.addi %77, %59 : i32
            %79 = arith.index_cast %78 : i32 to index
            %80 = memref.load %arg13[%79] : memref<?xf32>
            %81 = arith.addi %54, %c-2_i32 : i32
            %82 = arith.subi %81, %arg0 : i32
            %83 = arith.index_cast %82 : i32 to index
            %84 = memref.load %arg16[%83] : memref<?xf32>
            %85 = arith.mulf %80, %84 : f32
            %86 = arith.addf %75, %85 : f32
            %87 = arith.mulf %86, %cst_5 : f32
            %88 = arith.subf %67, %87 : f32
            %89 = memref.load %arg13[%79] : memref<?xf32>
            %90 = memref.load %arg16[%83] : memref<?xf32>
            %91 = arith.mulf %89, %90 : f32
            %92 = arith.addi %55, %c1_i32 : i32
            %93 = arith.addi %92, %57 : i32
            %94 = arith.addi %93, %59 : i32
            %95 = arith.index_cast %94 : i32 to index
            %96 = memref.load %arg13[%95] : memref<?xf32>
            %97 = arith.addi %54, %c1_i32 : i32
            %98 = arith.subi %97, %arg0 : i32
            %99 = arith.index_cast %98 : i32 to index
            %100 = memref.load %arg16[%99] : memref<?xf32>
            %101 = arith.mulf %96, %100 : f32
            %102 = arith.addf %91, %101 : f32
            %103 = memref.load %arg13[%70] : memref<?xf32>
            %104 = memref.load %arg16[%73] : memref<?xf32>
            %105 = arith.mulf %103, %104 : f32
            %106 = memref.load %arg13[%61] : memref<?xf32>
            %107 = memref.load %arg16[%65] : memref<?xf32>
            %108 = arith.mulf %106, %107 : f32
            %109 = arith.addf %105, %108 : f32
            %110 = arith.mulf %109, %cst_4 : f32
            %111 = arith.addf %102, %110 : f32
            %112 = memref.load %arg13[%61] : memref<?xf32>
            %113 = memref.load %arg16[%65] : memref<?xf32>
            %114 = arith.mulf %112, %113 : f32
            %115 = arith.addi %55, %c2_i32 : i32
            %116 = arith.addi %115, %57 : i32
            %117 = arith.addi %116, %59 : i32
            %118 = arith.index_cast %117 : i32 to index
            %119 = memref.load %arg13[%118] : memref<?xf32>
            %120 = arith.addi %54, %c2_i32 : i32
            %121 = arith.subi %120, %arg0 : i32
            %122 = arith.index_cast %121 : i32 to index
            %123 = memref.load %arg16[%122] : memref<?xf32>
            %124 = arith.mulf %119, %123 : f32
            %125 = arith.addf %114, %124 : f32
            %126 = memref.load %arg13[%95] : memref<?xf32>
            %127 = memref.load %arg16[%99] : memref<?xf32>
            %128 = arith.mulf %126, %127 : f32
            %129 = memref.load %arg13[%70] : memref<?xf32>
            %130 = memref.load %arg16[%73] : memref<?xf32>
            %131 = arith.mulf %129, %130 : f32
            %132 = arith.addf %128, %131 : f32
            %133 = arith.mulf %132, %cst_4 : f32
            %134 = arith.addf %125, %133 : f32
            %135 = memref.load %arg13[%95] : memref<?xf32>
            %136 = memref.load %arg16[%99] : memref<?xf32>
            %137 = arith.mulf %135, %136 : f32
            %138 = memref.load %arg13[%70] : memref<?xf32>
            %139 = memref.load %arg16[%73] : memref<?xf32>
            %140 = arith.mulf %138, %139 : f32
            %141 = memref.load %arg13[%118] : memref<?xf32>
            %142 = memref.load %arg16[%122] : memref<?xf32>
            %143 = arith.mulf %141, %142 : f32
            %144 = arith.addf %140, %143 : f32
            %145 = arith.mulf %144, %cst_5 : f32
            %146 = arith.subf %137, %145 : f32
            %147 = arith.addi %46, %c-1_i32 : i32
            %148 = arith.muli %4, %147 : i32
            %149 = arith.addi %55, %148 : i32
            %150 = arith.addi %149, %59 : i32
            %151 = arith.index_cast %150 : i32 to index
            %152 = memref.load %arg13[%151] : memref<?xf32>
            %153 = arith.subi %147, %arg2 : i32
            %154 = arith.index_cast %153 : i32 to index
            %155 = memref.load %arg17[%154] : memref<?xf32>
            %156 = arith.mulf %152, %155 : f32
            %157 = memref.load %arg13[%70] : memref<?xf32>
            %158 = arith.subi %46, %arg2 : i32
            %159 = arith.index_cast %158 : i32 to index
            %160 = memref.load %arg17[%159] : memref<?xf32>
            %161 = arith.mulf %157, %160 : f32
            %162 = arith.addi %46, %c-2_i32 : i32
            %163 = arith.muli %4, %162 : i32
            %164 = arith.addi %55, %163 : i32
            %165 = arith.addi %164, %59 : i32
            %166 = arith.index_cast %165 : i32 to index
            %167 = memref.load %arg13[%166] : memref<?xf32>
            %168 = arith.subi %162, %arg2 : i32
            %169 = arith.index_cast %168 : i32 to index
            %170 = memref.load %arg17[%169] : memref<?xf32>
            %171 = arith.mulf %167, %170 : f32
            %172 = arith.addf %161, %171 : f32
            %173 = arith.mulf %172, %cst_5 : f32
            %174 = arith.subf %156, %173 : f32
            %175 = memref.load %arg13[%166] : memref<?xf32>
            %176 = memref.load %arg17[%169] : memref<?xf32>
            %177 = arith.mulf %175, %176 : f32
            %178 = arith.addi %46, %c1_i32 : i32
            %179 = arith.muli %4, %178 : i32
            %180 = arith.addi %55, %179 : i32
            %181 = arith.addi %180, %59 : i32
            %182 = arith.index_cast %181 : i32 to index
            %183 = memref.load %arg13[%182] : memref<?xf32>
            %184 = arith.subi %178, %arg2 : i32
            %185 = arith.index_cast %184 : i32 to index
            %186 = memref.load %arg17[%185] : memref<?xf32>
            %187 = arith.mulf %183, %186 : f32
            %188 = arith.addf %177, %187 : f32
            %189 = memref.load %arg13[%70] : memref<?xf32>
            %190 = memref.load %arg17[%159] : memref<?xf32>
            %191 = arith.mulf %189, %190 : f32
            %192 = memref.load %arg13[%151] : memref<?xf32>
            %193 = memref.load %arg17[%154] : memref<?xf32>
            %194 = arith.mulf %192, %193 : f32
            %195 = arith.addf %191, %194 : f32
            %196 = arith.mulf %195, %cst_4 : f32
            %197 = arith.addf %188, %196 : f32
            %198 = memref.load %arg13[%151] : memref<?xf32>
            %199 = memref.load %arg17[%154] : memref<?xf32>
            %200 = arith.mulf %198, %199 : f32
            %201 = arith.addi %46, %c2_i32 : i32
            %202 = arith.muli %4, %201 : i32
            %203 = arith.addi %55, %202 : i32
            %204 = arith.addi %203, %59 : i32
            %205 = arith.index_cast %204 : i32 to index
            %206 = memref.load %arg13[%205] : memref<?xf32>
            %207 = arith.subi %201, %arg2 : i32
            %208 = arith.index_cast %207 : i32 to index
            %209 = memref.load %arg17[%208] : memref<?xf32>
            %210 = arith.mulf %206, %209 : f32
            %211 = arith.addf %200, %210 : f32
            %212 = memref.load %arg13[%182] : memref<?xf32>
            %213 = memref.load %arg17[%185] : memref<?xf32>
            %214 = arith.mulf %212, %213 : f32
            %215 = memref.load %arg13[%70] : memref<?xf32>
            %216 = memref.load %arg17[%159] : memref<?xf32>
            %217 = arith.mulf %215, %216 : f32
            %218 = arith.addf %214, %217 : f32
            %219 = arith.mulf %218, %cst_4 : f32
            %220 = arith.addf %211, %219 : f32
            %221 = memref.load %arg13[%182] : memref<?xf32>
            %222 = memref.load %arg17[%185] : memref<?xf32>
            %223 = arith.mulf %221, %222 : f32
            %224 = memref.load %arg13[%70] : memref<?xf32>
            %225 = memref.load %arg17[%159] : memref<?xf32>
            %226 = arith.mulf %224, %225 : f32
            %227 = memref.load %arg13[%205] : memref<?xf32>
            %228 = memref.load %arg17[%208] : memref<?xf32>
            %229 = arith.mulf %227, %228 : f32
            %230 = arith.addf %226, %229 : f32
            %231 = arith.mulf %230, %cst_5 : f32
            %232 = arith.subf %223, %231 : f32
            %233 = arith.addi %38, %c-1_i32 : i32
            %234 = arith.muli %7, %233 : i32
            %235 = arith.addi %68, %234 : i32
            %236 = arith.index_cast %235 : i32 to index
            %237 = memref.load %arg13[%236] : memref<?xf32>
            %238 = arith.subi %233, %arg4 : i32
            %239 = arith.index_cast %238 : i32 to index
            %240 = memref.load %arg18[%239] : memref<?xf32>
            %241 = arith.mulf %237, %240 : f32
            %242 = memref.load %arg13[%70] : memref<?xf32>
            %243 = arith.subi %38, %arg4 : i32
            %244 = arith.index_cast %243 : i32 to index
            %245 = memref.load %arg18[%244] : memref<?xf32>
            %246 = arith.mulf %242, %245 : f32
            %247 = arith.addi %38, %c-2_i32 : i32
            %248 = arith.muli %7, %247 : i32
            %249 = arith.addi %68, %248 : i32
            %250 = arith.index_cast %249 : i32 to index
            %251 = memref.load %arg13[%250] : memref<?xf32>
            %252 = arith.subi %247, %arg4 : i32
            %253 = arith.index_cast %252 : i32 to index
            %254 = memref.load %arg18[%253] : memref<?xf32>
            %255 = arith.mulf %251, %254 : f32
            %256 = arith.addf %246, %255 : f32
            %257 = arith.mulf %256, %cst_5 : f32
            %258 = arith.subf %241, %257 : f32
            %259 = arith.addi %38, %c1_i32 : i32
            %260 = arith.muli %7, %259 : i32
            %261 = arith.addi %68, %260 : i32
            %262 = arith.index_cast %261 : i32 to index
            %263 = memref.load %arg13[%262] : memref<?xf32>
            %264 = arith.subi %259, %arg4 : i32
            %265 = arith.index_cast %264 : i32 to index
            %266 = memref.load %arg18[%265] : memref<?xf32>
            %267 = arith.mulf %263, %266 : f32
            %268 = arith.addf %255, %267 : f32
            %269 = arith.addf %246, %241 : f32
            %270 = arith.mulf %269, %cst_4 : f32
            %271 = arith.addf %268, %270 : f32
            %272 = arith.addi %38, %c2_i32 : i32
            %273 = arith.muli %7, %272 : i32
            %274 = arith.addi %68, %273 : i32
            %275 = arith.index_cast %274 : i32 to index
            %276 = memref.load %arg13[%275] : memref<?xf32>
            %277 = arith.subi %272, %arg4 : i32
            %278 = arith.index_cast %277 : i32 to index
            %279 = memref.load %arg18[%278] : memref<?xf32>
            %280 = arith.mulf %276, %279 : f32
            %281 = arith.addf %241, %280 : f32
            %282 = arith.addf %267, %246 : f32
            %283 = arith.mulf %282, %cst_4 : f32
            %284 = arith.addf %281, %283 : f32
            %285 = arith.addf %246, %280 : f32
            %286 = arith.mulf %285, %cst_5 : f32
            %287 = arith.subf %267, %286 : f32
            %288 = arith.addi %16, %54 : i32
            %289 = arith.addi %288, %57 : i32
            %290 = arith.addi %289, %59 : i32
            %291 = arith.addi %290, %10 : i32
            %292 = arith.index_cast %291 : i32 to index
            %293 = memref.load %arg16[%73] : memref<?xf32>
            %294 = arith.mulf %88, %cst_3 : f32
            %295 = memref.load %arg14[%61] : memref<?xf32>
            %296 = memref.load %arg16[%65] : memref<?xf32>
            %297 = arith.mulf %295, %296 : f32
            %298 = arith.addf %294, %297 : f32
            %299 = memref.load %arg14[%70] : memref<?xf32>
            %300 = arith.mulf %299, %293 : f32
            %301 = memref.load %arg14[%79] : memref<?xf32>
            %302 = memref.load %arg16[%83] : memref<?xf32>
            %303 = arith.mulf %301, %302 : f32
            %304 = arith.addf %300, %303 : f32
            %305 = arith.mulf %304, %cst_5 : f32
            %306 = arith.subf %298, %305 : f32
            %307 = arith.addi %288, %c-2_i32 : i32
            %308 = arith.addi %307, %57 : i32
            %309 = arith.addi %308, %59 : i32
            %310 = arith.addi %309, %10 : i32
            %311 = arith.index_cast %310 : i32 to index
            %312 = memref.load %arg12[%311] : memref<?xf32>
            %313 = memref.load %arg12[%292] : memref<?xf32>
            %314 = arith.subf %312, %313 : f32
            %315 = arith.mulf %306, %314 : f32
            %316 = arith.mulf %111, %cst_3 : f32
            %317 = arith.addf %316, %303 : f32
            %318 = memref.load %arg14[%95] : memref<?xf32>
            %319 = memref.load %arg16[%99] : memref<?xf32>
            %320 = arith.mulf %318, %319 : f32
            %321 = arith.addf %317, %320 : f32
            %322 = arith.addf %300, %297 : f32
            %323 = arith.mulf %322, %cst_4 : f32
            %324 = arith.addf %321, %323 : f32
            %325 = arith.addi %288, %c-1_i32 : i32
            %326 = arith.addi %325, %57 : i32
            %327 = arith.addi %326, %59 : i32
            %328 = arith.addi %327, %10 : i32
            %329 = arith.index_cast %328 : i32 to index
            %330 = memref.load %arg12[%329] : memref<?xf32>
            %331 = arith.subf %330, %313 : f32
            %332 = arith.mulf %324, %331 : f32
            %333 = arith.addf %315, %332 : f32
            %334 = arith.mulf %134, %cst_3 : f32
            %335 = arith.addf %334, %297 : f32
            %336 = memref.load %arg14[%118] : memref<?xf32>
            %337 = memref.load %arg16[%122] : memref<?xf32>
            %338 = arith.mulf %336, %337 : f32
            %339 = arith.addf %335, %338 : f32
            %340 = arith.addf %320, %300 : f32
            %341 = arith.mulf %340, %cst_4 : f32
            %342 = arith.addf %339, %341 : f32
            %343 = arith.addi %288, %c1_i32 : i32
            %344 = arith.addi %343, %57 : i32
            %345 = arith.addi %344, %59 : i32
            %346 = arith.addi %345, %10 : i32
            %347 = arith.index_cast %346 : i32 to index
            %348 = memref.load %arg12[%347] : memref<?xf32>
            %349 = arith.subf %348, %313 : f32
            %350 = arith.mulf %342, %349 : f32
            %351 = arith.addf %333, %350 : f32
            %352 = arith.mulf %146, %cst_3 : f32
            %353 = arith.addf %352, %320 : f32
            %354 = arith.addf %300, %338 : f32
            %355 = arith.mulf %354, %cst_5 : f32
            %356 = arith.subf %353, %355 : f32
            %357 = arith.addi %288, %c2_i32 : i32
            %358 = arith.addi %357, %57 : i32
            %359 = arith.addi %358, %59 : i32
            %360 = arith.addi %359, %10 : i32
            %361 = arith.index_cast %360 : i32 to index
            %362 = memref.load %arg12[%361] : memref<?xf32>
            %363 = arith.subf %362, %313 : f32
            %364 = arith.mulf %356, %363 : f32
            %365 = arith.addf %351, %364 : f32
            %366 = arith.mulf %293, %365 : f32
            %367 = memref.load %arg17[%159] : memref<?xf32>
            %368 = arith.addi %288, %163 : i32
            %369 = arith.addi %368, %59 : i32
            %370 = arith.addi %369, %10 : i32
            %371 = arith.index_cast %370 : i32 to index
            %372 = memref.load %arg12[%371] : memref<?xf32>
            %373 = arith.subf %372, %313 : f32
            %374 = arith.mulf %174, %373 : f32
            %375 = arith.addi %288, %148 : i32
            %376 = arith.addi %375, %59 : i32
            %377 = arith.addi %376, %10 : i32
            %378 = arith.index_cast %377 : i32 to index
            %379 = memref.load %arg12[%378] : memref<?xf32>
            %380 = arith.subf %379, %313 : f32
            %381 = arith.mulf %197, %380 : f32
            %382 = arith.addf %374, %381 : f32
            %383 = arith.addi %288, %179 : i32
            %384 = arith.addi %383, %59 : i32
            %385 = arith.addi %384, %10 : i32
            %386 = arith.index_cast %385 : i32 to index
            %387 = memref.load %arg12[%386] : memref<?xf32>
            %388 = arith.subf %387, %313 : f32
            %389 = arith.mulf %220, %388 : f32
            %390 = arith.addf %382, %389 : f32
            %391 = arith.addi %288, %202 : i32
            %392 = arith.addi %391, %59 : i32
            %393 = arith.addi %392, %10 : i32
            %394 = arith.index_cast %393 : i32 to index
            %395 = memref.load %arg12[%394] : memref<?xf32>
            %396 = arith.subf %395, %313 : f32
            %397 = arith.mulf %232, %396 : f32
            %398 = arith.addf %390, %397 : f32
            %399 = arith.mulf %367, %398 : f32
            %400 = arith.addf %366, %399 : f32
            %401 = arith.addi %289, %248 : i32
            %402 = arith.addi %401, %10 : i32
            %403 = arith.index_cast %402 : i32 to index
            %404 = memref.load %arg12[%403] : memref<?xf32>
            %405 = arith.subf %404, %313 : f32
            %406 = arith.mulf %258, %405 : f32
            %407 = arith.addi %289, %234 : i32
            %408 = arith.addi %407, %10 : i32
            %409 = arith.index_cast %408 : i32 to index
            %410 = memref.load %arg12[%409] : memref<?xf32>
            %411 = arith.subf %410, %313 : f32
            %412 = arith.mulf %271, %411 : f32
            %413 = arith.addf %406, %412 : f32
            %414 = arith.addi %289, %260 : i32
            %415 = arith.addi %414, %10 : i32
            %416 = arith.index_cast %415 : i32 to index
            %417 = memref.load %arg12[%416] : memref<?xf32>
            %418 = arith.subf %417, %313 : f32
            %419 = arith.mulf %284, %418 : f32
            %420 = arith.addf %413, %419 : f32
            %421 = arith.addi %289, %273 : i32
            %422 = arith.addi %421, %10 : i32
            %423 = arith.index_cast %422 : i32 to index
            %424 = memref.load %arg12[%423] : memref<?xf32>
            %425 = arith.subf %424, %313 : f32
            %426 = arith.mulf %287, %425 : f32
            %427 = arith.addf %420, %426 : f32
            %428 = arith.mulf %245, %427 : f32
            %429 = arith.addf %400, %428 : f32
            %430 = arith.mulf %0, %429 : f32
            memref.store %430, %arg11[%292] : memref<?xf32>
            %431 = arith.muli %10, %c2_i32 : i32
            %432 = arith.addi %290, %431 : i32
            %433 = arith.index_cast %432 : i32 to index
            %434 = memref.load %arg16[%73] : memref<?xf32>
            %435 = arith.addi %309, %431 : i32
            %436 = arith.index_cast %435 : i32 to index
            %437 = memref.load %arg12[%436] : memref<?xf32>
            %438 = memref.load %arg12[%433] : memref<?xf32>
            %439 = arith.subf %437, %438 : f32
            %440 = arith.mulf %88, %439 : f32
            %441 = arith.addi %327, %431 : i32
            %442 = arith.index_cast %441 : i32 to index
            %443 = memref.load %arg12[%442] : memref<?xf32>
            %444 = arith.subf %443, %438 : f32
            %445 = arith.mulf %111, %444 : f32
            %446 = arith.addf %440, %445 : f32
            %447 = arith.addi %345, %431 : i32
            %448 = arith.index_cast %447 : i32 to index
            %449 = memref.load %arg12[%448] : memref<?xf32>
            %450 = arith.subf %449, %438 : f32
            %451 = arith.mulf %134, %450 : f32
            %452 = arith.addf %446, %451 : f32
            %453 = arith.addi %359, %431 : i32
            %454 = arith.index_cast %453 : i32 to index
            %455 = memref.load %arg12[%454] : memref<?xf32>
            %456 = arith.subf %455, %438 : f32
            %457 = arith.mulf %146, %456 : f32
            %458 = arith.addf %452, %457 : f32
            %459 = arith.mulf %434, %458 : f32
            %460 = memref.load %arg17[%159] : memref<?xf32>
            %461 = arith.mulf %174, %cst_3 : f32
            %462 = memref.load %arg14[%151] : memref<?xf32>
            %463 = memref.load %arg17[%154] : memref<?xf32>
            %464 = arith.mulf %462, %463 : f32
            %465 = arith.addf %461, %464 : f32
            %466 = memref.load %arg14[%70] : memref<?xf32>
            %467 = arith.mulf %466, %460 : f32
            %468 = memref.load %arg14[%166] : memref<?xf32>
            %469 = memref.load %arg17[%169] : memref<?xf32>
            %470 = arith.mulf %468, %469 : f32
            %471 = arith.addf %467, %470 : f32
            %472 = arith.mulf %471, %cst_5 : f32
            %473 = arith.subf %465, %472 : f32
            %474 = arith.addi %369, %431 : i32
            %475 = arith.index_cast %474 : i32 to index
            %476 = memref.load %arg12[%475] : memref<?xf32>
            %477 = arith.subf %476, %438 : f32
            %478 = arith.mulf %473, %477 : f32
            %479 = arith.mulf %197, %cst_3 : f32
            %480 = arith.addf %479, %470 : f32
            %481 = memref.load %arg14[%182] : memref<?xf32>
            %482 = memref.load %arg17[%185] : memref<?xf32>
            %483 = arith.mulf %481, %482 : f32
            %484 = arith.addf %480, %483 : f32
            %485 = arith.addf %467, %464 : f32
            %486 = arith.mulf %485, %cst_4 : f32
            %487 = arith.addf %484, %486 : f32
            %488 = arith.addi %376, %431 : i32
            %489 = arith.index_cast %488 : i32 to index
            %490 = memref.load %arg12[%489] : memref<?xf32>
            %491 = arith.subf %490, %438 : f32
            %492 = arith.mulf %487, %491 : f32
            %493 = arith.addf %478, %492 : f32
            %494 = arith.mulf %220, %cst_3 : f32
            %495 = arith.addf %494, %464 : f32
            %496 = memref.load %arg14[%205] : memref<?xf32>
            %497 = memref.load %arg17[%208] : memref<?xf32>
            %498 = arith.mulf %496, %497 : f32
            %499 = arith.addf %495, %498 : f32
            %500 = arith.addf %483, %467 : f32
            %501 = arith.mulf %500, %cst_4 : f32
            %502 = arith.addf %499, %501 : f32
            %503 = arith.addi %384, %431 : i32
            %504 = arith.index_cast %503 : i32 to index
            %505 = memref.load %arg12[%504] : memref<?xf32>
            %506 = arith.subf %505, %438 : f32
            %507 = arith.mulf %502, %506 : f32
            %508 = arith.addf %493, %507 : f32
            %509 = arith.mulf %232, %cst_3 : f32
            %510 = arith.addf %509, %483 : f32
            %511 = arith.addf %467, %498 : f32
            %512 = arith.mulf %511, %cst_5 : f32
            %513 = arith.subf %510, %512 : f32
            %514 = arith.addi %392, %431 : i32
            %515 = arith.index_cast %514 : i32 to index
            %516 = memref.load %arg12[%515] : memref<?xf32>
            %517 = arith.subf %516, %438 : f32
            %518 = arith.mulf %513, %517 : f32
            %519 = arith.addf %508, %518 : f32
            %520 = arith.mulf %460, %519 : f32
            %521 = arith.addf %459, %520 : f32
            %522 = memref.load %arg18[%244] : memref<?xf32>
            %523 = arith.addi %401, %431 : i32
            %524 = arith.index_cast %523 : i32 to index
            %525 = memref.load %arg12[%524] : memref<?xf32>
            %526 = arith.subf %525, %438 : f32
            %527 = arith.mulf %258, %526 : f32
            %528 = arith.addi %407, %431 : i32
            %529 = arith.index_cast %528 : i32 to index
            %530 = memref.load %arg12[%529] : memref<?xf32>
            %531 = arith.subf %530, %438 : f32
            %532 = arith.mulf %271, %531 : f32
            %533 = arith.addf %527, %532 : f32
            %534 = arith.addi %414, %431 : i32
            %535 = arith.index_cast %534 : i32 to index
            %536 = memref.load %arg12[%535] : memref<?xf32>
            %537 = arith.subf %536, %438 : f32
            %538 = arith.mulf %284, %537 : f32
            %539 = arith.addf %533, %538 : f32
            %540 = arith.addi %421, %431 : i32
            %541 = arith.index_cast %540 : i32 to index
            %542 = memref.load %arg12[%541] : memref<?xf32>
            %543 = arith.subf %542, %438 : f32
            %544 = arith.mulf %287, %543 : f32
            %545 = arith.addf %539, %544 : f32
            %546 = arith.mulf %522, %545 : f32
            %547 = arith.addf %521, %546 : f32
            %548 = arith.mulf %0, %547 : f32
            memref.store %548, %arg11[%433] : memref<?xf32>
            %549 = arith.muli %10, %c3_i32 : i32
            %550 = arith.addi %290, %549 : i32
            %551 = arith.index_cast %550 : i32 to index
            %552 = memref.load %arg16[%73] : memref<?xf32>
            %553 = arith.addi %309, %549 : i32
            %554 = arith.index_cast %553 : i32 to index
            %555 = memref.load %arg12[%554] : memref<?xf32>
            %556 = memref.load %arg12[%551] : memref<?xf32>
            %557 = arith.subf %555, %556 : f32
            %558 = arith.mulf %88, %557 : f32
            %559 = arith.addi %327, %549 : i32
            %560 = arith.index_cast %559 : i32 to index
            %561 = memref.load %arg12[%560] : memref<?xf32>
            %562 = arith.subf %561, %556 : f32
            %563 = arith.mulf %111, %562 : f32
            %564 = arith.addf %558, %563 : f32
            %565 = arith.addi %345, %549 : i32
            %566 = arith.index_cast %565 : i32 to index
            %567 = memref.load %arg12[%566] : memref<?xf32>
            %568 = arith.subf %567, %556 : f32
            %569 = arith.mulf %134, %568 : f32
            %570 = arith.addf %564, %569 : f32
            %571 = arith.addi %359, %549 : i32
            %572 = arith.index_cast %571 : i32 to index
            %573 = memref.load %arg12[%572] : memref<?xf32>
            %574 = arith.subf %573, %556 : f32
            %575 = arith.mulf %146, %574 : f32
            %576 = arith.addf %570, %575 : f32
            %577 = arith.mulf %552, %576 : f32
            %578 = memref.load %arg17[%159] : memref<?xf32>
            %579 = arith.addi %369, %549 : i32
            %580 = arith.index_cast %579 : i32 to index
            %581 = memref.load %arg12[%580] : memref<?xf32>
            %582 = arith.subf %581, %556 : f32
            %583 = arith.mulf %174, %582 : f32
            %584 = arith.addi %376, %549 : i32
            %585 = arith.index_cast %584 : i32 to index
            %586 = memref.load %arg12[%585] : memref<?xf32>
            %587 = arith.subf %586, %556 : f32
            %588 = arith.mulf %197, %587 : f32
            %589 = arith.addf %583, %588 : f32
            %590 = arith.addi %384, %549 : i32
            %591 = arith.index_cast %590 : i32 to index
            %592 = memref.load %arg12[%591] : memref<?xf32>
            %593 = arith.subf %592, %556 : f32
            %594 = arith.mulf %220, %593 : f32
            %595 = arith.addf %589, %594 : f32
            %596 = arith.addi %392, %549 : i32
            %597 = arith.index_cast %596 : i32 to index
            %598 = memref.load %arg12[%597] : memref<?xf32>
            %599 = arith.subf %598, %556 : f32
            %600 = arith.mulf %232, %599 : f32
            %601 = arith.addf %595, %600 : f32
            %602 = arith.mulf %578, %601 : f32
            %603 = arith.addf %577, %602 : f32
            %604 = memref.load %arg18[%244] : memref<?xf32>
            %605 = arith.mulf %258, %cst_3 : f32
            %606 = memref.load %arg14[%236] : memref<?xf32>
            %607 = memref.load %arg18[%239] : memref<?xf32>
            %608 = arith.mulf %606, %607 : f32
            %609 = arith.addf %605, %608 : f32
            %610 = memref.load %arg14[%70] : memref<?xf32>
            %611 = arith.mulf %610, %604 : f32
            %612 = memref.load %arg14[%250] : memref<?xf32>
            %613 = memref.load %arg18[%253] : memref<?xf32>
            %614 = arith.mulf %612, %613 : f32
            %615 = arith.addf %611, %614 : f32
            %616 = arith.mulf %615, %cst_5 : f32
            %617 = arith.subf %609, %616 : f32
            %618 = arith.addi %401, %549 : i32
            %619 = arith.index_cast %618 : i32 to index
            %620 = memref.load %arg12[%619] : memref<?xf32>
            %621 = arith.subf %620, %556 : f32
            %622 = arith.mulf %617, %621 : f32
            %623 = arith.mulf %271, %cst_3 : f32
            %624 = arith.addf %623, %614 : f32
            %625 = memref.load %arg14[%262] : memref<?xf32>
            %626 = memref.load %arg18[%265] : memref<?xf32>
            %627 = arith.mulf %625, %626 : f32
            %628 = arith.addf %624, %627 : f32
            %629 = arith.addf %611, %608 : f32
            %630 = arith.mulf %629, %cst_4 : f32
            %631 = arith.addf %628, %630 : f32
            %632 = arith.addi %407, %549 : i32
            %633 = arith.index_cast %632 : i32 to index
            %634 = memref.load %arg12[%633] : memref<?xf32>
            %635 = arith.subf %634, %556 : f32
            %636 = arith.mulf %631, %635 : f32
            %637 = arith.addf %622, %636 : f32
            %638 = arith.mulf %284, %cst_3 : f32
            %639 = arith.addf %638, %608 : f32
            %640 = memref.load %arg14[%275] : memref<?xf32>
            %641 = memref.load %arg18[%278] : memref<?xf32>
            %642 = arith.mulf %640, %641 : f32
            %643 = arith.addf %639, %642 : f32
            %644 = arith.addf %627, %611 : f32
            %645 = arith.mulf %644, %cst_4 : f32
            %646 = arith.addf %643, %645 : f32
            %647 = arith.addi %414, %549 : i32
            %648 = arith.index_cast %647 : i32 to index
            %649 = memref.load %arg12[%648] : memref<?xf32>
            %650 = arith.subf %649, %556 : f32
            %651 = arith.mulf %646, %650 : f32
            %652 = arith.addf %637, %651 : f32
            %653 = arith.mulf %287, %cst_3 : f32
            %654 = arith.addf %653, %627 : f32
            %655 = arith.addf %611, %642 : f32
            %656 = arith.mulf %655, %cst_5 : f32
            %657 = arith.subf %654, %656 : f32
            %658 = arith.addi %421, %549 : i32
            %659 = arith.index_cast %658 : i32 to index
            %660 = memref.load %arg12[%659] : memref<?xf32>
            %661 = arith.subf %660, %556 : f32
            %662 = arith.mulf %657, %661 : f32
            %663 = arith.addf %652, %662 : f32
            %664 = arith.mulf %604, %663 : f32
            %665 = arith.addf %603, %664 : f32
            %666 = arith.mulf %0, %665 : f32
            memref.store %666, %arg11[%551] : memref<?xf32>
            %667 = memref.load %arg11[%292] : memref<?xf32>
            %668 = memref.load %arg16[%73] : memref<?xf32>
            %669 = memref.load %arg17[%159] : memref<?xf32>
            %670 = arith.mulf %668, %669 : f32
            %671 = arith.mulf %670, %2 : f32
            %672 = memref.load %arg14[%79] : memref<?xf32>
            %673 = arith.addi %307, %163 : i32
            %674 = arith.addi %673, %59 : i32
            %675 = arith.addi %674, %431 : i32
            %676 = arith.index_cast %675 : i32 to index
            %677 = memref.load %arg12[%676] : memref<?xf32>
            %678 = arith.addi %307, %202 : i32
            %679 = arith.addi %678, %59 : i32
            %680 = arith.addi %679, %431 : i32
            %681 = arith.index_cast %680 : i32 to index
            %682 = memref.load %arg12[%681] : memref<?xf32>
            %683 = arith.subf %677, %682 : f32
            %684 = arith.addi %307, %148 : i32
            %685 = arith.addi %684, %59 : i32
            %686 = arith.addi %685, %431 : i32
            %687 = arith.index_cast %686 : i32 to index
            %688 = memref.load %arg12[%687] : memref<?xf32>
            %689 = arith.negf %688 : f32
            %690 = arith.addi %307, %179 : i32
            %691 = arith.addi %690, %59 : i32
            %692 = arith.addi %691, %431 : i32
            %693 = arith.index_cast %692 : i32 to index
            %694 = memref.load %arg12[%693] : memref<?xf32>
            %695 = arith.addf %689, %694 : f32
            %696 = arith.mulf %695, %cst_2 : f32
            %697 = arith.addf %683, %696 : f32
            %698 = arith.mulf %672, %697 : f32
            %699 = memref.load %arg14[%61] : memref<?xf32>
            %700 = arith.addi %325, %163 : i32
            %701 = arith.addi %700, %59 : i32
            %702 = arith.addi %701, %431 : i32
            %703 = arith.index_cast %702 : i32 to index
            %704 = memref.load %arg12[%703] : memref<?xf32>
            %705 = arith.addi %325, %202 : i32
            %706 = arith.addi %705, %59 : i32
            %707 = arith.addi %706, %431 : i32
            %708 = arith.index_cast %707 : i32 to index
            %709 = memref.load %arg12[%708] : memref<?xf32>
            %710 = arith.subf %704, %709 : f32
            %711 = arith.addi %325, %148 : i32
            %712 = arith.addi %711, %59 : i32
            %713 = arith.addi %712, %431 : i32
            %714 = arith.index_cast %713 : i32 to index
            %715 = memref.load %arg12[%714] : memref<?xf32>
            %716 = arith.negf %715 : f32
            %717 = arith.addi %325, %179 : i32
            %718 = arith.addi %717, %59 : i32
            %719 = arith.addi %718, %431 : i32
            %720 = arith.index_cast %719 : i32 to index
            %721 = memref.load %arg12[%720] : memref<?xf32>
            %722 = arith.addf %716, %721 : f32
            %723 = arith.mulf %722, %cst_2 : f32
            %724 = arith.addf %710, %723 : f32
            %725 = arith.mulf %699, %724 : f32
            %726 = arith.mulf %725, %cst_2 : f32
            %727 = arith.subf %698, %726 : f32
            %728 = memref.load %arg14[%95] : memref<?xf32>
            %729 = arith.addi %343, %163 : i32
            %730 = arith.addi %729, %59 : i32
            %731 = arith.addi %730, %431 : i32
            %732 = arith.index_cast %731 : i32 to index
            %733 = memref.load %arg12[%732] : memref<?xf32>
            %734 = arith.addi %343, %202 : i32
            %735 = arith.addi %734, %59 : i32
            %736 = arith.addi %735, %431 : i32
            %737 = arith.index_cast %736 : i32 to index
            %738 = memref.load %arg12[%737] : memref<?xf32>
            %739 = arith.subf %733, %738 : f32
            %740 = arith.addi %343, %148 : i32
            %741 = arith.addi %740, %59 : i32
            %742 = arith.addi %741, %431 : i32
            %743 = arith.index_cast %742 : i32 to index
            %744 = memref.load %arg12[%743] : memref<?xf32>
            %745 = arith.negf %744 : f32
            %746 = arith.addi %343, %179 : i32
            %747 = arith.addi %746, %59 : i32
            %748 = arith.addi %747, %431 : i32
            %749 = arith.index_cast %748 : i32 to index
            %750 = memref.load %arg12[%749] : memref<?xf32>
            %751 = arith.addf %745, %750 : f32
            %752 = arith.mulf %751, %cst_2 : f32
            %753 = arith.addf %739, %752 : f32
            %754 = arith.mulf %728, %753 : f32
            %755 = arith.mulf %754, %cst_2 : f32
            %756 = arith.addf %727, %755 : f32
            %757 = memref.load %arg14[%118] : memref<?xf32>
            %758 = arith.addi %357, %163 : i32
            %759 = arith.addi %758, %59 : i32
            %760 = arith.addi %759, %431 : i32
            %761 = arith.index_cast %760 : i32 to index
            %762 = memref.load %arg12[%761] : memref<?xf32>
            %763 = arith.addi %357, %202 : i32
            %764 = arith.addi %763, %59 : i32
            %765 = arith.addi %764, %431 : i32
            %766 = arith.index_cast %765 : i32 to index
            %767 = memref.load %arg12[%766] : memref<?xf32>
            %768 = arith.subf %762, %767 : f32
            %769 = arith.addi %357, %148 : i32
            %770 = arith.addi %769, %59 : i32
            %771 = arith.addi %770, %431 : i32
            %772 = arith.index_cast %771 : i32 to index
            %773 = memref.load %arg12[%772] : memref<?xf32>
            %774 = arith.negf %773 : f32
            %775 = arith.addi %357, %179 : i32
            %776 = arith.addi %775, %59 : i32
            %777 = arith.addi %776, %431 : i32
            %778 = arith.index_cast %777 : i32 to index
            %779 = memref.load %arg12[%778] : memref<?xf32>
            %780 = arith.addf %774, %779 : f32
            %781 = arith.mulf %780, %cst_2 : f32
            %782 = arith.addf %768, %781 : f32
            %783 = arith.mulf %757, %782 : f32
            %784 = arith.subf %756, %783 : f32
            %785 = arith.mulf %671, %784 : f32
            %786 = arith.addf %667, %785 : f32
            %787 = memref.load %arg18[%244] : memref<?xf32>
            %788 = arith.mulf %668, %787 : f32
            %789 = arith.mulf %788, %2 : f32
            %790 = arith.addi %308, %248 : i32
            %791 = arith.addi %790, %549 : i32
            %792 = arith.index_cast %791 : i32 to index
            %793 = memref.load %arg12[%792] : memref<?xf32>
            %794 = arith.addi %308, %273 : i32
            %795 = arith.addi %794, %549 : i32
            %796 = arith.index_cast %795 : i32 to index
            %797 = memref.load %arg12[%796] : memref<?xf32>
            %798 = arith.subf %793, %797 : f32
            %799 = arith.addi %308, %234 : i32
            %800 = arith.addi %799, %549 : i32
            %801 = arith.index_cast %800 : i32 to index
            %802 = memref.load %arg12[%801] : memref<?xf32>
            %803 = arith.negf %802 : f32
            %804 = arith.addi %308, %260 : i32
            %805 = arith.addi %804, %549 : i32
            %806 = arith.index_cast %805 : i32 to index
            %807 = memref.load %arg12[%806] : memref<?xf32>
            %808 = arith.addf %803, %807 : f32
            %809 = arith.mulf %808, %cst_2 : f32
            %810 = arith.addf %798, %809 : f32
            %811 = arith.mulf %672, %810 : f32
            %812 = arith.addi %326, %248 : i32
            %813 = arith.addi %812, %549 : i32
            %814 = arith.index_cast %813 : i32 to index
            %815 = memref.load %arg12[%814] : memref<?xf32>
            %816 = arith.addi %326, %273 : i32
            %817 = arith.addi %816, %549 : i32
            %818 = arith.index_cast %817 : i32 to index
            %819 = memref.load %arg12[%818] : memref<?xf32>
            %820 = arith.subf %815, %819 : f32
            %821 = arith.addi %326, %234 : i32
            %822 = arith.addi %821, %549 : i32
            %823 = arith.index_cast %822 : i32 to index
            %824 = memref.load %arg12[%823] : memref<?xf32>
            %825 = arith.negf %824 : f32
            %826 = arith.addi %326, %260 : i32
            %827 = arith.addi %826, %549 : i32
            %828 = arith.index_cast %827 : i32 to index
            %829 = memref.load %arg12[%828] : memref<?xf32>
            %830 = arith.addf %825, %829 : f32
            %831 = arith.mulf %830, %cst_2 : f32
            %832 = arith.addf %820, %831 : f32
            %833 = arith.mulf %699, %832 : f32
            %834 = arith.mulf %833, %cst_2 : f32
            %835 = arith.subf %811, %834 : f32
            %836 = arith.addi %344, %248 : i32
            %837 = arith.addi %836, %549 : i32
            %838 = arith.index_cast %837 : i32 to index
            %839 = memref.load %arg12[%838] : memref<?xf32>
            %840 = arith.addi %344, %273 : i32
            %841 = arith.addi %840, %549 : i32
            %842 = arith.index_cast %841 : i32 to index
            %843 = memref.load %arg12[%842] : memref<?xf32>
            %844 = arith.subf %839, %843 : f32
            %845 = arith.addi %344, %234 : i32
            %846 = arith.addi %845, %549 : i32
            %847 = arith.index_cast %846 : i32 to index
            %848 = memref.load %arg12[%847] : memref<?xf32>
            %849 = arith.negf %848 : f32
            %850 = arith.addi %344, %260 : i32
            %851 = arith.addi %850, %549 : i32
            %852 = arith.index_cast %851 : i32 to index
            %853 = memref.load %arg12[%852] : memref<?xf32>
            %854 = arith.addf %849, %853 : f32
            %855 = arith.mulf %854, %cst_2 : f32
            %856 = arith.addf %844, %855 : f32
            %857 = arith.mulf %728, %856 : f32
            %858 = arith.mulf %857, %cst_2 : f32
            %859 = arith.addf %835, %858 : f32
            %860 = arith.addi %358, %248 : i32
            %861 = arith.addi %860, %549 : i32
            %862 = arith.index_cast %861 : i32 to index
            %863 = memref.load %arg12[%862] : memref<?xf32>
            %864 = arith.addi %358, %273 : i32
            %865 = arith.addi %864, %549 : i32
            %866 = arith.index_cast %865 : i32 to index
            %867 = memref.load %arg12[%866] : memref<?xf32>
            %868 = arith.subf %863, %867 : f32
            %869 = arith.addi %358, %234 : i32
            %870 = arith.addi %869, %549 : i32
            %871 = arith.index_cast %870 : i32 to index
            %872 = memref.load %arg12[%871] : memref<?xf32>
            %873 = arith.negf %872 : f32
            %874 = arith.addi %358, %260 : i32
            %875 = arith.addi %874, %549 : i32
            %876 = arith.index_cast %875 : i32 to index
            %877 = memref.load %arg12[%876] : memref<?xf32>
            %878 = arith.addf %873, %877 : f32
            %879 = arith.mulf %878, %cst_2 : f32
            %880 = arith.addf %868, %879 : f32
            %881 = arith.mulf %757, %880 : f32
            %882 = arith.subf %859, %881 : f32
            %883 = arith.mulf %789, %882 : f32
            %884 = arith.addf %786, %883 : f32
            %885 = memref.load %arg13[%166] : memref<?xf32>
            %886 = arith.subf %677, %762 : f32
            %887 = arith.negf %704 : f32
            %888 = arith.addf %887, %733 : f32
            %889 = arith.mulf %888, %cst_2 : f32
            %890 = arith.addf %886, %889 : f32
            %891 = arith.mulf %885, %890 : f32
            %892 = memref.load %arg13[%151] : memref<?xf32>
            %893 = arith.subf %688, %773 : f32
            %894 = arith.addf %716, %744 : f32
            %895 = arith.mulf %894, %cst_2 : f32
            %896 = arith.addf %893, %895 : f32
            %897 = arith.mulf %892, %896 : f32
            %898 = arith.mulf %897, %cst_2 : f32
            %899 = arith.subf %891, %898 : f32
            %900 = memref.load %arg13[%182] : memref<?xf32>
            %901 = arith.subf %694, %779 : f32
            %902 = arith.negf %721 : f32
            %903 = arith.addf %902, %750 : f32
            %904 = arith.mulf %903, %cst_2 : f32
            %905 = arith.addf %901, %904 : f32
            %906 = arith.mulf %900, %905 : f32
            %907 = arith.mulf %906, %cst_2 : f32
            %908 = arith.addf %899, %907 : f32
            %909 = memref.load %arg13[%205] : memref<?xf32>
            %910 = arith.subf %682, %767 : f32
            %911 = arith.negf %709 : f32
            %912 = arith.addf %911, %738 : f32
            %913 = arith.mulf %912, %cst_2 : f32
            %914 = arith.addf %910, %913 : f32
            %915 = arith.mulf %909, %914 : f32
            %916 = arith.subf %908, %915 : f32
            %917 = arith.mulf %671, %916 : f32
            %918 = arith.addf %884, %917 : f32
            %919 = memref.load %arg13[%250] : memref<?xf32>
            %920 = arith.subf %793, %863 : f32
            %921 = arith.negf %815 : f32
            %922 = arith.addf %921, %839 : f32
            %923 = arith.mulf %922, %cst_2 : f32
            %924 = arith.addf %920, %923 : f32
            %925 = arith.mulf %919, %924 : f32
            %926 = memref.load %arg13[%236] : memref<?xf32>
            %927 = arith.subf %802, %872 : f32
            %928 = arith.addf %825, %848 : f32
            %929 = arith.mulf %928, %cst_2 : f32
            %930 = arith.addf %927, %929 : f32
            %931 = arith.mulf %926, %930 : f32
            %932 = arith.mulf %931, %cst_2 : f32
            %933 = arith.subf %925, %932 : f32
            %934 = memref.load %arg13[%262] : memref<?xf32>
            %935 = arith.subf %807, %877 : f32
            %936 = arith.negf %829 : f32
            %937 = arith.addf %936, %853 : f32
            %938 = arith.mulf %937, %cst_2 : f32
            %939 = arith.addf %935, %938 : f32
            %940 = arith.mulf %934, %939 : f32
            %941 = arith.mulf %940, %cst_2 : f32
            %942 = arith.addf %933, %941 : f32
            %943 = memref.load %arg13[%275] : memref<?xf32>
            %944 = arith.subf %797, %867 : f32
            %945 = arith.negf %819 : f32
            %946 = arith.addf %945, %843 : f32
            %947 = arith.mulf %946, %cst_2 : f32
            %948 = arith.addf %944, %947 : f32
            %949 = arith.mulf %943, %948 : f32
            %950 = arith.subf %942, %949 : f32
            %951 = arith.mulf %789, %950 : f32
            %952 = arith.addf %918, %951 : f32
            memref.store %952, %arg11[%292] : memref<?xf32>
            %953 = memref.load %arg11[%292] : memref<?xf32>
            %954 = arith.mulf %20, %953 : f32
            memref.store %954, %arg11[%292] : memref<?xf32>
            %955 = memref.load %arg11[%433] : memref<?xf32>
            %956 = memref.load %arg16[%73] : memref<?xf32>
            %957 = memref.load %arg17[%159] : memref<?xf32>
            %958 = arith.mulf %956, %957 : f32
            %959 = arith.mulf %958, %2 : f32
            %960 = memref.load %arg13[%79] : memref<?xf32>
            %961 = arith.addi %674, %10 : i32
            %962 = arith.index_cast %961 : i32 to index
            %963 = memref.load %arg12[%962] : memref<?xf32>
            %964 = arith.addi %679, %10 : i32
            %965 = arith.index_cast %964 : i32 to index
            %966 = memref.load %arg12[%965] : memref<?xf32>
            %967 = arith.subf %963, %966 : f32
            %968 = arith.addi %685, %10 : i32
            %969 = arith.index_cast %968 : i32 to index
            %970 = memref.load %arg12[%969] : memref<?xf32>
            %971 = arith.negf %970 : f32
            %972 = arith.addi %691, %10 : i32
            %973 = arith.index_cast %972 : i32 to index
            %974 = memref.load %arg12[%973] : memref<?xf32>
            %975 = arith.addf %971, %974 : f32
            %976 = arith.mulf %975, %cst_2 : f32
            %977 = arith.addf %967, %976 : f32
            %978 = arith.mulf %960, %977 : f32
            %979 = memref.load %arg13[%61] : memref<?xf32>
            %980 = arith.addi %701, %10 : i32
            %981 = arith.index_cast %980 : i32 to index
            %982 = memref.load %arg12[%981] : memref<?xf32>
            %983 = arith.addi %706, %10 : i32
            %984 = arith.index_cast %983 : i32 to index
            %985 = memref.load %arg12[%984] : memref<?xf32>
            %986 = arith.subf %982, %985 : f32
            %987 = arith.addi %712, %10 : i32
            %988 = arith.index_cast %987 : i32 to index
            %989 = memref.load %arg12[%988] : memref<?xf32>
            %990 = arith.negf %989 : f32
            %991 = arith.addi %718, %10 : i32
            %992 = arith.index_cast %991 : i32 to index
            %993 = memref.load %arg12[%992] : memref<?xf32>
            %994 = arith.addf %990, %993 : f32
            %995 = arith.mulf %994, %cst_2 : f32
            %996 = arith.addf %986, %995 : f32
            %997 = arith.mulf %979, %996 : f32
            %998 = arith.mulf %997, %cst_2 : f32
            %999 = arith.subf %978, %998 : f32
            %1000 = memref.load %arg13[%95] : memref<?xf32>
            %1001 = arith.addi %730, %10 : i32
            %1002 = arith.index_cast %1001 : i32 to index
            %1003 = memref.load %arg12[%1002] : memref<?xf32>
            %1004 = arith.addi %735, %10 : i32
            %1005 = arith.index_cast %1004 : i32 to index
            %1006 = memref.load %arg12[%1005] : memref<?xf32>
            %1007 = arith.subf %1003, %1006 : f32
            %1008 = arith.addi %741, %10 : i32
            %1009 = arith.index_cast %1008 : i32 to index
            %1010 = memref.load %arg12[%1009] : memref<?xf32>
            %1011 = arith.negf %1010 : f32
            %1012 = arith.addi %747, %10 : i32
            %1013 = arith.index_cast %1012 : i32 to index
            %1014 = memref.load %arg12[%1013] : memref<?xf32>
            %1015 = arith.addf %1011, %1014 : f32
            %1016 = arith.mulf %1015, %cst_2 : f32
            %1017 = arith.addf %1007, %1016 : f32
            %1018 = arith.mulf %1000, %1017 : f32
            %1019 = arith.mulf %1018, %cst_2 : f32
            %1020 = arith.addf %999, %1019 : f32
            %1021 = memref.load %arg13[%118] : memref<?xf32>
            %1022 = arith.addi %759, %10 : i32
            %1023 = arith.index_cast %1022 : i32 to index
            %1024 = memref.load %arg12[%1023] : memref<?xf32>
            %1025 = arith.addi %764, %10 : i32
            %1026 = arith.index_cast %1025 : i32 to index
            %1027 = memref.load %arg12[%1026] : memref<?xf32>
            %1028 = arith.subf %1024, %1027 : f32
            %1029 = arith.addi %770, %10 : i32
            %1030 = arith.index_cast %1029 : i32 to index
            %1031 = memref.load %arg12[%1030] : memref<?xf32>
            %1032 = arith.negf %1031 : f32
            %1033 = arith.addi %776, %10 : i32
            %1034 = arith.index_cast %1033 : i32 to index
            %1035 = memref.load %arg12[%1034] : memref<?xf32>
            %1036 = arith.addf %1032, %1035 : f32
            %1037 = arith.mulf %1036, %cst_2 : f32
            %1038 = arith.addf %1028, %1037 : f32
            %1039 = arith.mulf %1021, %1038 : f32
            %1040 = arith.subf %1020, %1039 : f32
            %1041 = arith.mulf %959, %1040 : f32
            %1042 = arith.addf %955, %1041 : f32
            %1043 = memref.load %arg14[%166] : memref<?xf32>
            %1044 = arith.subf %963, %1024 : f32
            %1045 = arith.negf %982 : f32
            %1046 = arith.addf %1045, %1003 : f32
            %1047 = arith.mulf %1046, %cst_2 : f32
            %1048 = arith.addf %1044, %1047 : f32
            %1049 = arith.mulf %1043, %1048 : f32
            %1050 = memref.load %arg14[%151] : memref<?xf32>
            %1051 = arith.subf %970, %1031 : f32
            %1052 = arith.addf %990, %1010 : f32
            %1053 = arith.mulf %1052, %cst_2 : f32
            %1054 = arith.addf %1051, %1053 : f32
            %1055 = arith.mulf %1050, %1054 : f32
            %1056 = arith.mulf %1055, %cst_2 : f32
            %1057 = arith.subf %1049, %1056 : f32
            %1058 = memref.load %arg14[%182] : memref<?xf32>
            %1059 = arith.subf %974, %1035 : f32
            %1060 = arith.negf %993 : f32
            %1061 = arith.addf %1060, %1014 : f32
            %1062 = arith.mulf %1061, %cst_2 : f32
            %1063 = arith.addf %1059, %1062 : f32
            %1064 = arith.mulf %1058, %1063 : f32
            %1065 = arith.mulf %1064, %cst_2 : f32
            %1066 = arith.addf %1057, %1065 : f32
            %1067 = memref.load %arg14[%205] : memref<?xf32>
            %1068 = arith.subf %966, %1027 : f32
            %1069 = arith.negf %985 : f32
            %1070 = arith.addf %1069, %1006 : f32
            %1071 = arith.mulf %1070, %cst_2 : f32
            %1072 = arith.addf %1068, %1071 : f32
            %1073 = arith.mulf %1067, %1072 : f32
            %1074 = arith.subf %1066, %1073 : f32
            %1075 = arith.mulf %959, %1074 : f32
            %1076 = arith.addf %1042, %1075 : f32
            %1077 = memref.load %arg18[%244] : memref<?xf32>
            %1078 = arith.mulf %957, %1077 : f32
            %1079 = arith.mulf %1078, %2 : f32
            %1080 = arith.addi %368, %248 : i32
            %1081 = arith.addi %1080, %549 : i32
            %1082 = arith.index_cast %1081 : i32 to index
            %1083 = memref.load %arg12[%1082] : memref<?xf32>
            %1084 = arith.addi %368, %273 : i32
            %1085 = arith.addi %1084, %549 : i32
            %1086 = arith.index_cast %1085 : i32 to index
            %1087 = memref.load %arg12[%1086] : memref<?xf32>
            %1088 = arith.subf %1083, %1087 : f32
            %1089 = arith.addi %368, %234 : i32
            %1090 = arith.addi %1089, %549 : i32
            %1091 = arith.index_cast %1090 : i32 to index
            %1092 = memref.load %arg12[%1091] : memref<?xf32>
            %1093 = arith.negf %1092 : f32
            %1094 = arith.addi %368, %260 : i32
            %1095 = arith.addi %1094, %549 : i32
            %1096 = arith.index_cast %1095 : i32 to index
            %1097 = memref.load %arg12[%1096] : memref<?xf32>
            %1098 = arith.addf %1093, %1097 : f32
            %1099 = arith.mulf %1098, %cst_2 : f32
            %1100 = arith.addf %1088, %1099 : f32
            %1101 = arith.mulf %1043, %1100 : f32
            %1102 = arith.addi %375, %248 : i32
            %1103 = arith.addi %1102, %549 : i32
            %1104 = arith.index_cast %1103 : i32 to index
            %1105 = memref.load %arg12[%1104] : memref<?xf32>
            %1106 = arith.addi %375, %273 : i32
            %1107 = arith.addi %1106, %549 : i32
            %1108 = arith.index_cast %1107 : i32 to index
            %1109 = memref.load %arg12[%1108] : memref<?xf32>
            %1110 = arith.subf %1105, %1109 : f32
            %1111 = arith.addi %375, %234 : i32
            %1112 = arith.addi %1111, %549 : i32
            %1113 = arith.index_cast %1112 : i32 to index
            %1114 = memref.load %arg12[%1113] : memref<?xf32>
            %1115 = arith.negf %1114 : f32
            %1116 = arith.addi %375, %260 : i32
            %1117 = arith.addi %1116, %549 : i32
            %1118 = arith.index_cast %1117 : i32 to index
            %1119 = memref.load %arg12[%1118] : memref<?xf32>
            %1120 = arith.addf %1115, %1119 : f32
            %1121 = arith.mulf %1120, %cst_2 : f32
            %1122 = arith.addf %1110, %1121 : f32
            %1123 = arith.mulf %1050, %1122 : f32
            %1124 = arith.mulf %1123, %cst_2 : f32
            %1125 = arith.subf %1101, %1124 : f32
            %1126 = arith.addi %383, %248 : i32
            %1127 = arith.addi %1126, %549 : i32
            %1128 = arith.index_cast %1127 : i32 to index
            %1129 = memref.load %arg12[%1128] : memref<?xf32>
            %1130 = arith.addi %383, %273 : i32
            %1131 = arith.addi %1130, %549 : i32
            %1132 = arith.index_cast %1131 : i32 to index
            %1133 = memref.load %arg12[%1132] : memref<?xf32>
            %1134 = arith.subf %1129, %1133 : f32
            %1135 = arith.addi %383, %234 : i32
            %1136 = arith.addi %1135, %549 : i32
            %1137 = arith.index_cast %1136 : i32 to index
            %1138 = memref.load %arg12[%1137] : memref<?xf32>
            %1139 = arith.negf %1138 : f32
            %1140 = arith.addi %383, %260 : i32
            %1141 = arith.addi %1140, %549 : i32
            %1142 = arith.index_cast %1141 : i32 to index
            %1143 = memref.load %arg12[%1142] : memref<?xf32>
            %1144 = arith.addf %1139, %1143 : f32
            %1145 = arith.mulf %1144, %cst_2 : f32
            %1146 = arith.addf %1134, %1145 : f32
            %1147 = arith.mulf %1058, %1146 : f32
            %1148 = arith.mulf %1147, %cst_2 : f32
            %1149 = arith.addf %1125, %1148 : f32
            %1150 = arith.addi %391, %248 : i32
            %1151 = arith.addi %1150, %549 : i32
            %1152 = arith.index_cast %1151 : i32 to index
            %1153 = memref.load %arg12[%1152] : memref<?xf32>
            %1154 = arith.addi %391, %273 : i32
            %1155 = arith.addi %1154, %549 : i32
            %1156 = arith.index_cast %1155 : i32 to index
            %1157 = memref.load %arg12[%1156] : memref<?xf32>
            %1158 = arith.subf %1153, %1157 : f32
            %1159 = arith.addi %391, %234 : i32
            %1160 = arith.addi %1159, %549 : i32
            %1161 = arith.index_cast %1160 : i32 to index
            %1162 = memref.load %arg12[%1161] : memref<?xf32>
            %1163 = arith.negf %1162 : f32
            %1164 = arith.addi %391, %260 : i32
            %1165 = arith.addi %1164, %549 : i32
            %1166 = arith.index_cast %1165 : i32 to index
            %1167 = memref.load %arg12[%1166] : memref<?xf32>
            %1168 = arith.addf %1163, %1167 : f32
            %1169 = arith.mulf %1168, %cst_2 : f32
            %1170 = arith.addf %1158, %1169 : f32
            %1171 = arith.mulf %1067, %1170 : f32
            %1172 = arith.subf %1149, %1171 : f32
            %1173 = arith.mulf %1079, %1172 : f32
            %1174 = arith.addf %1076, %1173 : f32
            %1175 = memref.load %arg13[%250] : memref<?xf32>
            %1176 = arith.subf %1083, %1153 : f32
            %1177 = arith.negf %1105 : f32
            %1178 = arith.addf %1177, %1129 : f32
            %1179 = arith.mulf %1178, %cst_2 : f32
            %1180 = arith.addf %1176, %1179 : f32
            %1181 = arith.mulf %1175, %1180 : f32
            %1182 = memref.load %arg13[%236] : memref<?xf32>
            %1183 = arith.subf %1092, %1162 : f32
            %1184 = arith.addf %1115, %1138 : f32
            %1185 = arith.mulf %1184, %cst_2 : f32
            %1186 = arith.addf %1183, %1185 : f32
            %1187 = arith.mulf %1182, %1186 : f32
            %1188 = arith.mulf %1187, %cst_2 : f32
            %1189 = arith.subf %1181, %1188 : f32
            %1190 = memref.load %arg13[%262] : memref<?xf32>
            %1191 = arith.subf %1097, %1167 : f32
            %1192 = arith.negf %1119 : f32
            %1193 = arith.addf %1192, %1143 : f32
            %1194 = arith.mulf %1193, %cst_2 : f32
            %1195 = arith.addf %1191, %1194 : f32
            %1196 = arith.mulf %1190, %1195 : f32
            %1197 = arith.mulf %1196, %cst_2 : f32
            %1198 = arith.addf %1189, %1197 : f32
            %1199 = memref.load %arg13[%275] : memref<?xf32>
            %1200 = arith.subf %1087, %1157 : f32
            %1201 = arith.negf %1109 : f32
            %1202 = arith.addf %1201, %1133 : f32
            %1203 = arith.mulf %1202, %cst_2 : f32
            %1204 = arith.addf %1200, %1203 : f32
            %1205 = arith.mulf %1199, %1204 : f32
            %1206 = arith.subf %1198, %1205 : f32
            %1207 = arith.mulf %1079, %1206 : f32
            %1208 = arith.addf %1174, %1207 : f32
            memref.store %1208, %arg11[%433] : memref<?xf32>
            %1209 = memref.load %arg11[%433] : memref<?xf32>
            %1210 = arith.mulf %20, %1209 : f32
            memref.store %1210, %arg11[%433] : memref<?xf32>
            %1211 = memref.load %arg11[%551] : memref<?xf32>
            %1212 = memref.load %arg16[%73] : memref<?xf32>
            %1213 = memref.load %arg18[%244] : memref<?xf32>
            %1214 = arith.mulf %1212, %1213 : f32
            %1215 = arith.mulf %1214, %2 : f32
            %1216 = memref.load %arg13[%79] : memref<?xf32>
            %1217 = arith.addi %790, %10 : i32
            %1218 = arith.index_cast %1217 : i32 to index
            %1219 = memref.load %arg12[%1218] : memref<?xf32>
            %1220 = arith.addi %794, %10 : i32
            %1221 = arith.index_cast %1220 : i32 to index
            %1222 = memref.load %arg12[%1221] : memref<?xf32>
            %1223 = arith.subf %1219, %1222 : f32
            %1224 = arith.addi %799, %10 : i32
            %1225 = arith.index_cast %1224 : i32 to index
            %1226 = memref.load %arg12[%1225] : memref<?xf32>
            %1227 = arith.negf %1226 : f32
            %1228 = arith.addi %804, %10 : i32
            %1229 = arith.index_cast %1228 : i32 to index
            %1230 = memref.load %arg12[%1229] : memref<?xf32>
            %1231 = arith.addf %1227, %1230 : f32
            %1232 = arith.mulf %1231, %cst_2 : f32
            %1233 = arith.addf %1223, %1232 : f32
            %1234 = arith.mulf %1216, %1233 : f32
            %1235 = memref.load %arg13[%61] : memref<?xf32>
            %1236 = arith.addi %812, %10 : i32
            %1237 = arith.index_cast %1236 : i32 to index
            %1238 = memref.load %arg12[%1237] : memref<?xf32>
            %1239 = arith.addi %816, %10 : i32
            %1240 = arith.index_cast %1239 : i32 to index
            %1241 = memref.load %arg12[%1240] : memref<?xf32>
            %1242 = arith.subf %1238, %1241 : f32
            %1243 = arith.addi %821, %10 : i32
            %1244 = arith.index_cast %1243 : i32 to index
            %1245 = memref.load %arg12[%1244] : memref<?xf32>
            %1246 = arith.negf %1245 : f32
            %1247 = arith.addi %826, %10 : i32
            %1248 = arith.index_cast %1247 : i32 to index
            %1249 = memref.load %arg12[%1248] : memref<?xf32>
            %1250 = arith.addf %1246, %1249 : f32
            %1251 = arith.mulf %1250, %cst_2 : f32
            %1252 = arith.addf %1242, %1251 : f32
            %1253 = arith.mulf %1235, %1252 : f32
            %1254 = arith.mulf %1253, %cst_2 : f32
            %1255 = arith.subf %1234, %1254 : f32
            %1256 = memref.load %arg13[%95] : memref<?xf32>
            %1257 = arith.addi %836, %10 : i32
            %1258 = arith.index_cast %1257 : i32 to index
            %1259 = memref.load %arg12[%1258] : memref<?xf32>
            %1260 = arith.addi %840, %10 : i32
            %1261 = arith.index_cast %1260 : i32 to index
            %1262 = memref.load %arg12[%1261] : memref<?xf32>
            %1263 = arith.subf %1259, %1262 : f32
            %1264 = arith.addi %845, %10 : i32
            %1265 = arith.index_cast %1264 : i32 to index
            %1266 = memref.load %arg12[%1265] : memref<?xf32>
            %1267 = arith.negf %1266 : f32
            %1268 = arith.addi %850, %10 : i32
            %1269 = arith.index_cast %1268 : i32 to index
            %1270 = memref.load %arg12[%1269] : memref<?xf32>
            %1271 = arith.addf %1267, %1270 : f32
            %1272 = arith.mulf %1271, %cst_2 : f32
            %1273 = arith.addf %1263, %1272 : f32
            %1274 = arith.mulf %1256, %1273 : f32
            %1275 = arith.mulf %1274, %cst_2 : f32
            %1276 = arith.addf %1255, %1275 : f32
            %1277 = memref.load %arg13[%118] : memref<?xf32>
            %1278 = arith.addi %860, %10 : i32
            %1279 = arith.index_cast %1278 : i32 to index
            %1280 = memref.load %arg12[%1279] : memref<?xf32>
            %1281 = arith.addi %864, %10 : i32
            %1282 = arith.index_cast %1281 : i32 to index
            %1283 = memref.load %arg12[%1282] : memref<?xf32>
            %1284 = arith.subf %1280, %1283 : f32
            %1285 = arith.addi %869, %10 : i32
            %1286 = arith.index_cast %1285 : i32 to index
            %1287 = memref.load %arg12[%1286] : memref<?xf32>
            %1288 = arith.negf %1287 : f32
            %1289 = arith.addi %874, %10 : i32
            %1290 = arith.index_cast %1289 : i32 to index
            %1291 = memref.load %arg12[%1290] : memref<?xf32>
            %1292 = arith.addf %1288, %1291 : f32
            %1293 = arith.mulf %1292, %cst_2 : f32
            %1294 = arith.addf %1284, %1293 : f32
            %1295 = arith.mulf %1277, %1294 : f32
            %1296 = arith.subf %1276, %1295 : f32
            %1297 = arith.mulf %1215, %1296 : f32
            %1298 = arith.addf %1211, %1297 : f32
            %1299 = memref.load %arg17[%159] : memref<?xf32>
            %1300 = arith.mulf %1299, %1213 : f32
            %1301 = arith.mulf %1300, %2 : f32
            %1302 = memref.load %arg13[%166] : memref<?xf32>
            %1303 = arith.addi %1080, %431 : i32
            %1304 = arith.index_cast %1303 : i32 to index
            %1305 = memref.load %arg12[%1304] : memref<?xf32>
            %1306 = arith.addi %1084, %431 : i32
            %1307 = arith.index_cast %1306 : i32 to index
            %1308 = memref.load %arg12[%1307] : memref<?xf32>
            %1309 = arith.subf %1305, %1308 : f32
            %1310 = arith.addi %1089, %431 : i32
            %1311 = arith.index_cast %1310 : i32 to index
            %1312 = memref.load %arg12[%1311] : memref<?xf32>
            %1313 = arith.negf %1312 : f32
            %1314 = arith.addi %1094, %431 : i32
            %1315 = arith.index_cast %1314 : i32 to index
            %1316 = memref.load %arg12[%1315] : memref<?xf32>
            %1317 = arith.addf %1313, %1316 : f32
            %1318 = arith.mulf %1317, %cst_2 : f32
            %1319 = arith.addf %1309, %1318 : f32
            %1320 = arith.mulf %1302, %1319 : f32
            %1321 = memref.load %arg13[%151] : memref<?xf32>
            %1322 = arith.addi %1102, %431 : i32
            %1323 = arith.index_cast %1322 : i32 to index
            %1324 = memref.load %arg12[%1323] : memref<?xf32>
            %1325 = arith.addi %1106, %431 : i32
            %1326 = arith.index_cast %1325 : i32 to index
            %1327 = memref.load %arg12[%1326] : memref<?xf32>
            %1328 = arith.subf %1324, %1327 : f32
            %1329 = arith.addi %1111, %431 : i32
            %1330 = arith.index_cast %1329 : i32 to index
            %1331 = memref.load %arg12[%1330] : memref<?xf32>
            %1332 = arith.negf %1331 : f32
            %1333 = arith.addi %1116, %431 : i32
            %1334 = arith.index_cast %1333 : i32 to index
            %1335 = memref.load %arg12[%1334] : memref<?xf32>
            %1336 = arith.addf %1332, %1335 : f32
            %1337 = arith.mulf %1336, %cst_2 : f32
            %1338 = arith.addf %1328, %1337 : f32
            %1339 = arith.mulf %1321, %1338 : f32
            %1340 = arith.mulf %1339, %cst_2 : f32
            %1341 = arith.subf %1320, %1340 : f32
            %1342 = memref.load %arg13[%182] : memref<?xf32>
            %1343 = arith.addi %1126, %431 : i32
            %1344 = arith.index_cast %1343 : i32 to index
            %1345 = memref.load %arg12[%1344] : memref<?xf32>
            %1346 = arith.addi %1130, %431 : i32
            %1347 = arith.index_cast %1346 : i32 to index
            %1348 = memref.load %arg12[%1347] : memref<?xf32>
            %1349 = arith.subf %1345, %1348 : f32
            %1350 = arith.addi %1135, %431 : i32
            %1351 = arith.index_cast %1350 : i32 to index
            %1352 = memref.load %arg12[%1351] : memref<?xf32>
            %1353 = arith.negf %1352 : f32
            %1354 = arith.addi %1140, %431 : i32
            %1355 = arith.index_cast %1354 : i32 to index
            %1356 = memref.load %arg12[%1355] : memref<?xf32>
            %1357 = arith.addf %1353, %1356 : f32
            %1358 = arith.mulf %1357, %cst_2 : f32
            %1359 = arith.addf %1349, %1358 : f32
            %1360 = arith.mulf %1342, %1359 : f32
            %1361 = arith.mulf %1360, %cst_2 : f32
            %1362 = arith.addf %1341, %1361 : f32
            %1363 = memref.load %arg13[%205] : memref<?xf32>
            %1364 = arith.addi %1150, %431 : i32
            %1365 = arith.index_cast %1364 : i32 to index
            %1366 = memref.load %arg12[%1365] : memref<?xf32>
            %1367 = arith.addi %1154, %431 : i32
            %1368 = arith.index_cast %1367 : i32 to index
            %1369 = memref.load %arg12[%1368] : memref<?xf32>
            %1370 = arith.subf %1366, %1369 : f32
            %1371 = arith.addi %1159, %431 : i32
            %1372 = arith.index_cast %1371 : i32 to index
            %1373 = memref.load %arg12[%1372] : memref<?xf32>
            %1374 = arith.negf %1373 : f32
            %1375 = arith.addi %1164, %431 : i32
            %1376 = arith.index_cast %1375 : i32 to index
            %1377 = memref.load %arg12[%1376] : memref<?xf32>
            %1378 = arith.addf %1374, %1377 : f32
            %1379 = arith.mulf %1378, %cst_2 : f32
            %1380 = arith.addf %1370, %1379 : f32
            %1381 = arith.mulf %1363, %1380 : f32
            %1382 = arith.subf %1362, %1381 : f32
            %1383 = arith.mulf %1301, %1382 : f32
            %1384 = arith.addf %1298, %1383 : f32
            %1385 = memref.load %arg14[%250] : memref<?xf32>
            %1386 = arith.subf %1219, %1280 : f32
            %1387 = arith.negf %1238 : f32
            %1388 = arith.addf %1387, %1259 : f32
            %1389 = arith.mulf %1388, %cst_2 : f32
            %1390 = arith.addf %1386, %1389 : f32
            %1391 = arith.mulf %1385, %1390 : f32
            %1392 = memref.load %arg14[%236] : memref<?xf32>
            %1393 = arith.subf %1226, %1287 : f32
            %1394 = arith.addf %1246, %1266 : f32
            %1395 = arith.mulf %1394, %cst_2 : f32
            %1396 = arith.addf %1393, %1395 : f32
            %1397 = arith.mulf %1392, %1396 : f32
            %1398 = arith.mulf %1397, %cst_2 : f32
            %1399 = arith.subf %1391, %1398 : f32
            %1400 = memref.load %arg14[%262] : memref<?xf32>
            %1401 = arith.subf %1230, %1291 : f32
            %1402 = arith.negf %1249 : f32
            %1403 = arith.addf %1402, %1270 : f32
            %1404 = arith.mulf %1403, %cst_2 : f32
            %1405 = arith.addf %1401, %1404 : f32
            %1406 = arith.mulf %1400, %1405 : f32
            %1407 = arith.mulf %1406, %cst_2 : f32
            %1408 = arith.addf %1399, %1407 : f32
            %1409 = memref.load %arg14[%275] : memref<?xf32>
            %1410 = arith.subf %1222, %1283 : f32
            %1411 = arith.negf %1241 : f32
            %1412 = arith.addf %1411, %1262 : f32
            %1413 = arith.mulf %1412, %cst_2 : f32
            %1414 = arith.addf %1410, %1413 : f32
            %1415 = arith.mulf %1409, %1414 : f32
            %1416 = arith.subf %1408, %1415 : f32
            %1417 = arith.mulf %1215, %1416 : f32
            %1418 = arith.addf %1384, %1417 : f32
            %1419 = arith.subf %1305, %1366 : f32
            %1420 = arith.negf %1324 : f32
            %1421 = arith.addf %1420, %1345 : f32
            %1422 = arith.mulf %1421, %cst_2 : f32
            %1423 = arith.addf %1419, %1422 : f32
            %1424 = arith.mulf %1385, %1423 : f32
            %1425 = arith.subf %1312, %1373 : f32
            %1426 = arith.addf %1332, %1352 : f32
            %1427 = arith.mulf %1426, %cst_2 : f32
            %1428 = arith.addf %1425, %1427 : f32
            %1429 = arith.mulf %1392, %1428 : f32
            %1430 = arith.mulf %1429, %cst_2 : f32
            %1431 = arith.subf %1424, %1430 : f32
            %1432 = arith.subf %1316, %1377 : f32
            %1433 = arith.negf %1335 : f32
            %1434 = arith.addf %1433, %1356 : f32
            %1435 = arith.mulf %1434, %cst_2 : f32
            %1436 = arith.addf %1432, %1435 : f32
            %1437 = arith.mulf %1400, %1436 : f32
            %1438 = arith.mulf %1437, %cst_2 : f32
            %1439 = arith.addf %1431, %1438 : f32
            %1440 = arith.subf %1308, %1369 : f32
            %1441 = arith.negf %1327 : f32
            %1442 = arith.addf %1441, %1348 : f32
            %1443 = arith.mulf %1442, %cst_2 : f32
            %1444 = arith.addf %1440, %1443 : f32
            %1445 = arith.mulf %1409, %1444 : f32
            %1446 = arith.subf %1439, %1445 : f32
            %1447 = arith.mulf %1301, %1446 : f32
            %1448 = arith.addf %1418, %1447 : f32
            memref.store %1448, %arg11[%551] : memref<?xf32>
            %1449 = memref.load %arg11[%551] : memref<?xf32>
            %1450 = arith.mulf %20, %1449 : f32
            memref.store %1450, %arg11[%551] : memref<?xf32>
          }
        }
        omp.yield
      }
      %34 = affine.load %arg7[4] : memref<?xi32>
      %35 = arith.cmpi eq, %34, %c1_i32 : i32
      scf.if %35 {
        omp.wsloop   for  (%arg19) : index = (%c1) to (%c7) step (%c1) {
          %38 = arith.index_cast %arg19 : index to i32
          %39 = arith.addi %arg2, %c2_i32 : i32
          %40 = arith.addi %arg3, %c-1_i32 : i32
          %41 = arith.index_cast %40 : i32 to index
          %42 = arith.index_cast %39 : i32 to index
          scf.for %arg20 = %42 to %41 step %c1 {
            %43 = arith.subi %arg20, %42 : index
            %44 = arith.index_cast %39 : i32 to index
            %45 = arith.addi %44, %43 : index
            %46 = arith.index_cast %45 : index to i32
            %47 = arith.addi %arg0, %c2_i32 : i32
            %48 = arith.addi %arg1, %c-1_i32 : i32
            %49 = arith.index_cast %48 : i32 to index
            %50 = arith.index_cast %47 : i32 to index
            scf.for %arg21 = %50 to %49 step %c1 {
              %51 = arith.subi %arg21, %50 : index
              %52 = arith.index_cast %47 : i32 to index
              %53 = arith.addi %52, %51 : index
              %54 = arith.index_cast %53 : index to i32
              %55 = arith.addi %15, %54 : i32
              %56 = arith.addi %55, %c-1_i32 : i32
              %57 = arith.muli %4, %46 : i32
              %58 = arith.addi %56, %57 : i32
              %59 = arith.muli %7, %38 : i32
              %60 = arith.addi %58, %59 : i32
              %61 = arith.index_cast %60 : i32 to index
              %62 = memref.load %arg13[%61] : memref<?xf32>
              %63 = arith.addi %54, %c-1_i32 : i32
              %64 = arith.subi %63, %arg0 : i32
              %65 = arith.index_cast %64 : i32 to index
              %66 = memref.load %arg16[%65] : memref<?xf32>
              %67 = arith.mulf %62, %66 : f32
              %68 = arith.addi %55, %57 : i32
              %69 = arith.addi %68, %59 : i32
              %70 = arith.index_cast %69 : i32 to index
              %71 = memref.load %arg13[%70] : memref<?xf32>
              %72 = arith.subi %54, %arg0 : i32
              %73 = arith.index_cast %72 : i32 to index
              %74 = memref.load %arg16[%73] : memref<?xf32>
              %75 = arith.mulf %71, %74 : f32
              %76 = arith.addi %55, %c-2_i32 : i32
              %77 = arith.addi %76, %57 : i32
              %78 = arith.addi %77, %59 : i32
              %79 = arith.index_cast %78 : i32 to index
              %80 = memref.load %arg13[%79] : memref<?xf32>
              %81 = arith.addi %54, %c-2_i32 : i32
              %82 = arith.subi %81, %arg0 : i32
              %83 = arith.index_cast %82 : i32 to index
              %84 = memref.load %arg16[%83] : memref<?xf32>
              %85 = arith.mulf %80, %84 : f32
              %86 = arith.addf %75, %85 : f32
              %87 = arith.mulf %86, %cst_5 : f32
              %88 = arith.subf %67, %87 : f32
              %89 = memref.load %arg13[%79] : memref<?xf32>
              %90 = memref.load %arg16[%83] : memref<?xf32>
              %91 = arith.mulf %89, %90 : f32
              %92 = arith.addi %55, %c1_i32 : i32
              %93 = arith.addi %92, %57 : i32
              %94 = arith.addi %93, %59 : i32
              %95 = arith.index_cast %94 : i32 to index
              %96 = memref.load %arg13[%95] : memref<?xf32>
              %97 = arith.addi %54, %c1_i32 : i32
              %98 = arith.subi %97, %arg0 : i32
              %99 = arith.index_cast %98 : i32 to index
              %100 = memref.load %arg16[%99] : memref<?xf32>
              %101 = arith.mulf %96, %100 : f32
              %102 = arith.addf %91, %101 : f32
              %103 = memref.load %arg13[%70] : memref<?xf32>
              %104 = memref.load %arg16[%73] : memref<?xf32>
              %105 = arith.mulf %103, %104 : f32
              %106 = memref.load %arg13[%61] : memref<?xf32>
              %107 = memref.load %arg16[%65] : memref<?xf32>
              %108 = arith.mulf %106, %107 : f32
              %109 = arith.addf %105, %108 : f32
              %110 = arith.mulf %109, %cst_4 : f32
              %111 = arith.addf %102, %110 : f32
              %112 = memref.load %arg13[%61] : memref<?xf32>
              %113 = memref.load %arg16[%65] : memref<?xf32>
              %114 = arith.mulf %112, %113 : f32
              %115 = arith.addi %55, %c2_i32 : i32
              %116 = arith.addi %115, %57 : i32
              %117 = arith.addi %116, %59 : i32
              %118 = arith.index_cast %117 : i32 to index
              %119 = memref.load %arg13[%118] : memref<?xf32>
              %120 = arith.addi %54, %c2_i32 : i32
              %121 = arith.subi %120, %arg0 : i32
              %122 = arith.index_cast %121 : i32 to index
              %123 = memref.load %arg16[%122] : memref<?xf32>
              %124 = arith.mulf %119, %123 : f32
              %125 = arith.addf %114, %124 : f32
              %126 = memref.load %arg13[%95] : memref<?xf32>
              %127 = memref.load %arg16[%99] : memref<?xf32>
              %128 = arith.mulf %126, %127 : f32
              %129 = memref.load %arg13[%70] : memref<?xf32>
              %130 = memref.load %arg16[%73] : memref<?xf32>
              %131 = arith.mulf %129, %130 : f32
              %132 = arith.addf %128, %131 : f32
              %133 = arith.mulf %132, %cst_4 : f32
              %134 = arith.addf %125, %133 : f32
              %135 = memref.load %arg13[%95] : memref<?xf32>
              %136 = memref.load %arg16[%99] : memref<?xf32>
              %137 = arith.mulf %135, %136 : f32
              %138 = memref.load %arg13[%70] : memref<?xf32>
              %139 = memref.load %arg16[%73] : memref<?xf32>
              %140 = arith.mulf %138, %139 : f32
              %141 = memref.load %arg13[%118] : memref<?xf32>
              %142 = memref.load %arg16[%122] : memref<?xf32>
              %143 = arith.mulf %141, %142 : f32
              %144 = arith.addf %140, %143 : f32
              %145 = arith.mulf %144, %cst_5 : f32
              %146 = arith.subf %137, %145 : f32
              %147 = arith.addi %46, %c-1_i32 : i32
              %148 = arith.muli %4, %147 : i32
              %149 = arith.addi %55, %148 : i32
              %150 = arith.addi %149, %59 : i32
              %151 = arith.index_cast %150 : i32 to index
              %152 = memref.load %arg13[%151] : memref<?xf32>
              %153 = arith.subi %147, %arg2 : i32
              %154 = arith.index_cast %153 : i32 to index
              %155 = memref.load %arg17[%154] : memref<?xf32>
              %156 = arith.mulf %152, %155 : f32
              %157 = memref.load %arg13[%70] : memref<?xf32>
              %158 = arith.subi %46, %arg2 : i32
              %159 = arith.index_cast %158 : i32 to index
              %160 = memref.load %arg17[%159] : memref<?xf32>
              %161 = arith.mulf %157, %160 : f32
              %162 = arith.addi %46, %c-2_i32 : i32
              %163 = arith.muli %4, %162 : i32
              %164 = arith.addi %55, %163 : i32
              %165 = arith.addi %164, %59 : i32
              %166 = arith.index_cast %165 : i32 to index
              %167 = memref.load %arg13[%166] : memref<?xf32>
              %168 = arith.subi %162, %arg2 : i32
              %169 = arith.index_cast %168 : i32 to index
              %170 = memref.load %arg17[%169] : memref<?xf32>
              %171 = arith.mulf %167, %170 : f32
              %172 = arith.addf %161, %171 : f32
              %173 = arith.mulf %172, %cst_5 : f32
              %174 = arith.subf %156, %173 : f32
              %175 = memref.load %arg13[%166] : memref<?xf32>
              %176 = memref.load %arg17[%169] : memref<?xf32>
              %177 = arith.mulf %175, %176 : f32
              %178 = arith.addi %46, %c1_i32 : i32
              %179 = arith.muli %4, %178 : i32
              %180 = arith.addi %55, %179 : i32
              %181 = arith.addi %180, %59 : i32
              %182 = arith.index_cast %181 : i32 to index
              %183 = memref.load %arg13[%182] : memref<?xf32>
              %184 = arith.subi %178, %arg2 : i32
              %185 = arith.index_cast %184 : i32 to index
              %186 = memref.load %arg17[%185] : memref<?xf32>
              %187 = arith.mulf %183, %186 : f32
              %188 = arith.addf %177, %187 : f32
              %189 = memref.load %arg13[%70] : memref<?xf32>
              %190 = memref.load %arg17[%159] : memref<?xf32>
              %191 = arith.mulf %189, %190 : f32
              %192 = memref.load %arg13[%151] : memref<?xf32>
              %193 = memref.load %arg17[%154] : memref<?xf32>
              %194 = arith.mulf %192, %193 : f32
              %195 = arith.addf %191, %194 : f32
              %196 = arith.mulf %195, %cst_4 : f32
              %197 = arith.addf %188, %196 : f32
              %198 = memref.load %arg13[%151] : memref<?xf32>
              %199 = memref.load %arg17[%154] : memref<?xf32>
              %200 = arith.mulf %198, %199 : f32
              %201 = arith.addi %46, %c2_i32 : i32
              %202 = arith.muli %4, %201 : i32
              %203 = arith.addi %55, %202 : i32
              %204 = arith.addi %203, %59 : i32
              %205 = arith.index_cast %204 : i32 to index
              %206 = memref.load %arg13[%205] : memref<?xf32>
              %207 = arith.subi %201, %arg2 : i32
              %208 = arith.index_cast %207 : i32 to index
              %209 = memref.load %arg17[%208] : memref<?xf32>
              %210 = arith.mulf %206, %209 : f32
              %211 = arith.addf %200, %210 : f32
              %212 = memref.load %arg13[%182] : memref<?xf32>
              %213 = memref.load %arg17[%185] : memref<?xf32>
              %214 = arith.mulf %212, %213 : f32
              %215 = memref.load %arg13[%70] : memref<?xf32>
              %216 = memref.load %arg17[%159] : memref<?xf32>
              %217 = arith.mulf %215, %216 : f32
              %218 = arith.addf %214, %217 : f32
              %219 = arith.mulf %218, %cst_4 : f32
              %220 = arith.addf %211, %219 : f32
              %221 = memref.load %arg13[%182] : memref<?xf32>
              %222 = memref.load %arg17[%185] : memref<?xf32>
              %223 = arith.mulf %221, %222 : f32
              %224 = memref.load %arg13[%70] : memref<?xf32>
              %225 = memref.load %arg17[%159] : memref<?xf32>
              %226 = arith.mulf %224, %225 : f32
              %227 = memref.load %arg13[%205] : memref<?xf32>
              %228 = memref.load %arg17[%208] : memref<?xf32>
              %229 = arith.mulf %227, %228 : f32
              %230 = arith.addf %226, %229 : f32
              %231 = arith.mulf %230, %cst_5 : f32
              %232 = arith.subf %223, %231 : f32
              %233 = memref.load %arg16[%73] : memref<?xf32>
              %234 = arith.mulf %88, %cst_3 : f32
              %235 = memref.load %arg14[%61] : memref<?xf32>
              %236 = memref.load %arg16[%65] : memref<?xf32>
              %237 = arith.mulf %235, %236 : f32
              %238 = arith.addf %234, %237 : f32
              %239 = memref.load %arg14[%70] : memref<?xf32>
              %240 = arith.mulf %239, %233 : f32
              %241 = memref.load %arg14[%79] : memref<?xf32>
              %242 = memref.load %arg16[%83] : memref<?xf32>
              %243 = arith.mulf %241, %242 : f32
              %244 = arith.addf %240, %243 : f32
              %245 = arith.mulf %244, %cst_5 : f32
              %246 = arith.subf %238, %245 : f32
              %247 = arith.addi %16, %54 : i32
              %248 = arith.addi %247, %c-2_i32 : i32
              %249 = arith.addi %248, %57 : i32
              %250 = arith.addi %249, %59 : i32
              %251 = arith.addi %250, %10 : i32
              %252 = arith.index_cast %251 : i32 to index
              %253 = memref.load %arg12[%252] : memref<?xf32>
              %254 = arith.addi %247, %57 : i32
              %255 = arith.addi %254, %59 : i32
              %256 = arith.addi %255, %10 : i32
              %257 = arith.index_cast %256 : i32 to index
              %258 = memref.load %arg12[%257] : memref<?xf32>
              %259 = arith.subf %253, %258 : f32
              %260 = arith.mulf %246, %259 : f32
              %261 = arith.mulf %111, %cst_3 : f32
              %262 = arith.addf %261, %243 : f32
              %263 = memref.load %arg14[%95] : memref<?xf32>
              %264 = memref.load %arg16[%99] : memref<?xf32>
              %265 = arith.mulf %263, %264 : f32
              %266 = arith.addf %262, %265 : f32
              %267 = arith.addf %240, %237 : f32
              %268 = arith.mulf %267, %cst_4 : f32
              %269 = arith.addf %266, %268 : f32
              %270 = arith.addi %247, %c-1_i32 : i32
              %271 = arith.addi %270, %57 : i32
              %272 = arith.addi %271, %59 : i32
              %273 = arith.addi %272, %10 : i32
              %274 = arith.index_cast %273 : i32 to index
              %275 = memref.load %arg12[%274] : memref<?xf32>
              %276 = arith.subf %275, %258 : f32
              %277 = arith.mulf %269, %276 : f32
              %278 = arith.addf %260, %277 : f32
              %279 = arith.mulf %134, %cst_3 : f32
              %280 = arith.addf %279, %237 : f32
              %281 = memref.load %arg14[%118] : memref<?xf32>
              %282 = memref.load %arg16[%122] : memref<?xf32>
              %283 = arith.mulf %281, %282 : f32
              %284 = arith.addf %280, %283 : f32
              %285 = arith.addf %265, %240 : f32
              %286 = arith.mulf %285, %cst_4 : f32
              %287 = arith.addf %284, %286 : f32
              %288 = arith.addi %247, %c1_i32 : i32
              %289 = arith.addi %288, %57 : i32
              %290 = arith.addi %289, %59 : i32
              %291 = arith.addi %290, %10 : i32
              %292 = arith.index_cast %291 : i32 to index
              %293 = memref.load %arg12[%292] : memref<?xf32>
              %294 = arith.subf %293, %258 : f32
              %295 = arith.mulf %287, %294 : f32
              %296 = arith.addf %278, %295 : f32
              %297 = arith.mulf %146, %cst_3 : f32
              %298 = arith.addf %297, %265 : f32
              %299 = arith.addf %240, %283 : f32
              %300 = arith.mulf %299, %cst_5 : f32
              %301 = arith.subf %298, %300 : f32
              %302 = arith.addi %247, %c2_i32 : i32
              %303 = arith.addi %302, %57 : i32
              %304 = arith.addi %303, %59 : i32
              %305 = arith.addi %304, %10 : i32
              %306 = arith.index_cast %305 : i32 to index
              %307 = memref.load %arg12[%306] : memref<?xf32>
              %308 = arith.subf %307, %258 : f32
              %309 = arith.mulf %301, %308 : f32
              %310 = arith.addf %296, %309 : f32
              %311 = arith.mulf %233, %310 : f32
              %312 = memref.load %arg17[%159] : memref<?xf32>
              %313 = arith.addi %247, %163 : i32
              %314 = arith.addi %313, %59 : i32
              %315 = arith.addi %314, %10 : i32
              %316 = arith.index_cast %315 : i32 to index
              %317 = memref.load %arg12[%316] : memref<?xf32>
              %318 = arith.subf %317, %258 : f32
              %319 = arith.mulf %174, %318 : f32
              %320 = arith.addi %247, %148 : i32
              %321 = arith.addi %320, %59 : i32
              %322 = arith.addi %321, %10 : i32
              %323 = arith.index_cast %322 : i32 to index
              %324 = memref.load %arg12[%323] : memref<?xf32>
              %325 = arith.subf %324, %258 : f32
              %326 = arith.mulf %197, %325 : f32
              %327 = arith.addf %319, %326 : f32
              %328 = arith.addi %247, %179 : i32
              %329 = arith.addi %328, %59 : i32
              %330 = arith.addi %329, %10 : i32
              %331 = arith.index_cast %330 : i32 to index
              %332 = memref.load %arg12[%331] : memref<?xf32>
              %333 = arith.subf %332, %258 : f32
              %334 = arith.mulf %220, %333 : f32
              %335 = arith.addf %327, %334 : f32
              %336 = arith.addi %247, %202 : i32
              %337 = arith.addi %336, %59 : i32
              %338 = arith.addi %337, %10 : i32
              %339 = arith.index_cast %338 : i32 to index
              %340 = memref.load %arg12[%339] : memref<?xf32>
              %341 = arith.subf %340, %258 : f32
              %342 = arith.mulf %232, %341 : f32
              %343 = arith.addf %335, %342 : f32
              %344 = arith.mulf %312, %343 : f32
              %345 = arith.addf %311, %344 : f32
              %346 = arith.mulf %0, %345 : f32
              %347:3 = scf.for %arg22 = %c1 to %c9 step %c1 iter_args(%arg23 = %cst_7, %arg24 = %cst_7, %arg25 = %cst_7) -> (f32, f32, f32) {
                %1281 = arith.index_cast %arg22 : index to i32
                %1282 = arith.addi %38, %c-1_i32 : i32
                %1283 = arith.addi %1281, %c-1_i32 : i32
                %1284 = arith.muli %1283, %c6_i32 : i32
                %1285 = arith.addi %1282, %1284 : i32
                %1286 = arith.index_cast %1285 : i32 to index
                %1287 = memref.load %arg8[%1286] : memref<?xf32>
                %1288 = arith.addi %68, %7 : i32
                %1289 = arith.index_cast %1288 : i32 to index
                %1290 = memref.load %arg14[%1289] : memref<?xf32>
                %1291 = memref.load %arg13[%1289] : memref<?xf32>
                %1292 = arith.mulf %1291, %cst_3 : f32
                %1293 = arith.addf %1290, %1292 : f32
                %1294 = arith.mulf %1287, %1293 : f32
                %1295 = arith.addi %1285, %c48_i32 : i32
                %1296 = arith.index_cast %1295 : i32 to index
                %1297 = memref.load %arg8[%1296] : memref<?xf32>
                %1298 = arith.muli %7, %c2_i32 : i32
                %1299 = arith.addi %68, %1298 : i32
                %1300 = arith.index_cast %1299 : i32 to index
                %1301 = memref.load %arg14[%1300] : memref<?xf32>
                %1302 = memref.load %arg13[%1300] : memref<?xf32>
                %1303 = arith.mulf %1302, %cst_3 : f32
                %1304 = arith.addf %1301, %1303 : f32
                %1305 = arith.mulf %1297, %1304 : f32
                %1306 = arith.addf %1294, %1305 : f32
                %1307 = arith.addi %1285, %c96_i32 : i32
                %1308 = arith.index_cast %1307 : i32 to index
                %1309 = memref.load %arg8[%1308] : memref<?xf32>
                %1310 = arith.muli %7, %c3_i32 : i32
                %1311 = arith.addi %68, %1310 : i32
                %1312 = arith.index_cast %1311 : i32 to index
                %1313 = memref.load %arg14[%1312] : memref<?xf32>
                %1314 = memref.load %arg13[%1312] : memref<?xf32>
                %1315 = arith.mulf %1314, %cst_3 : f32
                %1316 = arith.addf %1313, %1315 : f32
                %1317 = arith.mulf %1309, %1316 : f32
                %1318 = arith.addf %1306, %1317 : f32
                %1319 = arith.addi %1285, %c144_i32 : i32
                %1320 = arith.index_cast %1319 : i32 to index
                %1321 = memref.load %arg8[%1320] : memref<?xf32>
                %1322 = arith.muli %7, %c4_i32 : i32
                %1323 = arith.addi %68, %1322 : i32
                %1324 = arith.index_cast %1323 : i32 to index
                %1325 = memref.load %arg14[%1324] : memref<?xf32>
                %1326 = memref.load %arg13[%1324] : memref<?xf32>
                %1327 = arith.mulf %1326, %cst_3 : f32
                %1328 = arith.addf %1325, %1327 : f32
                %1329 = arith.mulf %1321, %1328 : f32
                %1330 = arith.addf %1318, %1329 : f32
                %1331 = arith.addi %1285, %c192_i32 : i32
                %1332 = arith.index_cast %1331 : i32 to index
                %1333 = memref.load %arg8[%1332] : memref<?xf32>
                %1334 = arith.muli %7, %c5_i32 : i32
                %1335 = arith.addi %68, %1334 : i32
                %1336 = arith.index_cast %1335 : i32 to index
                %1337 = memref.load %arg14[%1336] : memref<?xf32>
                %1338 = memref.load %arg13[%1336] : memref<?xf32>
                %1339 = arith.mulf %1338, %cst_3 : f32
                %1340 = arith.addf %1337, %1339 : f32
                %1341 = arith.mulf %1333, %1340 : f32
                %1342 = arith.addf %1330, %1341 : f32
                %1343 = arith.addi %1285, %c240_i32 : i32
                %1344 = arith.index_cast %1343 : i32 to index
                %1345 = memref.load %arg8[%1344] : memref<?xf32>
                %1346 = arith.muli %7, %c6_i32 : i32
                %1347 = arith.addi %68, %1346 : i32
                %1348 = arith.index_cast %1347 : i32 to index
                %1349 = memref.load %arg14[%1348] : memref<?xf32>
                %1350 = memref.load %arg13[%1348] : memref<?xf32>
                %1351 = arith.mulf %1350, %cst_3 : f32
                %1352 = arith.addf %1349, %1351 : f32
                %1353 = arith.mulf %1345, %1352 : f32
                %1354 = arith.addf %1342, %1353 : f32
                %1355 = arith.addi %1285, %c288_i32 : i32
                %1356 = arith.index_cast %1355 : i32 to index
                %1357 = memref.load %arg8[%1356] : memref<?xf32>
                %1358 = arith.muli %7, %c7_i32 : i32
                %1359 = arith.addi %68, %1358 : i32
                %1360 = arith.index_cast %1359 : i32 to index
                %1361 = memref.load %arg14[%1360] : memref<?xf32>
                %1362 = memref.load %arg13[%1360] : memref<?xf32>
                %1363 = arith.mulf %1362, %cst_3 : f32
                %1364 = arith.addf %1361, %1363 : f32
                %1365 = arith.mulf %1357, %1364 : f32
                %1366 = arith.addf %1354, %1365 : f32
                %1367 = arith.addi %1285, %c336_i32 : i32
                %1368 = arith.index_cast %1367 : i32 to index
                %1369 = memref.load %arg8[%1368] : memref<?xf32>
                %1370 = arith.muli %7, %c8_i32 : i32
                %1371 = arith.addi %68, %1370 : i32
                %1372 = arith.index_cast %1371 : i32 to index
                %1373 = memref.load %arg14[%1372] : memref<?xf32>
                %1374 = memref.load %arg13[%1372] : memref<?xf32>
                %1375 = arith.mulf %1374, %cst_3 : f32
                %1376 = arith.addf %1373, %1375 : f32
                %1377 = arith.mulf %1369, %1376 : f32
                %1378 = arith.addf %1366, %1377 : f32
                %1379 = memref.load %arg8[%1286] : memref<?xf32>
                %1380 = memref.load %arg13[%1289] : memref<?xf32>
                %1381 = arith.mulf %1379, %1380 : f32
                %1382 = memref.load %arg8[%1296] : memref<?xf32>
                %1383 = memref.load %arg13[%1300] : memref<?xf32>
                %1384 = arith.mulf %1382, %1383 : f32
                %1385 = arith.addf %1381, %1384 : f32
                %1386 = memref.load %arg8[%1308] : memref<?xf32>
                %1387 = memref.load %arg13[%1312] : memref<?xf32>
                %1388 = arith.mulf %1386, %1387 : f32
                %1389 = arith.addf %1385, %1388 : f32
                %1390 = memref.load %arg8[%1320] : memref<?xf32>
                %1391 = memref.load %arg13[%1324] : memref<?xf32>
                %1392 = arith.mulf %1390, %1391 : f32
                %1393 = arith.addf %1389, %1392 : f32
                %1394 = memref.load %arg8[%1332] : memref<?xf32>
                %1395 = memref.load %arg13[%1336] : memref<?xf32>
                %1396 = arith.mulf %1394, %1395 : f32
                %1397 = arith.addf %1393, %1396 : f32
                %1398 = memref.load %arg8[%1344] : memref<?xf32>
                %1399 = memref.load %arg13[%1348] : memref<?xf32>
                %1400 = arith.mulf %1398, %1399 : f32
                %1401 = arith.addf %1397, %1400 : f32
                %1402 = memref.load %arg8[%1356] : memref<?xf32>
                %1403 = memref.load %arg13[%1360] : memref<?xf32>
                %1404 = arith.mulf %1402, %1403 : f32
                %1405 = arith.addf %1401, %1404 : f32
                %1406 = memref.load %arg8[%1368] : memref<?xf32>
                %1407 = memref.load %arg13[%1372] : memref<?xf32>
                %1408 = arith.mulf %1406, %1407 : f32
                %1409 = arith.addf %1405, %1408 : f32
                %1410 = arith.muli %7, %1281 : i32
                %1411 = arith.addi %254, %1410 : i32
                %1412 = arith.addi %1411, %10 : i32
                %1413 = arith.index_cast %1412 : i32 to index
                %1414 = memref.load %arg12[%1413] : memref<?xf32>
                %1415 = arith.mulf %1409, %1414 : f32
                %1416 = arith.addf %arg25, %1415 : f32
                %1417 = arith.muli %10, %c2_i32 : i32
                %1418 = arith.addi %1411, %1417 : i32
                %1419 = arith.index_cast %1418 : i32 to index
                %1420 = memref.load %arg12[%1419] : memref<?xf32>
                %1421 = arith.mulf %1409, %1420 : f32
                %1422 = arith.addf %arg24, %1421 : f32
                %1423 = arith.muli %10, %c3_i32 : i32
                %1424 = arith.addi %1411, %1423 : i32
                %1425 = arith.index_cast %1424 : i32 to index
                %1426 = memref.load %arg12[%1425] : memref<?xf32>
                %1427 = arith.mulf %1378, %1426 : f32
                %1428 = arith.addf %arg23, %1427 : f32
                scf.yield %1428, %1422, %1416 : f32, f32, f32
              }
              %348 = arith.addi %38, %c-1_i32 : i32
              %349 = arith.index_cast %348 : i32 to index
              %350 = memref.load %arg10[%349] : memref<?xf32>
              %351 = arith.addi %15, %54 : i32
              %352 = arith.muli %4, %46 : i32
              %353 = arith.addi %351, %352 : i32
              %354 = arith.addi %353, %7 : i32
              %355 = arith.index_cast %354 : i32 to index
              %356 = memref.load %arg13[%355] : memref<?xf32>
              %357 = arith.mulf %350, %356 : f32
              %358 = arith.addi %16, %54 : i32
              %359 = arith.addi %358, %352 : i32
              %360 = arith.addi %359, %10 : i32
              %361 = arith.index_cast %360 : i32 to index
              %362 = memref.load %arg12[%361] : memref<?xf32>
              %363 = arith.mulf %357, %362 : f32
              %364 = arith.addf %347#2, %363 : f32
              %365 = arith.addf %346, %364 : f32
              %366 = arith.subi %54, %arg0 : i32
              %367 = arith.index_cast %366 : i32 to index
              %368 = memref.load %arg16[%367] : memref<?xf32>
              %369 = arith.addi %16, %54 : i32
              %370 = arith.addi %369, %c-2_i32 : i32
              %371 = arith.muli %4, %46 : i32
              %372 = arith.addi %370, %371 : i32
              %373 = arith.muli %7, %38 : i32
              %374 = arith.addi %372, %373 : i32
              %375 = arith.muli %10, %c2_i32 : i32
              %376 = arith.addi %374, %375 : i32
              %377 = arith.index_cast %376 : i32 to index
              %378 = memref.load %arg12[%377] : memref<?xf32>
              %379 = arith.addi %369, %371 : i32
              %380 = arith.addi %379, %373 : i32
              %381 = arith.addi %380, %375 : i32
              %382 = arith.index_cast %381 : i32 to index
              %383 = memref.load %arg12[%382] : memref<?xf32>
              %384 = arith.subf %378, %383 : f32
              %385 = arith.mulf %88, %384 : f32
              %386 = arith.addi %369, %c-1_i32 : i32
              %387 = arith.addi %386, %371 : i32
              %388 = arith.addi %387, %373 : i32
              %389 = arith.addi %388, %375 : i32
              %390 = arith.index_cast %389 : i32 to index
              %391 = memref.load %arg12[%390] : memref<?xf32>
              %392 = arith.subf %391, %383 : f32
              %393 = arith.mulf %111, %392 : f32
              %394 = arith.addf %385, %393 : f32
              %395 = arith.addi %369, %c1_i32 : i32
              %396 = arith.addi %395, %371 : i32
              %397 = arith.addi %396, %373 : i32
              %398 = arith.addi %397, %375 : i32
              %399 = arith.index_cast %398 : i32 to index
              %400 = memref.load %arg12[%399] : memref<?xf32>
              %401 = arith.subf %400, %383 : f32
              %402 = arith.mulf %134, %401 : f32
              %403 = arith.addf %394, %402 : f32
              %404 = arith.addi %369, %c2_i32 : i32
              %405 = arith.addi %404, %371 : i32
              %406 = arith.addi %405, %373 : i32
              %407 = arith.addi %406, %375 : i32
              %408 = arith.index_cast %407 : i32 to index
              %409 = memref.load %arg12[%408] : memref<?xf32>
              %410 = arith.subf %409, %383 : f32
              %411 = arith.mulf %146, %410 : f32
              %412 = arith.addf %403, %411 : f32
              %413 = arith.mulf %368, %412 : f32
              %414 = arith.subi %46, %arg2 : i32
              %415 = arith.index_cast %414 : i32 to index
              %416 = memref.load %arg17[%415] : memref<?xf32>
              %417 = arith.mulf %174, %cst_3 : f32
              %418 = arith.addi %15, %54 : i32
              %419 = arith.addi %46, %c-1_i32 : i32
              %420 = arith.muli %4, %419 : i32
              %421 = arith.addi %418, %420 : i32
              %422 = arith.addi %421, %373 : i32
              %423 = arith.index_cast %422 : i32 to index
              %424 = memref.load %arg14[%423] : memref<?xf32>
              %425 = arith.subi %419, %arg2 : i32
              %426 = arith.index_cast %425 : i32 to index
              %427 = memref.load %arg17[%426] : memref<?xf32>
              %428 = arith.mulf %424, %427 : f32
              %429 = arith.addf %417, %428 : f32
              %430 = arith.addi %418, %371 : i32
              %431 = arith.addi %430, %373 : i32
              %432 = arith.index_cast %431 : i32 to index
              %433 = memref.load %arg14[%432] : memref<?xf32>
              %434 = arith.mulf %433, %416 : f32
              %435 = arith.addi %46, %c-2_i32 : i32
              %436 = arith.muli %4, %435 : i32
              %437 = arith.addi %418, %436 : i32
              %438 = arith.addi %437, %373 : i32
              %439 = arith.index_cast %438 : i32 to index
              %440 = memref.load %arg14[%439] : memref<?xf32>
              %441 = arith.subi %435, %arg2 : i32
              %442 = arith.index_cast %441 : i32 to index
              %443 = memref.load %arg17[%442] : memref<?xf32>
              %444 = arith.mulf %440, %443 : f32
              %445 = arith.addf %434, %444 : f32
              %446 = arith.mulf %445, %cst_5 : f32
              %447 = arith.subf %429, %446 : f32
              %448 = arith.addi %369, %436 : i32
              %449 = arith.addi %448, %373 : i32
              %450 = arith.addi %449, %375 : i32
              %451 = arith.index_cast %450 : i32 to index
              %452 = memref.load %arg12[%451] : memref<?xf32>
              %453 = arith.subf %452, %383 : f32
              %454 = arith.mulf %447, %453 : f32
              %455 = arith.mulf %197, %cst_3 : f32
              %456 = arith.addf %455, %444 : f32
              %457 = arith.addi %46, %c1_i32 : i32
              %458 = arith.muli %4, %457 : i32
              %459 = arith.addi %418, %458 : i32
              %460 = arith.addi %459, %373 : i32
              %461 = arith.index_cast %460 : i32 to index
              %462 = memref.load %arg14[%461] : memref<?xf32>
              %463 = arith.subi %457, %arg2 : i32
              %464 = arith.index_cast %463 : i32 to index
              %465 = memref.load %arg17[%464] : memref<?xf32>
              %466 = arith.mulf %462, %465 : f32
              %467 = arith.addf %456, %466 : f32
              %468 = arith.addf %434, %428 : f32
              %469 = arith.mulf %468, %cst_4 : f32
              %470 = arith.addf %467, %469 : f32
              %471 = arith.addi %369, %420 : i32
              %472 = arith.addi %471, %373 : i32
              %473 = arith.addi %472, %375 : i32
              %474 = arith.index_cast %473 : i32 to index
              %475 = memref.load %arg12[%474] : memref<?xf32>
              %476 = arith.subf %475, %383 : f32
              %477 = arith.mulf %470, %476 : f32
              %478 = arith.addf %454, %477 : f32
              %479 = arith.mulf %220, %cst_3 : f32
              %480 = arith.addf %479, %428 : f32
              %481 = arith.addi %46, %c2_i32 : i32
              %482 = arith.muli %4, %481 : i32
              %483 = arith.addi %418, %482 : i32
              %484 = arith.addi %483, %373 : i32
              %485 = arith.index_cast %484 : i32 to index
              %486 = memref.load %arg14[%485] : memref<?xf32>
              %487 = arith.subi %481, %arg2 : i32
              %488 = arith.index_cast %487 : i32 to index
              %489 = memref.load %arg17[%488] : memref<?xf32>
              %490 = arith.mulf %486, %489 : f32
              %491 = arith.addf %480, %490 : f32
              %492 = arith.addf %466, %434 : f32
              %493 = arith.mulf %492, %cst_4 : f32
              %494 = arith.addf %491, %493 : f32
              %495 = arith.addi %369, %458 : i32
              %496 = arith.addi %495, %373 : i32
              %497 = arith.addi %496, %375 : i32
              %498 = arith.index_cast %497 : i32 to index
              %499 = memref.load %arg12[%498] : memref<?xf32>
              %500 = arith.subf %499, %383 : f32
              %501 = arith.mulf %494, %500 : f32
              %502 = arith.addf %478, %501 : f32
              %503 = arith.mulf %232, %cst_3 : f32
              %504 = arith.addf %503, %466 : f32
              %505 = arith.addf %434, %490 : f32
              %506 = arith.mulf %505, %cst_5 : f32
              %507 = arith.subf %504, %506 : f32
              %508 = arith.addi %369, %482 : i32
              %509 = arith.addi %508, %373 : i32
              %510 = arith.addi %509, %375 : i32
              %511 = arith.index_cast %510 : i32 to index
              %512 = memref.load %arg12[%511] : memref<?xf32>
              %513 = arith.subf %512, %383 : f32
              %514 = arith.mulf %507, %513 : f32
              %515 = arith.addf %502, %514 : f32
              %516 = arith.mulf %416, %515 : f32
              %517 = arith.addf %413, %516 : f32
              %518 = arith.mulf %0, %517 : f32
              %519 = arith.addi %38, %c-1_i32 : i32
              %520 = arith.index_cast %519 : i32 to index
              %521 = memref.load %arg10[%520] : memref<?xf32>
              %522 = arith.addi %15, %54 : i32
              %523 = arith.muli %4, %46 : i32
              %524 = arith.addi %522, %523 : i32
              %525 = arith.addi %524, %7 : i32
              %526 = arith.index_cast %525 : i32 to index
              %527 = memref.load %arg13[%526] : memref<?xf32>
              %528 = arith.mulf %521, %527 : f32
              %529 = arith.addi %16, %54 : i32
              %530 = arith.addi %529, %523 : i32
              %531 = arith.muli %10, %c2_i32 : i32
              %532 = arith.addi %530, %531 : i32
              %533 = arith.index_cast %532 : i32 to index
              %534 = memref.load %arg12[%533] : memref<?xf32>
              %535 = arith.mulf %528, %534 : f32
              %536 = arith.addf %347#1, %535 : f32
              %537 = arith.addf %518, %536 : f32
              %538 = arith.subi %54, %arg0 : i32
              %539 = arith.index_cast %538 : i32 to index
              %540 = memref.load %arg16[%539] : memref<?xf32>
              %541 = arith.addi %16, %54 : i32
              %542 = arith.addi %541, %c-2_i32 : i32
              %543 = arith.muli %4, %46 : i32
              %544 = arith.addi %542, %543 : i32
              %545 = arith.muli %7, %38 : i32
              %546 = arith.addi %544, %545 : i32
              %547 = arith.muli %10, %c3_i32 : i32
              %548 = arith.addi %546, %547 : i32
              %549 = arith.index_cast %548 : i32 to index
              %550 = memref.load %arg12[%549] : memref<?xf32>
              %551 = arith.addi %541, %543 : i32
              %552 = arith.addi %551, %545 : i32
              %553 = arith.addi %552, %547 : i32
              %554 = arith.index_cast %553 : i32 to index
              %555 = memref.load %arg12[%554] : memref<?xf32>
              %556 = arith.subf %550, %555 : f32
              %557 = arith.mulf %88, %556 : f32
              %558 = arith.addi %541, %c-1_i32 : i32
              %559 = arith.addi %558, %543 : i32
              %560 = arith.addi %559, %545 : i32
              %561 = arith.addi %560, %547 : i32
              %562 = arith.index_cast %561 : i32 to index
              %563 = memref.load %arg12[%562] : memref<?xf32>
              %564 = arith.subf %563, %555 : f32
              %565 = arith.mulf %111, %564 : f32
              %566 = arith.addf %557, %565 : f32
              %567 = arith.addi %541, %c1_i32 : i32
              %568 = arith.addi %567, %543 : i32
              %569 = arith.addi %568, %545 : i32
              %570 = arith.addi %569, %547 : i32
              %571 = arith.index_cast %570 : i32 to index
              %572 = memref.load %arg12[%571] : memref<?xf32>
              %573 = arith.subf %572, %555 : f32
              %574 = arith.mulf %134, %573 : f32
              %575 = arith.addf %566, %574 : f32
              %576 = arith.addi %541, %c2_i32 : i32
              %577 = arith.addi %576, %543 : i32
              %578 = arith.addi %577, %545 : i32
              %579 = arith.addi %578, %547 : i32
              %580 = arith.index_cast %579 : i32 to index
              %581 = memref.load %arg12[%580] : memref<?xf32>
              %582 = arith.subf %581, %555 : f32
              %583 = arith.mulf %146, %582 : f32
              %584 = arith.addf %575, %583 : f32
              %585 = arith.mulf %540, %584 : f32
              %586 = arith.subi %46, %arg2 : i32
              %587 = arith.index_cast %586 : i32 to index
              %588 = memref.load %arg17[%587] : memref<?xf32>
              %589 = arith.addi %46, %c-2_i32 : i32
              %590 = arith.muli %4, %589 : i32
              %591 = arith.addi %541, %590 : i32
              %592 = arith.addi %591, %545 : i32
              %593 = arith.addi %592, %547 : i32
              %594 = arith.index_cast %593 : i32 to index
              %595 = memref.load %arg12[%594] : memref<?xf32>
              %596 = arith.subf %595, %555 : f32
              %597 = arith.mulf %174, %596 : f32
              %598 = arith.addi %46, %c-1_i32 : i32
              %599 = arith.muli %4, %598 : i32
              %600 = arith.addi %541, %599 : i32
              %601 = arith.addi %600, %545 : i32
              %602 = arith.addi %601, %547 : i32
              %603 = arith.index_cast %602 : i32 to index
              %604 = memref.load %arg12[%603] : memref<?xf32>
              %605 = arith.subf %604, %555 : f32
              %606 = arith.mulf %197, %605 : f32
              %607 = arith.addf %597, %606 : f32
              %608 = arith.addi %46, %c1_i32 : i32
              %609 = arith.muli %4, %608 : i32
              %610 = arith.addi %541, %609 : i32
              %611 = arith.addi %610, %545 : i32
              %612 = arith.addi %611, %547 : i32
              %613 = arith.index_cast %612 : i32 to index
              %614 = memref.load %arg12[%613] : memref<?xf32>
              %615 = arith.subf %614, %555 : f32
              %616 = arith.mulf %220, %615 : f32
              %617 = arith.addf %607, %616 : f32
              %618 = arith.addi %46, %c2_i32 : i32
              %619 = arith.muli %4, %618 : i32
              %620 = arith.addi %541, %619 : i32
              %621 = arith.addi %620, %545 : i32
              %622 = arith.addi %621, %547 : i32
              %623 = arith.index_cast %622 : i32 to index
              %624 = memref.load %arg12[%623] : memref<?xf32>
              %625 = arith.subf %624, %555 : f32
              %626 = arith.mulf %232, %625 : f32
              %627 = arith.addf %617, %626 : f32
              %628 = arith.mulf %588, %627 : f32
              %629 = arith.addf %585, %628 : f32
              %630 = arith.mulf %0, %629 : f32
              %631 = arith.addi %38, %c-1_i32 : i32
              %632 = arith.index_cast %631 : i32 to index
              %633 = memref.load %arg10[%632] : memref<?xf32>
              %634 = arith.addi %15, %54 : i32
              %635 = arith.muli %4, %46 : i32
              %636 = arith.addi %634, %635 : i32
              %637 = arith.addi %636, %7 : i32
              %638 = arith.index_cast %637 : i32 to index
              %639 = memref.load %arg14[%638] : memref<?xf32>
              %640 = memref.load %arg13[%638] : memref<?xf32>
              %641 = arith.mulf %640, %cst_3 : f32
              %642 = arith.addf %639, %641 : f32
              %643 = arith.mulf %633, %642 : f32
              %644 = arith.addi %16, %54 : i32
              %645 = arith.addi %644, %635 : i32
              %646 = arith.muli %10, %c3_i32 : i32
              %647 = arith.addi %645, %646 : i32
              %648 = arith.index_cast %647 : i32 to index
              %649 = memref.load %arg12[%648] : memref<?xf32>
              %650 = arith.mulf %643, %649 : f32
              %651 = arith.addf %347#0, %650 : f32
              %652 = arith.addf %630, %651 : f32
              %653 = arith.subi %54, %arg0 : i32
              %654 = arith.index_cast %653 : i32 to index
              %655 = memref.load %arg16[%654] : memref<?xf32>
              %656 = arith.subi %46, %arg2 : i32
              %657 = arith.index_cast %656 : i32 to index
              %658 = memref.load %arg17[%657] : memref<?xf32>
              %659 = arith.mulf %655, %658 : f32
              %660 = arith.addi %15, %54 : i32
              %661 = arith.addi %660, %c-2_i32 : i32
              %662 = arith.muli %4, %46 : i32
              %663 = arith.addi %661, %662 : i32
              %664 = arith.muli %7, %38 : i32
              %665 = arith.addi %663, %664 : i32
              %666 = arith.index_cast %665 : i32 to index
              %667 = memref.load %arg14[%666] : memref<?xf32>
              %668 = arith.addi %16, %54 : i32
              %669 = arith.addi %668, %c-2_i32 : i32
              %670 = arith.addi %46, %c-2_i32 : i32
              %671 = arith.muli %4, %670 : i32
              %672 = arith.addi %669, %671 : i32
              %673 = arith.addi %672, %664 : i32
              %674 = arith.muli %10, %c2_i32 : i32
              %675 = arith.addi %673, %674 : i32
              %676 = arith.index_cast %675 : i32 to index
              %677 = memref.load %arg12[%676] : memref<?xf32>
              %678 = arith.addi %46, %c2_i32 : i32
              %679 = arith.muli %4, %678 : i32
              %680 = arith.addi %669, %679 : i32
              %681 = arith.addi %680, %664 : i32
              %682 = arith.addi %681, %674 : i32
              %683 = arith.index_cast %682 : i32 to index
              %684 = memref.load %arg12[%683] : memref<?xf32>
              %685 = arith.subf %677, %684 : f32
              %686 = arith.addi %46, %c-1_i32 : i32
              %687 = arith.muli %4, %686 : i32
              %688 = arith.addi %669, %687 : i32
              %689 = arith.addi %688, %664 : i32
              %690 = arith.addi %689, %674 : i32
              %691 = arith.index_cast %690 : i32 to index
              %692 = memref.load %arg12[%691] : memref<?xf32>
              %693 = arith.negf %692 : f32
              %694 = arith.addi %46, %c1_i32 : i32
              %695 = arith.muli %4, %694 : i32
              %696 = arith.addi %669, %695 : i32
              %697 = arith.addi %696, %664 : i32
              %698 = arith.addi %697, %674 : i32
              %699 = arith.index_cast %698 : i32 to index
              %700 = memref.load %arg12[%699] : memref<?xf32>
              %701 = arith.addf %693, %700 : f32
              %702 = arith.mulf %701, %cst_2 : f32
              %703 = arith.addf %685, %702 : f32
              %704 = arith.mulf %667, %703 : f32
              %705 = arith.addi %660, %c-1_i32 : i32
              %706 = arith.addi %705, %662 : i32
              %707 = arith.addi %706, %664 : i32
              %708 = arith.index_cast %707 : i32 to index
              %709 = memref.load %arg14[%708] : memref<?xf32>
              %710 = arith.addi %668, %c-1_i32 : i32
              %711 = arith.addi %710, %671 : i32
              %712 = arith.addi %711, %664 : i32
              %713 = arith.addi %712, %674 : i32
              %714 = arith.index_cast %713 : i32 to index
              %715 = memref.load %arg12[%714] : memref<?xf32>
              %716 = arith.addi %710, %679 : i32
              %717 = arith.addi %716, %664 : i32
              %718 = arith.addi %717, %674 : i32
              %719 = arith.index_cast %718 : i32 to index
              %720 = memref.load %arg12[%719] : memref<?xf32>
              %721 = arith.subf %715, %720 : f32
              %722 = arith.addi %710, %687 : i32
              %723 = arith.addi %722, %664 : i32
              %724 = arith.addi %723, %674 : i32
              %725 = arith.index_cast %724 : i32 to index
              %726 = memref.load %arg12[%725] : memref<?xf32>
              %727 = arith.negf %726 : f32
              %728 = arith.addi %710, %695 : i32
              %729 = arith.addi %728, %664 : i32
              %730 = arith.addi %729, %674 : i32
              %731 = arith.index_cast %730 : i32 to index
              %732 = memref.load %arg12[%731] : memref<?xf32>
              %733 = arith.addf %727, %732 : f32
              %734 = arith.mulf %733, %cst_2 : f32
              %735 = arith.addf %721, %734 : f32
              %736 = arith.mulf %709, %735 : f32
              %737 = arith.mulf %736, %cst_2 : f32
              %738 = arith.subf %704, %737 : f32
              %739 = arith.addi %660, %c1_i32 : i32
              %740 = arith.addi %739, %662 : i32
              %741 = arith.addi %740, %664 : i32
              %742 = arith.index_cast %741 : i32 to index
              %743 = memref.load %arg14[%742] : memref<?xf32>
              %744 = arith.addi %668, %c1_i32 : i32
              %745 = arith.addi %744, %671 : i32
              %746 = arith.addi %745, %664 : i32
              %747 = arith.addi %746, %674 : i32
              %748 = arith.index_cast %747 : i32 to index
              %749 = memref.load %arg12[%748] : memref<?xf32>
              %750 = arith.addi %744, %679 : i32
              %751 = arith.addi %750, %664 : i32
              %752 = arith.addi %751, %674 : i32
              %753 = arith.index_cast %752 : i32 to index
              %754 = memref.load %arg12[%753] : memref<?xf32>
              %755 = arith.subf %749, %754 : f32
              %756 = arith.addi %744, %687 : i32
              %757 = arith.addi %756, %664 : i32
              %758 = arith.addi %757, %674 : i32
              %759 = arith.index_cast %758 : i32 to index
              %760 = memref.load %arg12[%759] : memref<?xf32>
              %761 = arith.negf %760 : f32
              %762 = arith.addi %744, %695 : i32
              %763 = arith.addi %762, %664 : i32
              %764 = arith.addi %763, %674 : i32
              %765 = arith.index_cast %764 : i32 to index
              %766 = memref.load %arg12[%765] : memref<?xf32>
              %767 = arith.addf %761, %766 : f32
              %768 = arith.mulf %767, %cst_2 : f32
              %769 = arith.addf %755, %768 : f32
              %770 = arith.mulf %743, %769 : f32
              %771 = arith.mulf %770, %cst_2 : f32
              %772 = arith.addf %738, %771 : f32
              %773 = arith.addi %660, %c2_i32 : i32
              %774 = arith.addi %773, %662 : i32
              %775 = arith.addi %774, %664 : i32
              %776 = arith.index_cast %775 : i32 to index
              %777 = memref.load %arg14[%776] : memref<?xf32>
              %778 = arith.addi %668, %c2_i32 : i32
              %779 = arith.addi %778, %671 : i32
              %780 = arith.addi %779, %664 : i32
              %781 = arith.addi %780, %674 : i32
              %782 = arith.index_cast %781 : i32 to index
              %783 = memref.load %arg12[%782] : memref<?xf32>
              %784 = arith.addi %778, %679 : i32
              %785 = arith.addi %784, %664 : i32
              %786 = arith.addi %785, %674 : i32
              %787 = arith.index_cast %786 : i32 to index
              %788 = memref.load %arg12[%787] : memref<?xf32>
              %789 = arith.subf %783, %788 : f32
              %790 = arith.addi %778, %687 : i32
              %791 = arith.addi %790, %664 : i32
              %792 = arith.addi %791, %674 : i32
              %793 = arith.index_cast %792 : i32 to index
              %794 = memref.load %arg12[%793] : memref<?xf32>
              %795 = arith.negf %794 : f32
              %796 = arith.addi %778, %695 : i32
              %797 = arith.addi %796, %664 : i32
              %798 = arith.addi %797, %674 : i32
              %799 = arith.index_cast %798 : i32 to index
              %800 = memref.load %arg12[%799] : memref<?xf32>
              %801 = arith.addf %795, %800 : f32
              %802 = arith.mulf %801, %cst_2 : f32
              %803 = arith.addf %789, %802 : f32
              %804 = arith.mulf %777, %803 : f32
              %805 = arith.subf %772, %804 : f32
              %806 = arith.mulf %2, %805 : f32
              %807 = arith.addi %660, %671 : i32
              %808 = arith.addi %807, %664 : i32
              %809 = arith.index_cast %808 : i32 to index
              %810 = memref.load %arg13[%809] : memref<?xf32>
              %811 = arith.subf %677, %783 : f32
              %812 = arith.negf %715 : f32
              %813 = arith.addf %812, %749 : f32
              %814 = arith.mulf %813, %cst_2 : f32
              %815 = arith.addf %811, %814 : f32
              %816 = arith.mulf %810, %815 : f32
              %817 = arith.addi %660, %687 : i32
              %818 = arith.addi %817, %664 : i32
              %819 = arith.index_cast %818 : i32 to index
              %820 = memref.load %arg13[%819] : memref<?xf32>
              %821 = arith.subf %692, %794 : f32
              %822 = arith.addf %727, %760 : f32
              %823 = arith.mulf %822, %cst_2 : f32
              %824 = arith.addf %821, %823 : f32
              %825 = arith.mulf %820, %824 : f32
              %826 = arith.mulf %825, %cst_2 : f32
              %827 = arith.subf %816, %826 : f32
              %828 = arith.addi %660, %695 : i32
              %829 = arith.addi %828, %664 : i32
              %830 = arith.index_cast %829 : i32 to index
              %831 = memref.load %arg13[%830] : memref<?xf32>
              %832 = arith.subf %700, %800 : f32
              %833 = arith.negf %732 : f32
              %834 = arith.addf %833, %766 : f32
              %835 = arith.mulf %834, %cst_2 : f32
              %836 = arith.addf %832, %835 : f32
              %837 = arith.mulf %831, %836 : f32
              %838 = arith.mulf %837, %cst_2 : f32
              %839 = arith.addf %827, %838 : f32
              %840 = arith.addi %660, %679 : i32
              %841 = arith.addi %840, %664 : i32
              %842 = arith.index_cast %841 : i32 to index
              %843 = memref.load %arg13[%842] : memref<?xf32>
              %844 = arith.subf %684, %788 : f32
              %845 = arith.negf %720 : f32
              %846 = arith.addf %845, %754 : f32
              %847 = arith.mulf %846, %cst_2 : f32
              %848 = arith.addf %844, %847 : f32
              %849 = arith.mulf %843, %848 : f32
              %850 = arith.subf %839, %849 : f32
              %851 = arith.mulf %2, %850 : f32
              %852 = arith.addf %806, %851 : f32
              %853 = arith.mulf %659, %852 : f32
              %854 = arith.addf %365, %853 : f32
              %855:4 = scf.for %arg22 = %c1 to %c9 step %c1 iter_args(%arg23 = %cst_7, %arg24 = %cst_7, %arg25 = %cst_7, %arg26 = %cst_7) -> (f32, f32, f32, f32) {
                %1281 = arith.index_cast %arg22 : index to i32
                %1282 = arith.addi %38, %c-1_i32 : i32
                %1283 = arith.addi %1281, %c-1_i32 : i32
                %1284 = arith.muli %1283, %c6_i32 : i32
                %1285 = arith.addi %1282, %1284 : i32
                %1286 = arith.index_cast %1285 : i32 to index
                %1287 = memref.load %arg9[%1286] : memref<?xf32>
                %1288 = arith.addi %16, %54 : i32
                %1289 = arith.addi %1288, %c2_i32 : i32
                %1290 = arith.muli %4, %46 : i32
                %1291 = arith.addi %1289, %1290 : i32
                %1292 = arith.muli %7, %1281 : i32
                %1293 = arith.addi %1291, %1292 : i32
                %1294 = arith.muli %10, %c3_i32 : i32
                %1295 = arith.addi %1293, %1294 : i32
                %1296 = arith.index_cast %1295 : i32 to index
                %1297 = memref.load %arg12[%1296] : memref<?xf32>
                %1298 = arith.mulf %1287, %1297 : f32
                %1299 = arith.addf %arg26, %1298 : f32
                %1300 = memref.load %arg9[%1286] : memref<?xf32>
                %1301 = arith.addi %1288, %c1_i32 : i32
                %1302 = arith.addi %1301, %1290 : i32
                %1303 = arith.addi %1302, %1292 : i32
                %1304 = arith.addi %1303, %1294 : i32
                %1305 = arith.index_cast %1304 : i32 to index
                %1306 = memref.load %arg12[%1305] : memref<?xf32>
                %1307 = arith.mulf %1300, %1306 : f32
                %1308 = arith.addf %arg25, %1307 : f32
                %1309 = memref.load %arg9[%1286] : memref<?xf32>
                %1310 = arith.addi %1288, %c-1_i32 : i32
                %1311 = arith.addi %1310, %1290 : i32
                %1312 = arith.addi %1311, %1292 : i32
                %1313 = arith.addi %1312, %1294 : i32
                %1314 = arith.index_cast %1313 : i32 to index
                %1315 = memref.load %arg12[%1314] : memref<?xf32>
                %1316 = arith.mulf %1309, %1315 : f32
                %1317 = arith.addf %arg24, %1316 : f32
                %1318 = memref.load %arg9[%1286] : memref<?xf32>
                %1319 = arith.addi %1288, %c-2_i32 : i32
                %1320 = arith.addi %1319, %1290 : i32
                %1321 = arith.addi %1320, %1292 : i32
                %1322 = arith.addi %1321, %1294 : i32
                %1323 = arith.index_cast %1322 : i32 to index
                %1324 = memref.load %arg12[%1323] : memref<?xf32>
                %1325 = arith.mulf %1318, %1324 : f32
                %1326 = arith.addf %arg23, %1325 : f32
                scf.yield %1326, %1317, %1308, %1299 : f32, f32, f32, f32
              }
              %856 = arith.addi %15, %54 : i32
              %857 = arith.addi %856, %c2_i32 : i32
              %858 = arith.muli %4, %46 : i32
              %859 = arith.addi %857, %858 : i32
              %860 = arith.muli %7, %38 : i32
              %861 = arith.addi %859, %860 : i32
              %862 = arith.index_cast %861 : i32 to index
              %863 = memref.load %arg14[%862] : memref<?xf32>
              %864 = arith.negf %863 : f32
              %865 = arith.mulf %864, %855#3 : f32
              %866 = arith.addi %856, %c1_i32 : i32
              %867 = arith.addi %866, %858 : i32
              %868 = arith.addi %867, %860 : i32
              %869 = arith.index_cast %868 : i32 to index
              %870 = memref.load %arg14[%869] : memref<?xf32>
              %871 = arith.mulf %870, %cst_2 : f32
              %872 = arith.mulf %871, %855#2 : f32
              %873 = arith.addf %865, %872 : f32
              %874 = arith.addi %856, %c-1_i32 : i32
              %875 = arith.addi %874, %858 : i32
              %876 = arith.addi %875, %860 : i32
              %877 = arith.index_cast %876 : i32 to index
              %878 = memref.load %arg14[%877] : memref<?xf32>
              %879 = arith.mulf %878, %cst_2 : f32
              %880 = arith.mulf %879, %855#1 : f32
              %881 = arith.subf %873, %880 : f32
              %882 = arith.addi %856, %c-2_i32 : i32
              %883 = arith.addi %882, %858 : i32
              %884 = arith.addi %883, %860 : i32
              %885 = arith.index_cast %884 : i32 to index
              %886 = memref.load %arg14[%885] : memref<?xf32>
              %887 = arith.mulf %886, %855#0 : f32
              %888 = arith.addf %881, %887 : f32
              %889 = arith.mulf %1, %888 : f32
              %890 = arith.subi %54, %arg0 : i32
              %891 = arith.index_cast %890 : i32 to index
              %892 = memref.load %arg16[%891] : memref<?xf32>
              %893 = arith.mulf %892, %889 : f32
              %894 = arith.addf %854, %893 : f32
              %895 = scf.for %arg22 = %c1 to %c9 step %c1 iter_args(%arg23 = %cst_7) -> (f32) {
                %1281 = arith.index_cast %arg22 : index to i32
                %1282 = arith.addi %38, %c-1_i32 : i32
                %1283 = arith.addi %1281, %c-1_i32 : i32
                %1284 = arith.muli %1283, %c6_i32 : i32
                %1285 = arith.addi %1282, %1284 : i32
                %1286 = arith.index_cast %1285 : i32 to index
                %1287 = memref.load %arg9[%1286] : memref<?xf32>
                %1288 = arith.addi %15, %54 : i32
                %1289 = arith.muli %4, %46 : i32
                %1290 = arith.addi %1288, %1289 : i32
                %1291 = arith.muli %7, %1281 : i32
                %1292 = arith.addi %1290, %1291 : i32
                %1293 = arith.index_cast %1292 : i32 to index
                %1294 = memref.load %arg13[%1293] : memref<?xf32>
                %1295 = arith.mulf %1294, %1 : f32
                %1296 = arith.addi %16, %54 : i32
                %1297 = arith.addi %1296, %c2_i32 : i32
                %1298 = arith.addi %1297, %1289 : i32
                %1299 = arith.addi %1298, %1291 : i32
                %1300 = arith.muli %10, %c3_i32 : i32
                %1301 = arith.addi %1299, %1300 : i32
                %1302 = arith.index_cast %1301 : i32 to index
                %1303 = memref.load %arg12[%1302] : memref<?xf32>
                %1304 = arith.negf %1303 : f32
                %1305 = arith.addi %1296, %c1_i32 : i32
                %1306 = arith.addi %1305, %1289 : i32
                %1307 = arith.addi %1306, %1291 : i32
                %1308 = arith.addi %1307, %1300 : i32
                %1309 = arith.index_cast %1308 : i32 to index
                %1310 = memref.load %arg12[%1309] : memref<?xf32>
                %1311 = arith.mulf %1310, %cst_2 : f32
                %1312 = arith.addf %1304, %1311 : f32
                %1313 = arith.addi %1296, %c-1_i32 : i32
                %1314 = arith.addi %1313, %1289 : i32
                %1315 = arith.addi %1314, %1291 : i32
                %1316 = arith.addi %1315, %1300 : i32
                %1317 = arith.index_cast %1316 : i32 to index
                %1318 = memref.load %arg12[%1317] : memref<?xf32>
                %1319 = arith.mulf %1318, %cst_2 : f32
                %1320 = arith.subf %1312, %1319 : f32
                %1321 = arith.addi %1296, %c-2_i32 : i32
                %1322 = arith.addi %1321, %1289 : i32
                %1323 = arith.addi %1322, %1291 : i32
                %1324 = arith.addi %1323, %1300 : i32
                %1325 = arith.index_cast %1324 : i32 to index
                %1326 = memref.load %arg12[%1325] : memref<?xf32>
                %1327 = arith.addf %1320, %1326 : f32
                %1328 = arith.mulf %1295, %1327 : f32
                %1329 = arith.mulf %1287, %1328 : f32
                %1330 = arith.addf %arg23, %1329 : f32
                scf.yield %1330 : f32
              }
              %896 = arith.subi %54, %arg0 : i32
              %897 = arith.index_cast %896 : i32 to index
              %898 = memref.load %arg16[%897] : memref<?xf32>
              %899 = arith.mulf %898, %895 : f32
              %900 = arith.addf %894, %899 : f32
              %901 = arith.subi %54, %arg0 : i32
              %902 = arith.index_cast %901 : i32 to index
              %903 = memref.load %arg16[%902] : memref<?xf32>
              %904 = arith.subi %46, %arg2 : i32
              %905 = arith.index_cast %904 : i32 to index
              %906 = memref.load %arg17[%905] : memref<?xf32>
              %907 = arith.mulf %903, %906 : f32
              %908 = arith.addi %15, %54 : i32
              %909 = arith.addi %908, %c-2_i32 : i32
              %910 = arith.muli %4, %46 : i32
              %911 = arith.addi %909, %910 : i32
              %912 = arith.muli %7, %38 : i32
              %913 = arith.addi %911, %912 : i32
              %914 = arith.index_cast %913 : i32 to index
              %915 = memref.load %arg13[%914] : memref<?xf32>
              %916 = arith.addi %16, %54 : i32
              %917 = arith.addi %916, %c-2_i32 : i32
              %918 = arith.addi %46, %c-2_i32 : i32
              %919 = arith.muli %4, %918 : i32
              %920 = arith.addi %917, %919 : i32
              %921 = arith.addi %920, %912 : i32
              %922 = arith.addi %921, %10 : i32
              %923 = arith.index_cast %922 : i32 to index
              %924 = memref.load %arg12[%923] : memref<?xf32>
              %925 = arith.addi %46, %c2_i32 : i32
              %926 = arith.muli %4, %925 : i32
              %927 = arith.addi %917, %926 : i32
              %928 = arith.addi %927, %912 : i32
              %929 = arith.addi %928, %10 : i32
              %930 = arith.index_cast %929 : i32 to index
              %931 = memref.load %arg12[%930] : memref<?xf32>
              %932 = arith.subf %924, %931 : f32
              %933 = arith.addi %46, %c-1_i32 : i32
              %934 = arith.muli %4, %933 : i32
              %935 = arith.addi %917, %934 : i32
              %936 = arith.addi %935, %912 : i32
              %937 = arith.addi %936, %10 : i32
              %938 = arith.index_cast %937 : i32 to index
              %939 = memref.load %arg12[%938] : memref<?xf32>
              %940 = arith.negf %939 : f32
              %941 = arith.addi %46, %c1_i32 : i32
              %942 = arith.muli %4, %941 : i32
              %943 = arith.addi %917, %942 : i32
              %944 = arith.addi %943, %912 : i32
              %945 = arith.addi %944, %10 : i32
              %946 = arith.index_cast %945 : i32 to index
              %947 = memref.load %arg12[%946] : memref<?xf32>
              %948 = arith.addf %940, %947 : f32
              %949 = arith.mulf %948, %cst_2 : f32
              %950 = arith.addf %932, %949 : f32
              %951 = arith.mulf %915, %950 : f32
              %952 = arith.addi %908, %c-1_i32 : i32
              %953 = arith.addi %952, %910 : i32
              %954 = arith.addi %953, %912 : i32
              %955 = arith.index_cast %954 : i32 to index
              %956 = memref.load %arg13[%955] : memref<?xf32>
              %957 = arith.addi %916, %c-1_i32 : i32
              %958 = arith.addi %957, %919 : i32
              %959 = arith.addi %958, %912 : i32
              %960 = arith.addi %959, %10 : i32
              %961 = arith.index_cast %960 : i32 to index
              %962 = memref.load %arg12[%961] : memref<?xf32>
              %963 = arith.addi %957, %926 : i32
              %964 = arith.addi %963, %912 : i32
              %965 = arith.addi %964, %10 : i32
              %966 = arith.index_cast %965 : i32 to index
              %967 = memref.load %arg12[%966] : memref<?xf32>
              %968 = arith.subf %962, %967 : f32
              %969 = arith.addi %957, %934 : i32
              %970 = arith.addi %969, %912 : i32
              %971 = arith.addi %970, %10 : i32
              %972 = arith.index_cast %971 : i32 to index
              %973 = memref.load %arg12[%972] : memref<?xf32>
              %974 = arith.negf %973 : f32
              %975 = arith.addi %957, %942 : i32
              %976 = arith.addi %975, %912 : i32
              %977 = arith.addi %976, %10 : i32
              %978 = arith.index_cast %977 : i32 to index
              %979 = memref.load %arg12[%978] : memref<?xf32>
              %980 = arith.addf %974, %979 : f32
              %981 = arith.mulf %980, %cst_2 : f32
              %982 = arith.addf %968, %981 : f32
              %983 = arith.mulf %956, %982 : f32
              %984 = arith.mulf %983, %cst_2 : f32
              %985 = arith.subf %951, %984 : f32
              %986 = arith.addi %908, %c1_i32 : i32
              %987 = arith.addi %986, %910 : i32
              %988 = arith.addi %987, %912 : i32
              %989 = arith.index_cast %988 : i32 to index
              %990 = memref.load %arg13[%989] : memref<?xf32>
              %991 = arith.addi %916, %c1_i32 : i32
              %992 = arith.addi %991, %919 : i32
              %993 = arith.addi %992, %912 : i32
              %994 = arith.addi %993, %10 : i32
              %995 = arith.index_cast %994 : i32 to index
              %996 = memref.load %arg12[%995] : memref<?xf32>
              %997 = arith.addi %991, %926 : i32
              %998 = arith.addi %997, %912 : i32
              %999 = arith.addi %998, %10 : i32
              %1000 = arith.index_cast %999 : i32 to index
              %1001 = memref.load %arg12[%1000] : memref<?xf32>
              %1002 = arith.subf %996, %1001 : f32
              %1003 = arith.addi %991, %934 : i32
              %1004 = arith.addi %1003, %912 : i32
              %1005 = arith.addi %1004, %10 : i32
              %1006 = arith.index_cast %1005 : i32 to index
              %1007 = memref.load %arg12[%1006] : memref<?xf32>
              %1008 = arith.negf %1007 : f32
              %1009 = arith.addi %991, %942 : i32
              %1010 = arith.addi %1009, %912 : i32
              %1011 = arith.addi %1010, %10 : i32
              %1012 = arith.index_cast %1011 : i32 to index
              %1013 = memref.load %arg12[%1012] : memref<?xf32>
              %1014 = arith.addf %1008, %1013 : f32
              %1015 = arith.mulf %1014, %cst_2 : f32
              %1016 = arith.addf %1002, %1015 : f32
              %1017 = arith.mulf %990, %1016 : f32
              %1018 = arith.mulf %1017, %cst_2 : f32
              %1019 = arith.addf %985, %1018 : f32
              %1020 = arith.addi %908, %c2_i32 : i32
              %1021 = arith.addi %1020, %910 : i32
              %1022 = arith.addi %1021, %912 : i32
              %1023 = arith.index_cast %1022 : i32 to index
              %1024 = memref.load %arg13[%1023] : memref<?xf32>
              %1025 = arith.addi %916, %c2_i32 : i32
              %1026 = arith.addi %1025, %919 : i32
              %1027 = arith.addi %1026, %912 : i32
              %1028 = arith.addi %1027, %10 : i32
              %1029 = arith.index_cast %1028 : i32 to index
              %1030 = memref.load %arg12[%1029] : memref<?xf32>
              %1031 = arith.addi %1025, %926 : i32
              %1032 = arith.addi %1031, %912 : i32
              %1033 = arith.addi %1032, %10 : i32
              %1034 = arith.index_cast %1033 : i32 to index
              %1035 = memref.load %arg12[%1034] : memref<?xf32>
              %1036 = arith.subf %1030, %1035 : f32
              %1037 = arith.addi %1025, %934 : i32
              %1038 = arith.addi %1037, %912 : i32
              %1039 = arith.addi %1038, %10 : i32
              %1040 = arith.index_cast %1039 : i32 to index
              %1041 = memref.load %arg12[%1040] : memref<?xf32>
              %1042 = arith.negf %1041 : f32
              %1043 = arith.addi %1025, %942 : i32
              %1044 = arith.addi %1043, %912 : i32
              %1045 = arith.addi %1044, %10 : i32
              %1046 = arith.index_cast %1045 : i32 to index
              %1047 = memref.load %arg12[%1046] : memref<?xf32>
              %1048 = arith.addf %1042, %1047 : f32
              %1049 = arith.mulf %1048, %cst_2 : f32
              %1050 = arith.addf %1036, %1049 : f32
              %1051 = arith.mulf %1024, %1050 : f32
              %1052 = arith.subf %1019, %1051 : f32
              %1053 = arith.mulf %2, %1052 : f32
              %1054 = arith.addi %908, %919 : i32
              %1055 = arith.addi %1054, %912 : i32
              %1056 = arith.index_cast %1055 : i32 to index
              %1057 = memref.load %arg14[%1056] : memref<?xf32>
              %1058 = arith.subf %924, %1030 : f32
              %1059 = arith.negf %962 : f32
              %1060 = arith.addf %1059, %996 : f32
              %1061 = arith.mulf %1060, %cst_2 : f32
              %1062 = arith.addf %1058, %1061 : f32
              %1063 = arith.mulf %1057, %1062 : f32
              %1064 = arith.addi %908, %934 : i32
              %1065 = arith.addi %1064, %912 : i32
              %1066 = arith.index_cast %1065 : i32 to index
              %1067 = memref.load %arg14[%1066] : memref<?xf32>
              %1068 = arith.subf %939, %1041 : f32
              %1069 = arith.addf %974, %1007 : f32
              %1070 = arith.mulf %1069, %cst_2 : f32
              %1071 = arith.addf %1068, %1070 : f32
              %1072 = arith.mulf %1067, %1071 : f32
              %1073 = arith.mulf %1072, %cst_2 : f32
              %1074 = arith.subf %1063, %1073 : f32
              %1075 = arith.addi %908, %942 : i32
              %1076 = arith.addi %1075, %912 : i32
              %1077 = arith.index_cast %1076 : i32 to index
              %1078 = memref.load %arg14[%1077] : memref<?xf32>
              %1079 = arith.subf %947, %1047 : f32
              %1080 = arith.negf %979 : f32
              %1081 = arith.addf %1080, %1013 : f32
              %1082 = arith.mulf %1081, %cst_2 : f32
              %1083 = arith.addf %1079, %1082 : f32
              %1084 = arith.mulf %1078, %1083 : f32
              %1085 = arith.mulf %1084, %cst_2 : f32
              %1086 = arith.addf %1074, %1085 : f32
              %1087 = arith.addi %908, %926 : i32
              %1088 = arith.addi %1087, %912 : i32
              %1089 = arith.index_cast %1088 : i32 to index
              %1090 = memref.load %arg14[%1089] : memref<?xf32>
              %1091 = arith.subf %931, %1035 : f32
              %1092 = arith.negf %967 : f32
              %1093 = arith.addf %1092, %1001 : f32
              %1094 = arith.mulf %1093, %cst_2 : f32
              %1095 = arith.addf %1091, %1094 : f32
              %1096 = arith.mulf %1090, %1095 : f32
              %1097 = arith.subf %1086, %1096 : f32
              %1098 = arith.mulf %2, %1097 : f32
              %1099 = arith.addf %1053, %1098 : f32
              %1100 = arith.mulf %907, %1099 : f32
              %1101 = arith.addf %537, %1100 : f32
              %1102:4 = scf.for %arg22 = %c1 to %c9 step %c1 iter_args(%arg23 = %cst_7, %arg24 = %cst_7, %arg25 = %cst_7, %arg26 = %cst_7) -> (f32, f32, f32, f32) {
                %1281 = arith.index_cast %arg22 : index to i32
                %1282 = arith.addi %38, %c-1_i32 : i32
                %1283 = arith.addi %1281, %c-1_i32 : i32
                %1284 = arith.muli %1283, %c6_i32 : i32
                %1285 = arith.addi %1282, %1284 : i32
                %1286 = arith.index_cast %1285 : i32 to index
                %1287 = memref.load %arg9[%1286] : memref<?xf32>
                %1288 = arith.addi %16, %54 : i32
                %1289 = arith.addi %46, %c2_i32 : i32
                %1290 = arith.muli %4, %1289 : i32
                %1291 = arith.addi %1288, %1290 : i32
                %1292 = arith.muli %7, %1281 : i32
                %1293 = arith.addi %1291, %1292 : i32
                %1294 = arith.muli %10, %c3_i32 : i32
                %1295 = arith.addi %1293, %1294 : i32
                %1296 = arith.index_cast %1295 : i32 to index
                %1297 = memref.load %arg12[%1296] : memref<?xf32>
                %1298 = arith.mulf %1287, %1297 : f32
                %1299 = arith.addf %arg26, %1298 : f32
                %1300 = memref.load %arg9[%1286] : memref<?xf32>
                %1301 = arith.addi %46, %c1_i32 : i32
                %1302 = arith.muli %4, %1301 : i32
                %1303 = arith.addi %1288, %1302 : i32
                %1304 = arith.addi %1303, %1292 : i32
                %1305 = arith.addi %1304, %1294 : i32
                %1306 = arith.index_cast %1305 : i32 to index
                %1307 = memref.load %arg12[%1306] : memref<?xf32>
                %1308 = arith.mulf %1300, %1307 : f32
                %1309 = arith.addf %arg25, %1308 : f32
                %1310 = memref.load %arg9[%1286] : memref<?xf32>
…
                %1310 = arith.index_cast %1309 : i32 to index
                %1311 = memref.load %arg13[%1310] : memref<?xf32>
                %1312 = arith.mulf %1311, %1 : f32
                %1313 = arith.addi %16, %60 : i32
                %1314 = arith.addi %1313, %c2_i32 : i32
                %1315 = arith.addi %1314, %1304 : i32
                %1316 = arith.addi %1315, %1308 : i32
                %1317 = arith.muli %10, %c3_i32 : i32
                %1318 = arith.addi %1316, %1317 : i32
                %1319 = arith.index_cast %1318 : i32 to index
                %1320 = memref.load %arg12[%1319] : memref<?xf32>
                %1321 = arith.negf %1320 : f32
                %1322 = arith.addi %1313, %c1_i32 : i32
                %1323 = arith.addi %1322, %1304 : i32
                %1324 = arith.addi %1323, %1308 : i32
                %1325 = arith.addi %1324, %1317 : i32
                %1326 = arith.index_cast %1325 : i32 to index
                %1327 = memref.load %arg12[%1326] : memref<?xf32>
                %1328 = arith.mulf %1327, %cst_2 : f32
                %1329 = arith.addf %1321, %1328 : f32
                %1330 = arith.addi %1313, %c-1_i32 : i32
                %1331 = arith.addi %1330, %1304 : i32
                %1332 = arith.addi %1331, %1308 : i32
                %1333 = arith.addi %1332, %1317 : i32
                %1334 = arith.index_cast %1333 : i32 to index
                %1335 = memref.load %arg12[%1334] : memref<?xf32>
                %1336 = arith.mulf %1335, %cst_2 : f32
                %1337 = arith.subf %1329, %1336 : f32
                %1338 = arith.addi %1313, %c-2_i32 : i32
                %1339 = arith.addi %1338, %1304 : i32
                %1340 = arith.addi %1339, %1308 : i32
                %1341 = arith.addi %1340, %1317 : i32
                %1342 = arith.index_cast %1341 : i32 to index
                %1343 = memref.load %arg12[%1342] : memref<?xf32>
                %1344 = arith.addf %1337, %1343 : f32
                %1345 = arith.mulf %1312, %1344 : f32
                %1346 = arith.mulf %1302, %1345 : f32
                %1347 = arith.subf %arg23, %1346 : f32
                scf.yield %1347 : f32
              }
              %912 = arith.subi %60, %arg0 : i32
              %913 = arith.index_cast %912 : i32 to index
              %914 = memref.load %arg16[%913] : memref<?xf32>
              %915 = arith.mulf %914, %911 : f32
              %916 = arith.addf %910, %915 : f32
              %917 = arith.subi %60, %arg0 : i32
              %918 = arith.index_cast %917 : i32 to index
              %919 = memref.load %arg16[%918] : memref<?xf32>
              %920 = arith.subi %52, %arg2 : i32
              %921 = arith.index_cast %920 : i32 to index
              %922 = memref.load %arg17[%921] : memref<?xf32>
              %923 = arith.mulf %919, %922 : f32
              %924 = arith.addi %15, %60 : i32
              %925 = arith.addi %924, %c-2_i32 : i32
              %926 = arith.muli %4, %52 : i32
              %927 = arith.addi %925, %926 : i32
              %928 = arith.muli %7, %44 : i32
              %929 = arith.addi %927, %928 : i32
              %930 = arith.index_cast %929 : i32 to index
              %931 = memref.load %arg13[%930] : memref<?xf32>
              %932 = arith.addi %16, %60 : i32
              %933 = arith.addi %932, %c-2_i32 : i32
              %934 = arith.addi %52, %c-2_i32 : i32
              %935 = arith.muli %4, %934 : i32
              %936 = arith.addi %933, %935 : i32
              %937 = arith.addi %936, %928 : i32
              %938 = arith.addi %937, %10 : i32
              %939 = arith.index_cast %938 : i32 to index
              %940 = memref.load %arg12[%939] : memref<?xf32>
              %941 = arith.addi %52, %c2_i32 : i32
              %942 = arith.muli %4, %941 : i32
              %943 = arith.addi %933, %942 : i32
              %944 = arith.addi %943, %928 : i32
              %945 = arith.addi %944, %10 : i32
              %946 = arith.index_cast %945 : i32 to index
              %947 = memref.load %arg12[%946] : memref<?xf32>
              %948 = arith.subf %940, %947 : f32
              %949 = arith.addi %52, %c-1_i32 : i32
              %950 = arith.muli %4, %949 : i32
              %951 = arith.addi %933, %950 : i32
              %952 = arith.addi %951, %928 : i32
              %953 = arith.addi %952, %10 : i32
              %954 = arith.index_cast %953 : i32 to index
              %955 = memref.load %arg12[%954] : memref<?xf32>
              %956 = arith.negf %955 : f32
              %957 = arith.addi %52, %c1_i32 : i32
              %958 = arith.muli %4, %957 : i32
              %959 = arith.addi %933, %958 : i32
              %960 = arith.addi %959, %928 : i32
              %961 = arith.addi %960, %10 : i32
              %962 = arith.index_cast %961 : i32 to index
              %963 = memref.load %arg12[%962] : memref<?xf32>
              %964 = arith.addf %956, %963 : f32
              %965 = arith.mulf %964, %cst_2 : f32
              %966 = arith.addf %948, %965 : f32
              %967 = arith.mulf %931, %966 : f32
              %968 = arith.addi %924, %c-1_i32 : i32
              %969 = arith.addi %968, %926 : i32
              %970 = arith.addi %969, %928 : i32
              %971 = arith.index_cast %970 : i32 to index
              %972 = memref.load %arg13[%971] : memref<?xf32>
              %973 = arith.addi %932, %c-1_i32 : i32
              %974 = arith.addi %973, %935 : i32
              %975 = arith.addi %974, %928 : i32
              %976 = arith.addi %975, %10 : i32
              %977 = arith.index_cast %976 : i32 to index
              %978 = memref.load %arg12[%977] : memref<?xf32>
              %979 = arith.addi %973, %942 : i32
              %980 = arith.addi %979, %928 : i32
              %981 = arith.addi %980, %10 : i32
              %982 = arith.index_cast %981 : i32 to index
              %983 = memref.load %arg12[%982] : memref<?xf32>
              %984 = arith.subf %978, %983 : f32
              %985 = arith.addi %973, %950 : i32
              %986 = arith.addi %985, %928 : i32
              %987 = arith.addi %986, %10 : i32
              %988 = arith.index_cast %987 : i32 to index
              %989 = memref.load %arg12[%988] : memref<?xf32>
              %990 = arith.negf %989 : f32
              %991 = arith.addi %973, %958 : i32
              %992 = arith.addi %991, %928 : i32
              %993 = arith.addi %992, %10 : i32
              %994 = arith.index_cast %993 : i32 to index
              %995 = memref.load %arg12[%994] : memref<?xf32>
              %996 = arith.addf %990, %995 : f32
              %997 = arith.mulf %996, %cst_2 : f32
              %998 = arith.addf %984, %997 : f32
              %999 = arith.mulf %972, %998 : f32
              %1000 = arith.mulf %999, %cst_2 : f32
              %1001 = arith.subf %967, %1000 : f32
              %1002 = arith.addi %924, %c1_i32 : i32
              %1003 = arith.addi %1002, %926 : i32
              %1004 = arith.addi %1003, %928 : i32
              %1005 = arith.index_cast %1004 : i32 to index
              %1006 = memref.load %arg13[%1005] : memref<?xf32>
              %1007 = arith.addi %932, %c1_i32 : i32
              %1008 = arith.addi %1007, %935 : i32
              %1009 = arith.addi %1008, %928 : i32
              %1010 = arith.addi %1009, %10 : i32
              %1011 = arith.index_cast %1010 : i32 to index
              %1012 = memref.load %arg12[%1011] : memref<?xf32>
              %1013 = arith.addi %1007, %942 : i32
              %1014 = arith.addi %1013, %928 : i32
              %1015 = arith.addi %1014, %10 : i32
              %1016 = arith.index_cast %1015 : i32 to index
              %1017 = memref.load %arg12[%1016] : memref<?xf32>
              %1018 = arith.subf %1012, %1017 : f32
              %1019 = arith.addi %1007, %950 : i32
              %1020 = arith.addi %1019, %928 : i32
              %1021 = arith.addi %1020, %10 : i32
              %1022 = arith.index_cast %1021 : i32 to index
              %1023 = memref.load %arg12[%1022] : memref<?xf32>
              %1024 = arith.negf %1023 : f32
              %1025 = arith.addi %1007, %958 : i32
              %1026 = arith.addi %1025, %928 : i32
              %1027 = arith.addi %1026, %10 : i32
              %1028 = arith.index_cast %1027 : i32 to index
              %1029 = memref.load %arg12[%1028] : memref<?xf32>
              %1030 = arith.addf %1024, %1029 : f32
              %1031 = arith.mulf %1030, %cst_2 : f32
              %1032 = arith.addf %1018, %1031 : f32
              %1033 = arith.mulf %1006, %1032 : f32
              %1034 = arith.mulf %1033, %cst_2 : f32
              %1035 = arith.addf %1001, %1034 : f32
              %1036 = arith.addi %924, %c2_i32 : i32
              %1037 = arith.addi %1036, %926 : i32
              %1038 = arith.addi %1037, %928 : i32
              %1039 = arith.index_cast %1038 : i32 to index
              %1040 = memref.load %arg13[%1039] : memref<?xf32>
              %1041 = arith.addi %932, %c2_i32 : i32
              %1042 = arith.addi %1041, %935 : i32
              %1043 = arith.addi %1042, %928 : i32
              %1044 = arith.addi %1043, %10 : i32
              %1045 = arith.index_cast %1044 : i32 to index
              %1046 = memref.load %arg12[%1045] : memref<?xf32>
              %1047 = arith.addi %1041, %942 : i32
              %1048 = arith.addi %1047, %928 : i32
              %1049 = arith.addi %1048, %10 : i32
              %1050 = arith.index_cast %1049 : i32 to index
              %1051 = memref.load %arg12[%1050] : memref<?xf32>
              %1052 = arith.subf %1046, %1051 : f32
              %1053 = arith.addi %1041, %950 : i32
              %1054 = arith.addi %1053, %928 : i32
              %1055 = arith.addi %1054, %10 : i32
              %1056 = arith.index_cast %1055 : i32 to index
              %1057 = memref.load %arg12[%1056] : memref<?xf32>
              %1058 = arith.negf %1057 : f32
              %1059 = arith.addi %1041, %958 : i32
              %1060 = arith.addi %1059, %928 : i32
              %1061 = arith.addi %1060, %10 : i32
              %1062 = arith.index_cast %1061 : i32 to index
              %1063 = memref.load %arg12[%1062] : memref<?xf32>
              %1064 = arith.addf %1058, %1063 : f32
              %1065 = arith.mulf %1064, %cst_2 : f32
              %1066 = arith.addf %1052, %1065 : f32
              %1067 = arith.mulf %1040, %1066 : f32
              %1068 = arith.subf %1035, %1067 : f32
              %1069 = arith.mulf %2, %1068 : f32
              %1070 = arith.addi %924, %935 : i32
              %1071 = arith.addi %1070, %928 : i32
              %1072 = arith.index_cast %1071 : i32 to index
              %1073 = memref.load %arg14[%1072] : memref<?xf32>
              %1074 = arith.subf %940, %1046 : f32
              %1075 = arith.negf %978 : f32
              %1076 = arith.addf %1075, %1012 : f32
              %1077 = arith.mulf %1076, %cst_2 : f32
              %1078 = arith.addf %1074, %1077 : f32
              %1079 = arith.mulf %1073, %1078 : f32
              %1080 = arith.addi %924, %950 : i32
              %1081 = arith.addi %1080, %928 : i32
              %1082 = arith.index_cast %1081 : i32 to index
              %1083 = memref.load %arg14[%1082] : memref<?xf32>
              %1084 = arith.subf %955, %1057 : f32
              %1085 = arith.addf %990, %1023 : f32
              %1086 = arith.mulf %1085, %cst_2 : f32
              %1087 = arith.addf %1084, %1086 : f32
              %1088 = arith.mulf %1083, %1087 : f32
              %1089 = arith.mulf %1088, %cst_2 : f32
              %1090 = arith.subf %1079, %1089 : f32
              %1091 = arith.addi %924, %958 : i32
              %1092 = arith.addi %1091, %928 : i32
              %1093 = arith.index_cast %1092 : i32 to index
              %1094 = memref.load %arg14[%1093] : memref<?xf32>
              %1095 = arith.subf %963, %1063 : f32
              %1096 = arith.negf %995 : f32
              %1097 = arith.addf %1096, %1029 : f32
              %1098 = arith.mulf %1097, %cst_2 : f32
              %1099 = arith.addf %1095, %1098 : f32
              %1100 = arith.mulf %1094, %1099 : f32
              %1101 = arith.mulf %1100, %cst_2 : f32
              %1102 = arith.addf %1090, %1101 : f32
              %1103 = arith.addi %924, %942 : i32
              %1104 = arith.addi %1103, %928 : i32
              %1105 = arith.index_cast %1104 : i32 to index
              %1106 = memref.load %arg14[%1105] : memref<?xf32>
              %1107 = arith.subf %947, %1051 : f32
              %1108 = arith.negf %983 : f32
              %1109 = arith.addf %1108, %1017 : f32
              %1110 = arith.mulf %1109, %cst_2 : f32
              %1111 = arith.addf %1107, %1110 : f32
              %1112 = arith.mulf %1106, %1111 : f32
              %1113 = arith.subf %1102, %1112 : f32
              %1114 = arith.mulf %2, %1113 : f32
              %1115 = arith.addf %1069, %1114 : f32
              %1116 = arith.mulf %923, %1115 : f32
              %1117 = arith.addf %550, %1116 : f32
              %1118:4 = scf.for %arg22 = %c1 to %c9 step %c1 iter_args(%arg23 = %cst_7, %arg24 = %cst_7, %arg25 = %cst_7, %arg26 = %cst_7) -> (f32, f32, f32, f32) {
                %1297 = arith.index_cast %arg22 : index to i32
                %1298 = arith.addi %1297, %c-1_i32 : i32
                %1299 = arith.muli %1298, %c6_i32 : i32
                %1300 = arith.addi %353, %1299 : i32
                %1301 = arith.index_cast %1300 : i32 to index
                %1302 = memref.load %arg9[%1301] : memref<?xf32>
                %1303 = arith.addi %16, %60 : i32
                %1304 = arith.addi %52, %c2_i32 : i32
                %1305 = arith.muli %4, %1304 : i32
                %1306 = arith.addi %1303, %1305 : i32
                %1307 = arith.subi %arg6, %1297 : i32
                %1308 = arith.addi %1307, %c1_i32 : i32
                %1309 = arith.muli %7, %1308 : i32
                %1310 = arith.addi %1306, %1309 : i32
                %1311 = arith.muli %10, %c3_i32 : i32
                %1312 = arith.addi %1310, %1311 : i32
                %1313 = arith.index_cast %1312 : i32 to index
                %1314 = memref.load %arg12[%1313] : memref<?xf32>
                %1315 = arith.mulf %1302, %1314 : f32
                %1316 = arith.subf %arg26, %1315 : f32
                %1317 = memref.load %arg9[%1301] : memref<?xf32>
                %1318 = arith.addi %52, %c1_i32 : i32
                %1319 = arith.muli %4, %1318 : i32
                %1320 = arith.addi %1303, %1319 : i32
                %1321 = arith.addi %1320, %1309 : i32
                %1322 = arith.addi %1321, %1311 : i32
                %1323 = arith.index_cast %1322 : i32 to index
                %1324 = memref.load %arg12[%1323] : memref<?xf32>
                %1325 = arith.mulf %1317, %1324 : f32
                %1326 = arith.subf %arg25, %1325 : f32
                %1327 = memref.load %arg9[%1301] : memref<?xf32>
                %1328 = arith.addi %52, %c-1_i32 : i32
                %1329 = arith.muli %4, %1328 : i32
                %1330 = arith.addi %1303, %1329 : i32
                %1331 = arith.addi %1330, %1309 : i32
                %1332 = arith.addi %1331, %1311 : i32
                %1333 = arith.index_cast %1332 : i32 to index
                %1334 = memref.load %arg12[%1333] : memref<?xf32>
                %1335 = arith.mulf %1327, %1334 : f32
                %1336 = arith.subf %arg24, %1335 : f32
                %1337 = memref.load %arg9[%1301] : memref<?xf32>
                %1338 = arith.addi %52, %c-2_i32 : i32
                %1339 = arith.muli %4, %1338 : i32
                %1340 = arith.addi %1303, %1339 : i32
                %1341 = arith.addi %1340, %1309 : i32
                %1342 = arith.addi %1341, %1311 : i32
                %1343 = arith.index_cast %1342 : i32 to index
                %1344 = memref.load %arg12[%1343] : memref<?xf32>
                %1345 = arith.mulf %1337, %1344 : f32
                %1346 = arith.subf %arg23, %1345 : f32
                scf.yield %1346, %1336, %1326, %1316 : f32, f32, f32, f32
              }
              %1119 = arith.addi %15, %60 : i32
              %1120 = arith.addi %52, %c2_i32 : i32
              %1121 = arith.muli %4, %1120 : i32
              %1122 = arith.addi %1119, %1121 : i32
              %1123 = arith.muli %7, %44 : i32
              %1124 = arith.addi %1122, %1123 : i32
              %1125 = arith.index_cast %1124 : i32 to index
              %1126 = memref.load %arg14[%1125] : memref<?xf32>
              %1127 = arith.negf %1126 : f32
              %1128 = arith.mulf %1127, %1118#3 : f32
              %1129 = arith.addi %52, %c1_i32 : i32
              %1130 = arith.muli %4, %1129 : i32
              %1131 = arith.addi %1119, %1130 : i32
              %1132 = arith.addi %1131, %1123 : i32
              %1133 = arith.index_cast %1132 : i32 to index
              %1134 = memref.load %arg14[%1133] : memref<?xf32>
              %1135 = arith.mulf %1134, %cst_2 : f32
              %1136 = arith.mulf %1135, %1118#2 : f32
              %1137 = arith.addf %1128, %1136 : f32
              %1138 = arith.addi %52, %c-1_i32 : i32
              %1139 = arith.muli %4, %1138 : i32
              %1140 = arith.addi %1119, %1139 : i32
              %1141 = arith.addi %1140, %1123 : i32
              %1142 = arith.index_cast %1141 : i32 to index
              %1143 = memref.load %arg14[%1142] : memref<?xf32>
              %1144 = arith.mulf %1143, %cst_2 : f32
              %1145 = arith.mulf %1144, %1118#1 : f32
              %1146 = arith.subf %1137, %1145 : f32
              %1147 = arith.addi %52, %c-2_i32 : i32
              %1148 = arith.muli %4, %1147 : i32
              %1149 = arith.addi %1119, %1148 : i32
              %1150 = arith.addi %1149, %1123 : i32
              %1151 = arith.index_cast %1150 : i32 to index
              %1152 = memref.load %arg14[%1151] : memref<?xf32>
              %1153 = arith.mulf %1152, %1118#0 : f32
              %1154 = arith.addf %1146, %1153 : f32
              %1155 = arith.mulf %1, %1154 : f32
              %1156 = arith.subi %52, %arg2 : i32
              %1157 = arith.index_cast %1156 : i32 to index
              %1158 = memref.load %arg17[%1157] : memref<?xf32>
              %1159 = arith.mulf %1158, %1155 : f32
              %1160 = arith.addf %1117, %1159 : f32
              %1161 = scf.for %arg22 = %c1 to %c9 step %c1 iter_args(%arg23 = %cst_7) -> (f32) {
                %1297 = arith.index_cast %arg22 : index to i32
                %1298 = arith.addi %1297, %c-1_i32 : i32
                %1299 = arith.muli %1298, %c6_i32 : i32
                %1300 = arith.addi %353, %1299 : i32
                %1301 = arith.index_cast %1300 : i32 to index
                %1302 = memref.load %arg9[%1301] : memref<?xf32>
                %1303 = arith.addi %15, %60 : i32
                %1304 = arith.muli %4, %52 : i32
                %1305 = arith.addi %1303, %1304 : i32
                %1306 = arith.subi %arg6, %1297 : i32
                %1307 = arith.addi %1306, %c1_i32 : i32
                %1308 = arith.muli %7, %1307 : i32
                %1309 = arith.addi %1305, %1308 : i32
                %1310 = arith.index_cast %1309 : i32 to index
                %1311 = memref.load %arg13[%1310] : memref<?xf32>
                %1312 = arith.mulf %1311, %1 : f32
                %1313 = arith.addi %16, %60 : i32
                %1314 = arith.addi %52, %c2_i32 : i32
                %1315 = arith.muli %4, %1314 : i32
                %1316 = arith.addi %1313, %1315 : i32
                %1317 = arith.addi %1316, %1308 : i32
                %1318 = arith.muli %10, %c3_i32 : i32
                %1319 = arith.addi %1317, %1318 : i32
                %1320 = arith.index_cast %1319 : i32 to index
                %1321 = memref.load %arg12[%1320] : memref<?xf32>
                %1322 = arith.negf %1321 : f32
                %1323 = arith.addi %52, %c1_i32 : i32
                %1324 = arith.muli %4, %1323 : i32
                %1325 = arith.addi %1313, %1324 : i32
                %1326 = arith.addi %1325, %1308 : i32
                %1327 = arith.addi %1326, %1318 : i32
                %1328 = arith.index_cast %1327 : i32 to index
                %1329 = memref.load %arg12[%1328] : memref<?xf32>
                %1330 = arith.mulf %1329, %cst_2 : f32
                %1331 = arith.addf %1322, %1330 : f32
                %1332 = arith.addi %52, %c-1_i32 : i32
                %1333 = arith.muli %4, %1332 : i32
                %1334 = arith.addi %1313, %1333 : i32
                %1335 = arith.addi %1334, %1308 : i32
                %1336 = arith.addi %1335, %1318 : i32
                %1337 = arith.index_cast %1336 : i32 to index
                %1338 = memref.load %arg12[%1337] : memref<?xf32>
                %1339 = arith.mulf %1338, %cst_2 : f32
                %1340 = arith.subf %1331, %1339 : f32
                %1341 = arith.addi %52, %c-2_i32 : i32
                %1342 = arith.muli %4, %1341 : i32
                %1343 = arith.addi %1313, %1342 : i32
                %1344 = arith.addi %1343, %1308 : i32
                %1345 = arith.addi %1344, %1318 : i32
                %1346 = arith.index_cast %1345 : i32 to index
                %1347 = memref.load %arg12[%1346] : memref<?xf32>
                %1348 = arith.addf %1340, %1347 : f32
                %1349 = arith.mulf %1312, %1348 : f32
                %1350 = arith.mulf %1302, %1349 : f32
                %1351 = arith.subf %arg23, %1350 : f32
                scf.yield %1351 : f32
              }
              %1162 = arith.subi %52, %arg2 : i32
              %1163 = arith.index_cast %1162 : i32 to index
              %1164 = memref.load %arg17[%1163] : memref<?xf32>
              %1165 = arith.mulf %1164, %1161 : f32
              %1166 = arith.addf %1160, %1165 : f32
              %1167:4 = scf.for %arg22 = %c1 to %c9 step %c1 iter_args(%arg23 = %cst_7, %arg24 = %cst_7, %arg25 = %cst_7, %arg26 = %cst_7) -> (f32, f32, f32, f32) {
                %1297 = arith.index_cast %arg22 : index to i32
                %1298 = arith.addi %1297, %c-1_i32 : i32
                %1299 = arith.muli %1298, %c6_i32 : i32
                %1300 = arith.addi %353, %1299 : i32
                %1301 = arith.index_cast %1300 : i32 to index
                %1302 = memref.load %arg9[%1301] : memref<?xf32>
                %1303 = arith.addi %16, %60 : i32
                %1304 = arith.addi %1303, %c2_i32 : i32
                %1305 = arith.muli %4, %52 : i32
                %1306 = arith.addi %1304, %1305 : i32
                %1307 = arith.subi %arg6, %1297 : i32
                %1308 = arith.addi %1307, %c1_i32 : i32
                %1309 = arith.muli %7, %1308 : i32
                %1310 = arith.addi %1306, %1309 : i32
                %1311 = arith.addi %1310, %10 : i32
                %1312 = arith.index_cast %1311 : i32 to index
                %1313 = memref.load %arg12[%1312] : memref<?xf32>
                %1314 = arith.mulf %1302, %1313 : f32
                %1315 = arith.subf %arg26, %1314 : f32
                %1316 = memref.load %arg9[%1301] : memref<?xf32>
                %1317 = arith.addi %1303, %c1_i32 : i32
                %1318 = arith.addi %1317, %1305 : i32
                %1319 = arith.addi %1318, %1309 : i32
                %1320 = arith.addi %1319, %10 : i32
                %1321 = arith.index_cast %1320 : i32 to index
                %1322 = memref.load %arg12[%1321] : memref<?xf32>
                %1323 = arith.mulf %1316, %1322 : f32
                %1324 = arith.subf %arg25, %1323 : f32
                %1325 = memref.load %arg9[%1301] : memref<?xf32>
                %1326 = arith.addi %1303, %c-1_i32 : i32
                %1327 = arith.addi %1326, %1305 : i32
                %1328 = arith.addi %1327, %1309 : i32
                %1329 = arith.addi %1328, %10 : i32
                %1330 = arith.index_cast %1329 : i32 to index
                %1331 = memref.load %arg12[%1330] : memref<?xf32>
                %1332 = arith.mulf %1325, %1331 : f32
                %1333 = arith.subf %arg24, %1332 : f32
                %1334 = memref.load %arg9[%1301] : memref<?xf32>
                %1335 = arith.addi %1303, %c-2_i32 : i32
                %1336 = arith.addi %1335, %1305 : i32
                %1337 = arith.addi %1336, %1309 : i32
                %1338 = arith.addi %1337, %10 : i32
                %1339 = arith.index_cast %1338 : i32 to index
                %1340 = memref.load %arg12[%1339] : memref<?xf32>
                %1341 = arith.mulf %1334, %1340 : f32
                %1342 = arith.subf %arg23, %1341 : f32
                scf.yield %1342, %1333, %1324, %1315 : f32, f32, f32, f32
              }
              %1168 = arith.addi %15, %60 : i32
              %1169 = arith.addi %1168, %c2_i32 : i32
              %1170 = arith.muli %4, %52 : i32
              %1171 = arith.addi %1169, %1170 : i32
              %1172 = arith.muli %7, %44 : i32
              %1173 = arith.addi %1171, %1172 : i32
              %1174 = arith.index_cast %1173 : i32 to index
              %1175 = memref.load %arg13[%1174] : memref<?xf32>
              %1176 = arith.negf %1175 : f32
              %1177 = arith.mulf %1176, %1167#3 : f32
              %1178 = arith.addi %1168, %c1_i32 : i32
              %1179 = arith.addi %1178, %1170 : i32
              %1180 = arith.addi %1179, %1172 : i32
              %1181 = arith.index_cast %1180 : i32 to index
              %1182 = memref.load %arg13[%1181] : memref<?xf32>
              %1183 = arith.mulf %1182, %cst_2 : f32
              %1184 = arith.mulf %1183, %1167#2 : f32
              %1185 = arith.addf %1177, %1184 : f32
              %1186 = arith.addi %1168, %c-1_i32 : i32
              %1187 = arith.addi %1186, %1170 : i32
              %1188 = arith.addi %1187, %1172 : i32
              %1189 = arith.index_cast %1188 : i32 to index
              %1190 = memref.load %arg13[%1189] : memref<?xf32>
              %1191 = arith.mulf %1190, %cst_2 : f32
              %1192 = arith.mulf %1191, %1167#1 : f32
              %1193 = arith.subf %1185, %1192 : f32
              %1194 = arith.addi %1168, %c-2_i32 : i32
              %1195 = arith.addi %1194, %1170 : i32
              %1196 = arith.addi %1195, %1172 : i32
              %1197 = arith.index_cast %1196 : i32 to index
              %1198 = memref.load %arg13[%1197] : memref<?xf32>
              %1199 = arith.mulf %1198, %1167#0 : f32
              %1200 = arith.addf %1193, %1199 : f32
              %1201 = arith.mulf %1, %1200 : f32
              %1202 = arith.subi %60, %arg0 : i32
              %1203 = arith.index_cast %1202 : i32 to index
              %1204 = memref.load %arg16[%1203] : memref<?xf32>
              %1205 = arith.mulf %1204, %1201 : f32
              %1206 = arith.addf %668, %1205 : f32
              %1207:4 = scf.for %arg22 = %c1 to %c9 step %c1 iter_args(%arg23 = %cst_7, %arg24 = %cst_7, %arg25 = %cst_7, %arg26 = %cst_7) -> (f32, f32, f32, f32) {
                %1297 = arith.index_cast %arg22 : index to i32
                %1298 = arith.addi %1297, %c-1_i32 : i32
                %1299 = arith.muli %1298, %c6_i32 : i32
                %1300 = arith.addi %353, %1299 : i32
                %1301 = arith.index_cast %1300 : i32 to index
                %1302 = memref.load %arg9[%1301] : memref<?xf32>
                %1303 = arith.addi %16, %60 : i32
                %1304 = arith.addi %52, %c2_i32 : i32
                %1305 = arith.muli %4, %1304 : i32
                %1306 = arith.addi %1303, %1305 : i32
                %1307 = arith.subi %arg6, %1297 : i32
                %1308 = arith.addi %1307, %c1_i32 : i32
                %1309 = arith.muli %7, %1308 : i32
                %1310 = arith.addi %1306, %1309 : i32
                %1311 = arith.muli %10, %c2_i32 : i32
                %1312 = arith.addi %1310, %1311 : i32
                %1313 = arith.index_cast %1312 : i32 to index
                %1314 = memref.load %arg12[%1313] : memref<?xf32>
                %1315 = arith.mulf %1302, %1314 : f32
                %1316 = arith.subf %arg26, %1315 : f32
                %1317 = memref.load %arg9[%1301] : memref<?xf32>
                %1318 = arith.addi %52, %c1_i32 : i32
                %1319 = arith.muli %4, %1318 : i32
                %1320 = arith.addi %1303, %1319 : i32
                %1321 = arith.addi %1320, %1309 : i32
                %1322 = arith.addi %1321, %1311 : i32
                %1323 = arith.index_cast %1322 : i32 to index
                %1324 = memref.load %arg12[%1323] : memref<?xf32>
                %1325 = arith.mulf %1317, %1324 : f32
                %1326 = arith.subf %arg25, %1325 : f32
                %1327 = memref.load %arg9[%1301] : memref<?xf32>
                %1328 = arith.addi %52, %c-1_i32 : i32
                %1329 = arith.muli %4, %1328 : i32
                %1330 = arith.addi %1303, %1329 : i32
                %1331 = arith.addi %1330, %1309 : i32
                %1332 = arith.addi %1331, %1311 : i32
                %1333 = arith.index_cast %1332 : i32 to index
                %1334 = memref.load %arg12[%1333] : memref<?xf32>
                %1335 = arith.mulf %1327, %1334 : f32
                %1336 = arith.subf %arg24, %1335 : f32
                %1337 = memref.load %arg9[%1301] : memref<?xf32>
                %1338 = arith.addi %52, %c-2_i32 : i32
                %1339 = arith.muli %4, %1338 : i32
                %1340 = arith.addi %1303, %1339 : i32
                %1341 = arith.addi %1340, %1309 : i32
                %1342 = arith.addi %1341, %1311 : i32
                %1343 = arith.index_cast %1342 : i32 to index
                %1344 = memref.load %arg12[%1343] : memref<?xf32>
                %1345 = arith.mulf %1337, %1344 : f32
                %1346 = arith.subf %arg23, %1345 : f32
                scf.yield %1346, %1336, %1326, %1316 : f32, f32, f32, f32
              }
              %1208 = arith.addi %15, %60 : i32
              %1209 = arith.addi %52, %c2_i32 : i32
              %1210 = arith.muli %4, %1209 : i32
              %1211 = arith.addi %1208, %1210 : i32
              %1212 = arith.muli %7, %44 : i32
              %1213 = arith.addi %1211, %1212 : i32
              %1214 = arith.index_cast %1213 : i32 to index
              %1215 = memref.load %arg13[%1214] : memref<?xf32>
              %1216 = arith.negf %1215 : f32
              %1217 = arith.mulf %1216, %1207#3 : f32
              %1218 = arith.addi %52, %c1_i32 : i32
              %1219 = arith.muli %4, %1218 : i32
              %1220 = arith.addi %1208, %1219 : i32
              %1221 = arith.addi %1220, %1212 : i32
              %1222 = arith.index_cast %1221 : i32 to index
              %1223 = memref.load %arg13[%1222] : memref<?xf32>
              %1224 = arith.mulf %1223, %cst_2 : f32
              %1225 = arith.mulf %1224, %1207#2 : f32
              %1226 = arith.addf %1217, %1225 : f32
              %1227 = arith.addi %52, %c-1_i32 : i32
              %1228 = arith.muli %4, %1227 : i32
              %1229 = arith.addi %1208, %1228 : i32
              %1230 = arith.addi %1229, %1212 : i32
              %1231 = arith.index_cast %1230 : i32 to index
              %1232 = memref.load %arg13[%1231] : memref<?xf32>
              %1233 = arith.mulf %1232, %cst_2 : f32
              %1234 = arith.mulf %1233, %1207#1 : f32
              %1235 = arith.subf %1226, %1234 : f32
              %1236 = arith.addi %52, %c-2_i32 : i32
              %1237 = arith.muli %4, %1236 : i32
              %1238 = arith.addi %1208, %1237 : i32
              %1239 = arith.addi %1238, %1212 : i32
              %1240 = arith.index_cast %1239 : i32 to index
              %1241 = memref.load %arg13[%1240] : memref<?xf32>
              %1242 = arith.mulf %1241, %1207#0 : f32
              %1243 = arith.addf %1235, %1242 : f32
              %1244 = arith.mulf %1, %1243 : f32
              %1245 = arith.subi %52, %arg2 : i32
              %1246 = arith.index_cast %1245 : i32 to index
              %1247 = memref.load %arg17[%1246] : memref<?xf32>
              %1248 = arith.mulf %1247, %1244 : f32
              %1249 = arith.addf %1206, %1248 : f32
              %1250 = scf.for %arg22 = %c1 to %c9 step %c1 iter_args(%arg23 = %cst_7) -> (f32) {
                %1297 = arith.index_cast %arg22 : index to i32
                %1298 = arith.addi %1297, %c-1_i32 : i32
                %1299 = arith.muli %1298, %c6_i32 : i32
                %1300 = arith.addi %353, %1299 : i32
                %1301 = arith.index_cast %1300 : i32 to index
                %1302 = memref.load %arg9[%1301] : memref<?xf32>
                %1303 = arith.addi %15, %60 : i32
                %1304 = arith.muli %4, %52 : i32
                %1305 = arith.addi %1303, %1304 : i32
                %1306 = arith.subi %arg6, %1297 : i32
                %1307 = arith.addi %1306, %c1_i32 : i32
                %1308 = arith.muli %7, %1307 : i32
                %1309 = arith.addi %1305, %1308 : i32
                %1310 = arith.index_cast %1309 : i32 to index
                %1311 = memref.load %arg14[%1310] : memref<?xf32>
                %1312 = arith.mulf %1311, %1 : f32
                %1313 = arith.addi %16, %60 : i32
                %1314 = arith.addi %1313, %c2_i32 : i32
                %1315 = arith.addi %1314, %1304 : i32
                %1316 = arith.addi %1315, %1308 : i32
                %1317 = arith.addi %1316, %10 : i32
                %1318 = arith.index_cast %1317 : i32 to index
                %1319 = memref.load %arg12[%1318] : memref<?xf32>
                %1320 = arith.negf %1319 : f32
                %1321 = arith.addi %1313, %c1_i32 : i32
                %1322 = arith.addi %1321, %1304 : i32
                %1323 = arith.addi %1322, %1308 : i32
                %1324 = arith.addi %1323, %10 : i32
                %1325 = arith.index_cast %1324 : i32 to index
                %1326 = memref.load %arg12[%1325] : memref<?xf32>
                %1327 = arith.mulf %1326, %cst_2 : f32
                %1328 = arith.addf %1320, %1327 : f32
                %1329 = arith.addi %1313, %c-1_i32 : i32
                %1330 = arith.addi %1329, %1304 : i32
                %1331 = arith.addi %1330, %1308 : i32
                %1332 = arith.addi %1331, %10 : i32
                %1333 = arith.index_cast %1332 : i32 to index
                %1334 = memref.load %arg12[%1333] : memref<?xf32>
                %1335 = arith.mulf %1334, %cst_2 : f32
                %1336 = arith.subf %1328, %1335 : f32
                %1337 = arith.addi %1313, %c-2_i32 : i32
                %1338 = arith.addi %1337, %1304 : i32
                %1339 = arith.addi %1338, %1308 : i32
                %1340 = arith.addi %1339, %10 : i32
                %1341 = arith.index_cast %1340 : i32 to index
                %1342 = memref.load %arg12[%1341] : memref<?xf32>
                %1343 = arith.addf %1336, %1342 : f32
                %1344 = arith.mulf %1312, %1343 : f32
                %1345 = arith.mulf %1302, %1344 : f32
                %1346 = arith.subf %arg23, %1345 : f32
                scf.yield %1346 : f32
              }
              %1251 = arith.subi %60, %arg0 : i32
              %1252 = arith.index_cast %1251 : i32 to index
              %1253 = memref.load %arg16[%1252] : memref<?xf32>
              %1254 = arith.mulf %1253, %1250 : f32
              %1255 = arith.addf %1249, %1254 : f32
              %1256 = scf.for %arg22 = %c1 to %c9 step %c1 iter_args(%arg23 = %cst_7) -> (f32) {
                %1297 = arith.index_cast %arg22 : index to i32
                %1298 = arith.addi %1297, %c-1_i32 : i32
                %1299 = arith.muli %1298, %c6_i32 : i32
                %1300 = arith.addi %353, %1299 : i32
                %1301 = arith.index_cast %1300 : i32 to index
                %1302 = memref.load %arg9[%1301] : memref<?xf32>
                %1303 = arith.addi %15, %60 : i32
                %1304 = arith.muli %4, %52 : i32
                %1305 = arith.addi %1303, %1304 : i32
                %1306 = arith.subi %arg6, %1297 : i32
                %1307 = arith.addi %1306, %c1_i32 : i32
                %1308 = arith.muli %7, %1307 : i32
                %1309 = arith.addi %1305, %1308 : i32
                %1310 = arith.index_cast %1309 : i32 to index
                %1311 = memref.load %arg14[%1310] : memref<?xf32>
                %1312 = arith.mulf %1311, %1 : f32
                %1313 = arith.addi %16, %60 : i32
                %1314 = arith.addi %52, %c2_i32 : i32
                %1315 = arith.muli %4, %1314 : i32
                %1316 = arith.addi %1313, %1315 : i32
                %1317 = arith.addi %1316, %1308 : i32
                %1318 = arith.muli %10, %c2_i32 : i32
                %1319 = arith.addi %1317, %1318 : i32
                %1320 = arith.index_cast %1319 : i32 to index
                %1321 = memref.load %arg12[%1320] : memref<?xf32>
                %1322 = arith.negf %1321 : f32
                %1323 = arith.addi %52, %c1_i32 : i32
                %1324 = arith.muli %4, %1323 : i32
                %1325 = arith.addi %1313, %1324 : i32
                %1326 = arith.addi %1325, %1308 : i32
                %1327 = arith.addi %1326, %1318 : i32
                %1328 = arith.index_cast %1327 : i32 to index
                %1329 = memref.load %arg12[%1328] : memref<?xf32>
                %1330 = arith.mulf %1329, %cst_2 : f32
                %1331 = arith.addf %1322, %1330 : f32
                %1332 = arith.addi %52, %c-1_i32 : i32
                %1333 = arith.muli %4, %1332 : i32
                %1334 = arith.addi %1313, %1333 : i32
                %1335 = arith.addi %1334, %1308 : i32
                %1336 = arith.addi %1335, %1318 : i32
                %1337 = arith.index_cast %1336 : i32 to index
                %1338 = memref.load %arg12[%1337] : memref<?xf32>
                %1339 = arith.mulf %1338, %cst_2 : f32
                %1340 = arith.subf %1331, %1339 : f32
                %1341 = arith.addi %52, %c-2_i32 : i32
                %1342 = arith.muli %4, %1341 : i32
                %1343 = arith.addi %1313, %1342 : i32
                %1344 = arith.addi %1343, %1308 : i32
                %1345 = arith.addi %1344, %1318 : i32
                %1346 = arith.index_cast %1345 : i32 to index
                %1347 = memref.load %arg12[%1346] : memref<?xf32>
                %1348 = arith.addf %1340, %1347 : f32
                %1349 = arith.mulf %1312, %1348 : f32
                %1350 = arith.mulf %1302, %1349 : f32
                %1351 = arith.subf %arg23, %1350 : f32
                scf.yield %1351 : f32
              }
              %1257 = arith.subi %52, %arg2 : i32
              %1258 = arith.index_cast %1257 : i32 to index
              %1259 = memref.load %arg17[%1258] : memref<?xf32>
              %1260 = arith.mulf %1259, %1256 : f32
              %1261 = arith.addf %1255, %1260 : f32
              %1262 = arith.addi %16, %60 : i32
              %1263 = arith.muli %4, %52 : i32
              %1264 = arith.addi %1262, %1263 : i32
              %1265 = arith.muli %7, %44 : i32
              %1266 = arith.addi %1264, %1265 : i32
              %1267 = arith.addi %1266, %10 : i32
              %1268 = arith.index_cast %1267 : i32 to index
              %1269 = memref.load %arg11[%1268] : memref<?xf32>
              %1270 = arith.mulf %1269, %cst_7 : f32
              %1271 = arith.mulf %20, %916 : f32
              %1272 = arith.addf %1270, %1271 : f32
              memref.store %1272, %arg11[%1268] : memref<?xf32>
              %1273 = arith.addi %16, %60 : i32
              %1274 = arith.muli %4, %52 : i32
              %1275 = arith.addi %1273, %1274 : i32
              %1276 = arith.muli %7, %44 : i32
              %1277 = arith.addi %1275, %1276 : i32
              %1278 = arith.muli %10, %c2_i32 : i32
              %1279 = arith.addi %1277, %1278 : i32
              %1280 = arith.index_cast %1279 : i32 to index
              %1281 = memref.load %arg11[%1280] : memref<?xf32>
              %1282 = arith.mulf %1281, %cst_7 : f32
              %1283 = arith.mulf %20, %1166 : f32
              %1284 = arith.addf %1282, %1283 : f32
              memref.store %1284, %arg11[%1280] : memref<?xf32>
              %1285 = arith.addi %16, %60 : i32
              %1286 = arith.muli %4, %52 : i32
              %1287 = arith.addi %1285, %1286 : i32
              %1288 = arith.muli %7, %44 : i32
              %1289 = arith.addi %1287, %1288 : i32
              %1290 = arith.muli %10, %c3_i32 : i32
              %1291 = arith.addi %1289, %1290 : i32
              %1292 = arith.index_cast %1291 : i32 to index
              %1293 = memref.load %arg11[%1292] : memref<?xf32>
              %1294 = arith.mulf %1293, %cst_7 : f32
              %1295 = arith.mulf %20, %1261 : f32
              %1296 = arith.addf %1294, %1295 : f32
              memref.store %1296, %arg11[%1292] : memref<?xf32>
            }
          }
          omp.yield
        }
      }
      omp.terminator
    }
    return
  }
  func.func @main() -> i32 attributes {llvm.linkage = #llvm.linkage<external>} {
    %c3 = arith.constant 3 : index
    %c0 = arith.constant 0 : index
    %c1 = arith.constant 1 : index
    %c11 = arith.constant 11 : index
    %c3000 = arith.constant 3000 : index
    %c-1111_i32 = arith.constant -1111 : i32
    %c100_i32 = arith.constant 100 : i32
    %c1000_i32 = arith.constant 1000 : i32
    %c12000_i64 = arith.constant 12000 : i64
    %c1000_i64 = arith.constant 1000 : i64
    %c11_i64 = arith.constant 11 : i64
    %c13_i64 = arith.constant 13 : i64
    %c24_i64 = arith.constant 24 : i64
    %c1536_i64 = arith.constant 1536 : i64
    %c192_i64 = arith.constant 192 : i64
    %c32_i64 = arith.constant 32 : i64
    %cst = arith.constant 0.000000e+00 : f64
    %cst_0 = arith.constant 0.00999999977 : f32
    %cst_1 = arith.constant 3.000000e+00 : f32
    %cst_2 = arith.constant 2.000000e+00 : f32
    %cst_3 = arith.constant 0.0833333358 : f32
    %cst_4 = arith.constant -0.666666686 : f32
    %cst_5 = arith.constant 0.000000e+00 : f32
    %cst_6 = arith.constant 0.666666686 : f32
    %cst_7 = arith.constant -0.0833333358 : f32
    %c0_i32 = arith.constant 0 : i32
    %cst_8 = arith.constant 1.000000e+00 : f32
    %c12_i32 = arith.constant 12 : i32
    %c10_i32 = arith.constant 10 : i32
    %c1_i32 = arith.constant 1 : i32
    %alloc = memref.alloc() : memref<6xi32>
    %cast = memref.cast %alloc : memref<6xi32> to memref<?xi32>
    %0 = polygeist.memref2pointer %alloc : memref<6xi32> to !llvm.ptr
    %1 = polygeist.pointer2memref %0 : !llvm.ptr to memref<?xi8>
    %2 = call @__builtin_object_size(%1, %c0_i32) : (memref<?xi8>, i32) -> i64
    %3 = call @__memset_chk(%0, %c0_i32, %c24_i64, %2) : (!llvm.ptr, i32, i64, i64) -> memref<?xi8>
    %alloc_9 = memref.alloc() : memref<384xf32>
    %cast_10 = memref.cast %alloc_9 : memref<384xf32> to memref<?xf32>
    %4 = polygeist.memref2pointer %alloc_9 : memref<384xf32> to !llvm.ptr
    %5 = polygeist.pointer2memref %4 : !llvm.ptr to memref<?xi8>
    %6 = call @__builtin_object_size(%5, %c0_i32) : (memref<?xi8>, i32) -> i64
    %7 = call @__memset_chk(%4, %c0_i32, %c1536_i64, %6) : (!llvm.ptr, i32, i64, i64) -> memref<?xi8>
    %alloc_11 = memref.alloc() : memref<48xf32>
    %cast_12 = memref.cast %alloc_11 : memref<48xf32> to memref<?xf32>
    %8 = polygeist.memref2pointer %alloc_11 : memref<48xf32> to !llvm.ptr
    %9 = polygeist.pointer2memref %8 : !llvm.ptr to memref<?xi8>
    %10 = call @__builtin_object_size(%9, %c0_i32) : (memref<?xi8>, i32) -> i64
    %11 = call @__memset_chk(%8, %c0_i32, %c192_i64, %10) : (!llvm.ptr, i32, i64, i64) -> memref<?xi8>
    %alloc_13 = memref.alloc() : memref<8xf32>
    %cast_14 = memref.cast %alloc_13 : memref<8xf32> to memref<?xf32>
    %12 = polygeist.memref2pointer %alloc_13 : memref<8xf32> to !llvm.ptr
    %13 = polygeist.pointer2memref %12 : !llvm.ptr to memref<?xi8>
    %14 = call @__builtin_object_size(%13, %c0_i32) : (memref<?xi8>, i32) -> i64
    %15 = call @__memset_chk(%12, %c0_i32, %c32_i64, %14) : (!llvm.ptr, i32, i64, i64) -> memref<?xi8>
    %16 = llvm.mlir.zero : !llvm.ptr
    %17 = polygeist.memref2pointer %alloc_11 : memref<48xf32> to !llvm.ptr
    %18 = llvm.icmp "ne" %17, %16 : !llvm.ptr
    scf.if %18 {
      affine.store %cst_7, %alloc_11[0] : memref<48xf32>
      affine.store %cst_6, %alloc_11[1] : memref<48xf32>
      affine.store %cst_5, %alloc_11[2] : memref<48xf32>
      affine.store %cst_4, %alloc_11[3] : memref<48xf32>
      affine.store %cst_3, %alloc_11[4] : memref<48xf32>
      affine.store %cst_5, %alloc_11[5] : memref<48xf32>
    }
    affine.store %cst_8, %alloc_13[0] : memref<8xf32>
    %alloc_15 = memref.alloc() : memref<1000xf32>
    %cast_16 = memref.cast %alloc_15 : memref<1000xf32> to memref<?xf32>
    call @fill_constant(%cast_16, %c1000_i64, %cst_2) : (memref<?xf32>, i64, f32) -> ()
    %alloc_17 = memref.alloc() : memref<1000xf32>
    %cast_18 = memref.cast %alloc_17 : memref<1000xf32> to memref<?xf32>
    call @fill_constant(%cast_18, %c1000_i64, %cst_1) : (memref<?xf32>, i64, f32) -> ()
    %alloc_19 = memref.alloc() : memref<3000xf32>
    %cast_20 = memref.cast %alloc_19 : memref<3000xf32> to memref<?xf32>
    %19 = polygeist.memref2pointer %alloc_19 : memref<3000xf32> to !llvm.ptr
    %20 = polygeist.pointer2memref %19 : !llvm.ptr to memref<?xi8>
    %21 = call @__builtin_object_size(%20, %c0_i32) : (memref<?xi8>, i32) -> i64
    %22 = call @__memset_chk(%19, %c0_i32, %c12000_i64, %21) : (!llvm.ptr, i32, i64, i64) -> memref<?xi8>
    scf.for %arg0 = %c0 to %c3 step %c1 {
      %31 = arith.index_cast %arg0 : index to i32
      scf.for %arg1 = %c1 to %c11 step %c1 {
        %32 = arith.index_cast %arg1 : index to i32
        scf.for %arg2 = %c1 to %c11 step %c1 {
          %33 = arith.index_cast %arg2 : index to i32
          scf.for %arg3 = %c1 to %c11 step %c1 {
            %34 = arith.index_cast %arg3 : index to i32
            %35 = arith.addi %34, %c-1111_i32 : i32
            %36 = arith.muli %33, %c10_i32 : i32
            %37 = arith.addi %35, %36 : i32
            %38 = arith.muli %32, %c100_i32 : i32
            %39 = arith.addi %37, %38 : i32
            %40 = arith.muli %31, %c1000_i32 : i32
            %41 = arith.addi %39, %40 : i32
            %42 = arith.index_cast %41 : i32 to index
            %43 = arith.addi %31, %c1_i32 : i32
            %44 = arith.sitofp %43 : i32 to f32
            %45 = arith.mulf %44, %cst_0 : f32
            %46 = arith.addi %34, %33 : i32
            %47 = arith.addi %46, %32 : i32
            %48 = arith.sitofp %47 : i32 to f32
            %49 = arith.mulf %45, %48 : f32
            memref.store %49, %alloc_19[%42] : memref<3000xf32>
          }
        }
      }
    }
    %alloc_21 = memref.alloc() : memref<3000xf32>
    %cast_22 = memref.cast %alloc_21 : memref<3000xf32> to memref<?xf32>
    %23 = polygeist.memref2pointer %alloc_21 : memref<3000xf32> to !llvm.ptr
    %24 = polygeist.pointer2memref %23 : !llvm.ptr to memref<?xi8>
    %25 = call @__builtin_object_size(%24, %c0_i32) : (memref<?xi8>, i32) -> i64
    %26 = call @__memset_chk(%23, %c0_i32, %c12000_i64, %25) : (!llvm.ptr, i32, i64, i64) -> memref<?xi8>
    %alloc_23 = memref.alloc() : memref<11xf32>
    %cast_24 = memref.cast %alloc_23 : memref<11xf32> to memref<?xf32>
    %alloc_25 = memref.alloc() : memref<11xf32>
    %cast_26 = memref.cast %alloc_25 : memref<11xf32> to memref<?xf32>
    %alloc_27 = memref.alloc() : memref<13xf32>
    %cast_28 = memref.cast %alloc_27 : memref<13xf32> to memref<?xf32>
    call @fill_constant(%cast_24, %c11_i64, %cst_8) : (memref<?xf32>, i64, f32) -> ()
    call @fill_constant(%cast_26, %c11_i64, %cst_8) : (memref<?xf32>, i64, f32) -> ()
    call @fill_constant(%cast_28, %c13_i64, %cst_8) : (memref<?xf32>, i64, f32) -> ()
    call @rhs4sg_rev(%c1_i32, %c10_i32, %c1_i32, %c10_i32, %c1_i32, %c10_i32, %c12_i32, %cast, %cast_10, %cast_12, %cast_14, %cast_22, %cast_20, %cast_16, %cast_18, %cst_8, %cast_24, %cast_26, %cast_28) : (i32, i32, i32, i32, i32, i32, i32, memref<?xi32>, memref<?xf32>, memref<?xf32>, memref<?xf32>, memref<?xf32>, memref<?xf32>, memref<?xf32>, memref<?xf32>, f32, memref<?xf32>, memref<?xf32>, memref<?xf32>) -> ()
    %27 = scf.for %arg0 = %c0 to %c3000 step %c1 iter_args(%arg1 = %cst) -> (f64) {
      %31 = memref.load %alloc_21[%arg0] : memref<3000xf32>
      %32 = arith.extf %31 : f32 to f64
      %33 = arith.addf %arg1, %32 : f64
      scf.yield %33 : f64
    }
    %28 = llvm.mlir.addressof @str0 : !llvm.ptr
    %29 = llvm.getelementptr %28[0, 0] : (!llvm.ptr) -> !llvm.ptr, !llvm.array<17 x i8>
    %30 = llvm.call @printf(%29, %27) vararg(!llvm.func<i32 (ptr, ...)>) : (!llvm.ptr, f64) -> i32
    memref.dealloc %alloc : memref<6xi32>
    memref.dealloc %alloc_9 : memref<384xf32>
    memref.dealloc %alloc_11 : memref<48xf32>
    memref.dealloc %alloc_13 : memref<8xf32>
    memref.dealloc %alloc_15 : memref<1000xf32>
    memref.dealloc %alloc_17 : memref<1000xf32>
    memref.dealloc %alloc_19 : memref<3000xf32>
    memref.dealloc %alloc_21 : memref<3000xf32>
    memref.dealloc %alloc_23 : memref<11xf32>
    memref.dealloc %alloc_25 : memref<11xf32>
    memref.dealloc %alloc_27 : memref<13xf32>
    return %c0_i32 : i32
  }
  func.func private @__builtin_object_size(memref<?xi8>, i32) -> i64 attributes {llvm.linkage = #llvm.linkage<external>}
  func.func private @__memset_chk(!llvm.ptr, i32, i64, i64) -> memref<?xi8>
  func.func private @fill_constant(%arg0: memref<?xf32>, %arg1: i64, %arg2: f32) attributes {llvm.linkage = #llvm.linkage<internal>} {
    %c0 = arith.constant 0 : index
    %c1 = arith.constant 1 : index
    %0 = arith.index_cast %arg1 : i64 to index
    scf.for %arg3 = %c0 to %0 step %c1 {
      memref.store %arg2, %arg0[%arg3] : memref<?xf32>
    }
    return
  }
}
