module attributes {dlti.dl_spec = #dlti.dl_spec<#dlti.dl_entry<i128, dense<128> : vector<2xi32>>, #dlti.dl_entry<f128, dense<128> : vector<2xi32>>, #dlti.dl_entry<i64, dense<64> : vector<2xi32>>, #dlti.dl_entry<i16, dense<16> : vector<2xi32>>, #dlti.dl_entry<i32, dense<32> : vector<2xi32>>, #dlti.dl_entry<f16, dense<16> : vector<2xi32>>, #dlti.dl_entry<f64, dense<64> : vector<2xi32>>, #dlti.dl_entry<!llvm.ptr, dense<64> : vector<4xi32>>, #dlti.dl_entry<i1, dense<8> : vector<2xi32>>, #dlti.dl_entry<i8, dense<8> : vector<2xi32>>, #dlti.dl_entry<"dlti.stack_alignment", 128 : i32>, #dlti.dl_entry<"dlti.endianness", "little">>, llvm.data_layout = "e-m:o-i64:64-i128:128-n32:64-S128", llvm.target_triple = "arm64-apple-macosx15.0.0", "polygeist.target-cpu" = "apple-m1", "polygeist.target-features" = "+aes,+crc,+dotprod,+fp-armv8,+fp16fml,+fullfp16,+lse,+neon,+ras,+rcpc,+rdm,+sha2,+sha3,+v8.1a,+v8.2a,+v8.3a,+v8.4a,+v8.5a,+v8a,+zcm,+zcz"} {
  llvm.mlir.global internal constant @str0("checksum(lu)=%f\0A\00") {addr_space = 0 : i32}
  llvm.func @printf(!llvm.ptr, ...) -> i32
  func.func @rhs4sg_rev(%arg0: i32, %arg1: i32, %arg2: i32, %arg3: i32, %arg4: i32, %arg5: i32, %arg6: i32, %arg7: memref<?xi32>, %arg8: memref<?xf32>, %arg9: memref<?xf32>, %arg10: memref<?xf32>, %arg11: memref<?xf32>, %arg12: memref<?xf32>, %arg13: memref<?xf32>, %arg14: memref<?xf32>, %arg15: f32, %arg16: memref<?xf32>, %arg17: memref<?xf32>, %arg18: memref<?xf32>) attributes {llvm.linkage = #llvm.linkage<external>} {
    %c0_i32 = arith.constant 0 : i32
    %c5 = arith.constant 5 : index
    %c4 = arith.constant 4 : index
    %c-2_i32 = arith.constant -2 : i32
    %c-6_i32 = arith.constant -6 : i32
    %c-5_i32 = arith.constant -5 : i32
    %c9 = arith.constant 9 : index
    %c-1_i32 = arith.constant -1 : i32
    %cst = arith.constant 0.16666666666666666 : f64
    %cst_0 = arith.constant 0.083333333333333329 : f64
    %cst_1 = arith.constant 0.0069444444444444441 : f64
    %c7 = arith.constant 7 : index
    %c288_i32 = arith.constant 288 : i32
    %c96_i32 = arith.constant 96 : i32
    %c336_i32 = arith.constant 336 : i32
    %c240_i32 = arith.constant 240 : i32
    %c192_i32 = arith.constant 192 : i32
    %c144_i32 = arith.constant 144 : i32
    %c5_i32 = arith.constant 5 : i32
    %c4_i32 = arith.constant 4 : i32
    %c48_i32 = arith.constant 48 : i32
    %c8_i32 = arith.constant 8 : i32
    %cst_2 = arith.constant 8.000000e+00 : f32
    %cst_3 = arith.constant 2.000000e+00 : f32
    %cst_4 = arith.constant 3.000000e+00 : f32
    %c1 = arith.constant 1 : index
    %c6_i32 = arith.constant 6 : i32
    %c7_i32 = arith.constant 7 : i32
    %c2_i32 = arith.constant 2 : i32
    %c3_i32 = arith.constant 3 : i32
    %c1_i32 = arith.constant 1 : i32
    %cst_5 = arith.constant 7.500000e-01 : f32
    %cst_6 = arith.constant 1.000000e+00 : f64
    %cst_7 = arith.constant 0.000000e+00 : f32
    %0 = arith.truncf %cst : f64 to f32
    %1 = arith.truncf %cst_0 : f64 to f32
    %2 = arith.truncf %cst_1 : f64 to f32
    %3 = arith.subi %arg1, %arg0 : i32
    %4 = arith.addi %3, %c1_i32 : i32
    %5 = arith.subi %arg3, %arg2 : i32
    %6 = arith.addi %5, %c1_i32 : i32
    %7 = arith.muli %4, %6 : i32
    %8 = arith.subi %arg5, %arg4 : i32
    %9 = arith.addi %8, %c1_i32 : i32
    %10 = arith.muli %7, %9 : i32
    %11 = arith.muli %4, %arg2 : i32
    %12 = arith.addi %arg0, %11 : i32
    %13 = arith.muli %7, %arg4 : i32
    %14 = arith.addi %12, %13 : i32
    %15 = arith.subi %c0_i32, %14 : i32
    %16 = arith.subi %15, %10 : i32
    %17 = arith.mulf %arg15, %arg15 : f32
    %18 = arith.extf %17 : f32 to f64
    %19 = arith.divf %cst_6, %18 : f64
    %20 = arith.truncf %19 : f64 to f32
    %21 = arith.addi %arg4, %c2_i32 : i32
    %22 = memref.load %arg7[%c4] : memref<?xi32>
    %23 = arith.cmpi eq, %22, %c1_i32 : i32
    %24 = arith.select %23, %c7_i32, %21 : i32
    %25 = arith.addi %arg5, %c-2_i32 : i32
    %26 = memref.load %arg7[%c5] : memref<?xi32>
    %27 = arith.cmpi eq, %26, %c1_i32 : i32
    %28 = scf.if %27 -> (i32) {
      %29 = arith.addi %arg6, %c-6_i32 : i32
      scf.yield %29 : i32
    } else {
      scf.yield %25 : i32
    }
    arts.edt <parallel> <internode> route(%c0_i32) {
      %29 = arith.index_cast %24 : i32 to index
      %30 = arith.subi %28, %24 : i32
      %31 = arith.addi %30, %c1_i32 : i32
      %32 = arith.addi %24, %31 : i32
      %33 = arith.index_cast %32 : i32 to index
      arts.for(%29) to(%33) step(%c1) {{
      ^bb0(%arg19: index):
        %38 = arith.index_cast %arg19 : index to i32
        %39 = arith.addi %arg2, %c2_i32 : i32
        %40 = arith.addi %arg3, %c-1_i32 : i32
        %41 = arith.index_cast %40 : i32 to index
        %42 = arith.index_cast %39 : i32 to index
        scf.for %arg20 = %42 to %41 step %c1 {
          %43 = arith.index_cast %arg20 : index to i32
          %44 = arith.addi %arg0, %c2_i32 : i32
          %45 = arith.addi %arg1, %c-1_i32 : i32
          %46 = arith.index_cast %45 : i32 to index
          %47 = arith.index_cast %44 : i32 to index
          scf.for %arg21 = %47 to %46 step %c1 {
            %48 = arith.index_cast %arg21 : index to i32
            %49 = arith.addi %15, %48 : i32
            %50 = arith.addi %49, %c-1_i32 : i32
            %51 = arith.muli %4, %43 : i32
            %52 = arith.addi %50, %51 : i32
            %53 = arith.muli %7, %38 : i32
            %54 = arith.addi %52, %53 : i32
            %55 = arith.index_cast %54 : i32 to index
            %56 = memref.load %arg13[%55] : memref<?xf32>
            %57 = arith.addi %48, %c-1_i32 : i32
            %58 = arith.subi %57, %arg0 : i32
            %59 = arith.index_cast %58 : i32 to index
            %60 = memref.load %arg16[%59] : memref<?xf32>
            %61 = arith.mulf %56, %60 : f32
            %62 = arith.addi %49, %51 : i32
            %63 = arith.addi %62, %53 : i32
            %64 = arith.index_cast %63 : i32 to index
            %65 = memref.load %arg13[%64] : memref<?xf32>
            %66 = arith.subi %48, %arg0 : i32
            %67 = arith.index_cast %66 : i32 to index
            %68 = memref.load %arg16[%67] : memref<?xf32>
            %69 = arith.mulf %65, %68 : f32
            %70 = arith.addi %49, %c-2_i32 : i32
            %71 = arith.addi %70, %51 : i32
            %72 = arith.addi %71, %53 : i32
            %73 = arith.index_cast %72 : i32 to index
            %74 = memref.load %arg13[%73] : memref<?xf32>
            %75 = arith.addi %48, %c-2_i32 : i32
            %76 = arith.subi %75, %arg0 : i32
            %77 = arith.index_cast %76 : i32 to index
            %78 = memref.load %arg16[%77] : memref<?xf32>
            %79 = arith.mulf %74, %78 : f32
            %80 = arith.addf %69, %79 : f32
            %81 = arith.mulf %80, %cst_5 : f32
            %82 = arith.subf %61, %81 : f32
            %83 = arith.addi %49, %c1_i32 : i32
            %84 = arith.addi %83, %51 : i32
            %85 = arith.addi %84, %53 : i32
            %86 = arith.index_cast %85 : i32 to index
            %87 = memref.load %arg13[%86] : memref<?xf32>
            %88 = arith.addi %48, %c1_i32 : i32
            %89 = arith.subi %88, %arg0 : i32
            %90 = arith.index_cast %89 : i32 to index
            %91 = memref.load %arg16[%90] : memref<?xf32>
            %92 = arith.mulf %87, %91 : f32
            %93 = arith.addf %79, %92 : f32
            %94 = arith.addf %69, %61 : f32
            %95 = arith.mulf %94, %cst_4 : f32
            %96 = arith.addf %93, %95 : f32
            %97 = arith.addi %49, %c2_i32 : i32
            %98 = arith.addi %97, %51 : i32
            %99 = arith.addi %98, %53 : i32
            %100 = arith.index_cast %99 : i32 to index
            %101 = memref.load %arg13[%100] : memref<?xf32>
            %102 = arith.addi %48, %c2_i32 : i32
            %103 = arith.subi %102, %arg0 : i32
            %104 = arith.index_cast %103 : i32 to index
            %105 = memref.load %arg16[%104] : memref<?xf32>
            %106 = arith.mulf %101, %105 : f32
            %107 = arith.addf %61, %106 : f32
            %108 = arith.addf %92, %69 : f32
            %109 = arith.mulf %108, %cst_4 : f32
            %110 = arith.addf %107, %109 : f32
            %111 = arith.addf %69, %106 : f32
            %112 = arith.mulf %111, %cst_5 : f32
            %113 = arith.subf %92, %112 : f32
            %114 = arith.addi %43, %c-1_i32 : i32
            %115 = arith.muli %4, %114 : i32
            %116 = arith.addi %49, %115 : i32
            %117 = arith.addi %116, %53 : i32
            %118 = arith.index_cast %117 : i32 to index
            %119 = memref.load %arg13[%118] : memref<?xf32>
            %120 = arith.subi %114, %arg2 : i32
            %121 = arith.index_cast %120 : i32 to index
            %122 = memref.load %arg17[%121] : memref<?xf32>
            %123 = arith.mulf %119, %122 : f32
            %124 = arith.subi %43, %arg2 : i32
            %125 = arith.index_cast %124 : i32 to index
            %126 = memref.load %arg17[%125] : memref<?xf32>
            %127 = arith.mulf %65, %126 : f32
            %128 = arith.addi %43, %c-2_i32 : i32
            %129 = arith.muli %4, %128 : i32
            %130 = arith.addi %49, %129 : i32
            %131 = arith.addi %130, %53 : i32
            %132 = arith.index_cast %131 : i32 to index
            %133 = memref.load %arg13[%132] : memref<?xf32>
            %134 = arith.subi %128, %arg2 : i32
            %135 = arith.index_cast %134 : i32 to index
            %136 = memref.load %arg17[%135] : memref<?xf32>
            %137 = arith.mulf %133, %136 : f32
            %138 = arith.addf %127, %137 : f32
            %139 = arith.mulf %138, %cst_5 : f32
            %140 = arith.subf %123, %139 : f32
            %141 = arith.addi %43, %c1_i32 : i32
            %142 = arith.muli %4, %141 : i32
            %143 = arith.addi %49, %142 : i32
            %144 = arith.addi %143, %53 : i32
            %145 = arith.index_cast %144 : i32 to index
            %146 = memref.load %arg13[%145] : memref<?xf32>
            %147 = arith.subi %141, %arg2 : i32
            %148 = arith.index_cast %147 : i32 to index
            %149 = memref.load %arg17[%148] : memref<?xf32>
            %150 = arith.mulf %146, %149 : f32
            %151 = arith.addf %137, %150 : f32
            %152 = arith.addf %127, %123 : f32
            %153 = arith.mulf %152, %cst_4 : f32
            %154 = arith.addf %151, %153 : f32
            %155 = arith.addi %43, %c2_i32 : i32
            %156 = arith.muli %4, %155 : i32
            %157 = arith.addi %49, %156 : i32
            %158 = arith.addi %157, %53 : i32
            %159 = arith.index_cast %158 : i32 to index
            %160 = memref.load %arg13[%159] : memref<?xf32>
            %161 = arith.subi %155, %arg2 : i32
            %162 = arith.index_cast %161 : i32 to index
            %163 = memref.load %arg17[%162] : memref<?xf32>
            %164 = arith.mulf %160, %163 : f32
            %165 = arith.addf %123, %164 : f32
            %166 = arith.addf %150, %127 : f32
            %167 = arith.mulf %166, %cst_4 : f32
            %168 = arith.addf %165, %167 : f32
            %169 = arith.addf %127, %164 : f32
            %170 = arith.mulf %169, %cst_5 : f32
            %171 = arith.subf %150, %170 : f32
            %172 = arith.addi %38, %c-1_i32 : i32
            %173 = arith.muli %7, %172 : i32
            %174 = arith.addi %62, %173 : i32
            %175 = arith.index_cast %174 : i32 to index
            %176 = memref.load %arg13[%175] : memref<?xf32>
            %177 = arith.subi %172, %arg4 : i32
            %178 = arith.index_cast %177 : i32 to index
            %179 = memref.load %arg18[%178] : memref<?xf32>
            %180 = arith.mulf %176, %179 : f32
            %181 = arith.subi %38, %arg4 : i32
            %182 = arith.index_cast %181 : i32 to index
            %183 = memref.load %arg18[%182] : memref<?xf32>
            %184 = arith.mulf %65, %183 : f32
            %185 = arith.addi %38, %c-2_i32 : i32
            %186 = arith.muli %7, %185 : i32
            %187 = arith.addi %62, %186 : i32
            %188 = arith.index_cast %187 : i32 to index
            %189 = memref.load %arg13[%188] : memref<?xf32>
            %190 = arith.subi %185, %arg4 : i32
            %191 = arith.index_cast %190 : i32 to index
            %192 = memref.load %arg18[%191] : memref<?xf32>
            %193 = arith.mulf %189, %192 : f32
            %194 = arith.addf %184, %193 : f32
            %195 = arith.mulf %194, %cst_5 : f32
            %196 = arith.subf %180, %195 : f32
            %197 = arith.addi %38, %c1_i32 : i32
            %198 = arith.muli %7, %197 : i32
            %199 = arith.addi %62, %198 : i32
            %200 = arith.index_cast %199 : i32 to index
            %201 = memref.load %arg13[%200] : memref<?xf32>
            %202 = arith.subi %197, %arg4 : i32
            %203 = arith.index_cast %202 : i32 to index
            %204 = memref.load %arg18[%203] : memref<?xf32>
            %205 = arith.mulf %201, %204 : f32
            %206 = arith.addf %193, %205 : f32
            %207 = arith.addf %184, %180 : f32
            %208 = arith.mulf %207, %cst_4 : f32
            %209 = arith.addf %206, %208 : f32
            %210 = arith.addi %38, %c2_i32 : i32
            %211 = arith.muli %7, %210 : i32
            %212 = arith.addi %62, %211 : i32
            %213 = arith.index_cast %212 : i32 to index
            %214 = memref.load %arg13[%213] : memref<?xf32>
            %215 = arith.subi %210, %arg4 : i32
            %216 = arith.index_cast %215 : i32 to index
            %217 = memref.load %arg18[%216] : memref<?xf32>
            %218 = arith.mulf %214, %217 : f32
            %219 = arith.addf %180, %218 : f32
            %220 = arith.addf %205, %184 : f32
            %221 = arith.mulf %220, %cst_4 : f32
            %222 = arith.addf %219, %221 : f32
            %223 = arith.addf %184, %218 : f32
            %224 = arith.mulf %223, %cst_5 : f32
            %225 = arith.subf %205, %224 : f32
            %226 = arith.addi %16, %48 : i32
            %227 = arith.addi %226, %51 : i32
            %228 = arith.addi %227, %53 : i32
            %229 = arith.addi %228, %10 : i32
            %230 = arith.index_cast %229 : i32 to index
            %231 = arith.mulf %82, %cst_3 : f32
            %232 = memref.load %arg14[%55] : memref<?xf32>
            %233 = arith.mulf %232, %60 : f32
            %234 = arith.addf %231, %233 : f32
            %235 = memref.load %arg14[%64] : memref<?xf32>
            %236 = arith.mulf %235, %68 : f32
            %237 = memref.load %arg14[%73] : memref<?xf32>
            %238 = arith.mulf %237, %78 : f32
            %239 = arith.addf %236, %238 : f32
            %240 = arith.mulf %239, %cst_5 : f32
            %241 = arith.subf %234, %240 : f32
            %242 = arith.addi %226, %c-2_i32 : i32
            %243 = arith.addi %242, %51 : i32
            %244 = arith.addi %243, %53 : i32
            %245 = arith.addi %244, %10 : i32
            %246 = arith.index_cast %245 : i32 to index
            %247 = memref.load %arg12[%246] : memref<?xf32>
            %248 = memref.load %arg12[%230] : memref<?xf32>
            %249 = arith.subf %247, %248 : f32
            %250 = arith.mulf %241, %249 : f32
            %251 = arith.mulf %96, %cst_3 : f32
            %252 = arith.addf %251, %238 : f32
            %253 = memref.load %arg14[%86] : memref<?xf32>
            %254 = arith.mulf %253, %91 : f32
            %255 = arith.addf %252, %254 : f32
            %256 = arith.addf %236, %233 : f32
            %257 = arith.mulf %256, %cst_4 : f32
            %258 = arith.addf %255, %257 : f32
            %259 = arith.addi %226, %c-1_i32 : i32
            %260 = arith.addi %259, %51 : i32
            %261 = arith.addi %260, %53 : i32
            %262 = arith.addi %261, %10 : i32
            %263 = arith.index_cast %262 : i32 to index
            %264 = memref.load %arg12[%263] : memref<?xf32>
            %265 = arith.subf %264, %248 : f32
            %266 = arith.mulf %258, %265 : f32
            %267 = arith.addf %250, %266 : f32
            %268 = arith.mulf %110, %cst_3 : f32
            %269 = arith.addf %268, %233 : f32
            %270 = memref.load %arg14[%100] : memref<?xf32>
            %271 = arith.mulf %270, %105 : f32
            %272 = arith.addf %269, %271 : f32
            %273 = arith.addf %254, %236 : f32
            %274 = arith.mulf %273, %cst_4 : f32
            %275 = arith.addf %272, %274 : f32
            %276 = arith.addi %226, %c1_i32 : i32
            %277 = arith.addi %276, %51 : i32
            %278 = arith.addi %277, %53 : i32
            %279 = arith.addi %278, %10 : i32
            %280 = arith.index_cast %279 : i32 to index
            %281 = memref.load %arg12[%280] : memref<?xf32>
            %282 = arith.subf %281, %248 : f32
            %283 = arith.mulf %275, %282 : f32
            %284 = arith.addf %267, %283 : f32
            %285 = arith.mulf %113, %cst_3 : f32
            %286 = arith.addf %285, %254 : f32
            %287 = arith.addf %236, %271 : f32
            %288 = arith.mulf %287, %cst_5 : f32
            %289 = arith.subf %286, %288 : f32
            %290 = arith.addi %226, %c2_i32 : i32
            %291 = arith.addi %290, %51 : i32
            %292 = arith.addi %291, %53 : i32
            %293 = arith.addi %292, %10 : i32
            %294 = arith.index_cast %293 : i32 to index
            %295 = memref.load %arg12[%294] : memref<?xf32>
            %296 = arith.subf %295, %248 : f32
            %297 = arith.mulf %289, %296 : f32
            %298 = arith.addf %284, %297 : f32
            %299 = arith.mulf %68, %298 : f32
            %300 = arith.addi %226, %129 : i32
            %301 = arith.addi %300, %53 : i32
            %302 = arith.addi %301, %10 : i32
            %303 = arith.index_cast %302 : i32 to index
            %304 = memref.load %arg12[%303] : memref<?xf32>
            %305 = arith.subf %304, %248 : f32
            %306 = arith.mulf %140, %305 : f32
            %307 = arith.addi %226, %115 : i32
            %308 = arith.addi %307, %53 : i32
            %309 = arith.addi %308, %10 : i32
            %310 = arith.index_cast %309 : i32 to index
            %311 = memref.load %arg12[%310] : memref<?xf32>
            %312 = arith.subf %311, %248 : f32
            %313 = arith.mulf %154, %312 : f32
            %314 = arith.addf %306, %313 : f32
            %315 = arith.addi %226, %142 : i32
            %316 = arith.addi %315, %53 : i32
            %317 = arith.addi %316, %10 : i32
            %318 = arith.index_cast %317 : i32 to index
            %319 = memref.load %arg12[%318] : memref<?xf32>
            %320 = arith.subf %319, %248 : f32
            %321 = arith.mulf %168, %320 : f32
            %322 = arith.addf %314, %321 : f32
            %323 = arith.addi %226, %156 : i32
            %324 = arith.addi %323, %53 : i32
            %325 = arith.addi %324, %10 : i32
            %326 = arith.index_cast %325 : i32 to index
            %327 = memref.load %arg12[%326] : memref<?xf32>
            %328 = arith.subf %327, %248 : f32
            %329 = arith.mulf %171, %328 : f32
            %330 = arith.addf %322, %329 : f32
            %331 = arith.mulf %126, %330 : f32
            %332 = arith.addf %299, %331 : f32
            %333 = arith.addi %227, %186 : i32
            %334 = arith.addi %333, %10 : i32
            %335 = arith.index_cast %334 : i32 to index
            %336 = memref.load %arg12[%335] : memref<?xf32>
            %337 = arith.subf %336, %248 : f32
            %338 = arith.mulf %196, %337 : f32
            %339 = arith.addi %227, %173 : i32
            %340 = arith.addi %339, %10 : i32
            %341 = arith.index_cast %340 : i32 to index
            %342 = memref.load %arg12[%341] : memref<?xf32>
            %343 = arith.subf %342, %248 : f32
            %344 = arith.mulf %209, %343 : f32
            %345 = arith.addf %338, %344 : f32
            %346 = arith.addi %227, %198 : i32
            %347 = arith.addi %346, %10 : i32
            %348 = arith.index_cast %347 : i32 to index
            %349 = memref.load %arg12[%348] : memref<?xf32>
            %350 = arith.subf %349, %248 : f32
            %351 = arith.mulf %222, %350 : f32
            %352 = arith.addf %345, %351 : f32
            %353 = arith.addi %227, %211 : i32
            %354 = arith.addi %353, %10 : i32
            %355 = arith.index_cast %354 : i32 to index
            %356 = memref.load %arg12[%355] : memref<?xf32>
            %357 = arith.subf %356, %248 : f32
            %358 = arith.mulf %225, %357 : f32
            %359 = arith.addf %352, %358 : f32
            %360 = arith.mulf %183, %359 : f32
            %361 = arith.addf %332, %360 : f32
            %362 = arith.mulf %0, %361 : f32
            memref.store %362, %arg11[%230] : memref<?xf32>
            %363 = arith.muli %10, %c2_i32 : i32
            %364 = arith.addi %228, %363 : i32
            %365 = arith.index_cast %364 : i32 to index
            %366 = memref.load %arg16[%67] : memref<?xf32>
            %367 = arith.addi %244, %363 : i32
            %368 = arith.index_cast %367 : i32 to index
            %369 = memref.load %arg12[%368] : memref<?xf32>
            %370 = memref.load %arg12[%365] : memref<?xf32>
            %371 = arith.subf %369, %370 : f32
            %372 = arith.mulf %82, %371 : f32
            %373 = arith.addi %261, %363 : i32
            %374 = arith.index_cast %373 : i32 to index
            %375 = memref.load %arg12[%374] : memref<?xf32>
            %376 = arith.subf %375, %370 : f32
            %377 = arith.mulf %96, %376 : f32
            %378 = arith.addf %372, %377 : f32
            %379 = arith.addi %278, %363 : i32
            %380 = arith.index_cast %379 : i32 to index
            %381 = memref.load %arg12[%380] : memref<?xf32>
            %382 = arith.subf %381, %370 : f32
            %383 = arith.mulf %110, %382 : f32
            %384 = arith.addf %378, %383 : f32
            %385 = arith.addi %292, %363 : i32
            %386 = arith.index_cast %385 : i32 to index
            %387 = memref.load %arg12[%386] : memref<?xf32>
            %388 = arith.subf %387, %370 : f32
            %389 = arith.mulf %113, %388 : f32
            %390 = arith.addf %384, %389 : f32
            %391 = arith.mulf %366, %390 : f32
            %392 = memref.load %arg17[%125] : memref<?xf32>
            %393 = arith.mulf %140, %cst_3 : f32
            %394 = memref.load %arg14[%118] : memref<?xf32>
            %395 = memref.load %arg17[%121] : memref<?xf32>
            %396 = arith.mulf %394, %395 : f32
            %397 = arith.addf %393, %396 : f32
            %398 = memref.load %arg14[%64] : memref<?xf32>
            %399 = arith.mulf %398, %392 : f32
            %400 = memref.load %arg14[%132] : memref<?xf32>
            %401 = memref.load %arg17[%135] : memref<?xf32>
            %402 = arith.mulf %400, %401 : f32
            %403 = arith.addf %399, %402 : f32
            %404 = arith.mulf %403, %cst_5 : f32
            %405 = arith.subf %397, %404 : f32
            %406 = arith.addi %301, %363 : i32
            %407 = arith.index_cast %406 : i32 to index
            %408 = memref.load %arg12[%407] : memref<?xf32>
            %409 = arith.subf %408, %370 : f32
            %410 = arith.mulf %405, %409 : f32
            %411 = arith.mulf %154, %cst_3 : f32
            %412 = arith.addf %411, %402 : f32
            %413 = memref.load %arg14[%145] : memref<?xf32>
            %414 = memref.load %arg17[%148] : memref<?xf32>
            %415 = arith.mulf %413, %414 : f32
            %416 = arith.addf %412, %415 : f32
            %417 = arith.addf %399, %396 : f32
            %418 = arith.mulf %417, %cst_4 : f32
            %419 = arith.addf %416, %418 : f32
            %420 = arith.addi %308, %363 : i32
            %421 = arith.index_cast %420 : i32 to index
            %422 = memref.load %arg12[%421] : memref<?xf32>
            %423 = arith.subf %422, %370 : f32
            %424 = arith.mulf %419, %423 : f32
            %425 = arith.addf %410, %424 : f32
            %426 = arith.mulf %168, %cst_3 : f32
            %427 = arith.addf %426, %396 : f32
            %428 = memref.load %arg14[%159] : memref<?xf32>
            %429 = memref.load %arg17[%162] : memref<?xf32>
            %430 = arith.mulf %428, %429 : f32
            %431 = arith.addf %427, %430 : f32
            %432 = arith.addf %415, %399 : f32
            %433 = arith.mulf %432, %cst_4 : f32
            %434 = arith.addf %431, %433 : f32
            %435 = arith.addi %316, %363 : i32
            %436 = arith.index_cast %435 : i32 to index
            %437 = memref.load %arg12[%436] : memref<?xf32>
            %438 = arith.subf %437, %370 : f32
            %439 = arith.mulf %434, %438 : f32
            %440 = arith.addf %425, %439 : f32
            %441 = arith.mulf %171, %cst_3 : f32
            %442 = arith.addf %441, %415 : f32
            %443 = arith.addf %399, %430 : f32
            %444 = arith.mulf %443, %cst_5 : f32
            %445 = arith.subf %442, %444 : f32
            %446 = arith.addi %324, %363 : i32
            %447 = arith.index_cast %446 : i32 to index
            %448 = memref.load %arg12[%447] : memref<?xf32>
            %449 = arith.subf %448, %370 : f32
            %450 = arith.mulf %445, %449 : f32
            %451 = arith.addf %440, %450 : f32
            %452 = arith.mulf %392, %451 : f32
            %453 = arith.addf %391, %452 : f32
            %454 = memref.load %arg18[%182] : memref<?xf32>
            %455 = arith.addi %333, %363 : i32
            %456 = arith.index_cast %455 : i32 to index
            %457 = memref.load %arg12[%456] : memref<?xf32>
            %458 = arith.subf %457, %370 : f32
            %459 = arith.mulf %196, %458 : f32
            %460 = arith.addi %339, %363 : i32
            %461 = arith.index_cast %460 : i32 to index
            %462 = memref.load %arg12[%461] : memref<?xf32>
            %463 = arith.subf %462, %370 : f32
            %464 = arith.mulf %209, %463 : f32
            %465 = arith.addf %459, %464 : f32
            %466 = arith.addi %346, %363 : i32
            %467 = arith.index_cast %466 : i32 to index
            %468 = memref.load %arg12[%467] : memref<?xf32>
            %469 = arith.subf %468, %370 : f32
            %470 = arith.mulf %222, %469 : f32
            %471 = arith.addf %465, %470 : f32
            %472 = arith.addi %353, %363 : i32
            %473 = arith.index_cast %472 : i32 to index
            %474 = memref.load %arg12[%473] : memref<?xf32>
            %475 = arith.subf %474, %370 : f32
            %476 = arith.mulf %225, %475 : f32
            %477 = arith.addf %471, %476 : f32
            %478 = arith.mulf %454, %477 : f32
            %479 = arith.addf %453, %478 : f32
            %480 = arith.mulf %0, %479 : f32
            memref.store %480, %arg11[%365] : memref<?xf32>
            %481 = arith.muli %10, %c3_i32 : i32
            %482 = arith.addi %228, %481 : i32
            %483 = arith.index_cast %482 : i32 to index
            %484 = memref.load %arg16[%67] : memref<?xf32>
            %485 = arith.addi %244, %481 : i32
            %486 = arith.index_cast %485 : i32 to index
            %487 = memref.load %arg12[%486] : memref<?xf32>
            %488 = memref.load %arg12[%483] : memref<?xf32>
            %489 = arith.subf %487, %488 : f32
            %490 = arith.mulf %82, %489 : f32
            %491 = arith.addi %261, %481 : i32
            %492 = arith.index_cast %491 : i32 to index
            %493 = memref.load %arg12[%492] : memref<?xf32>
            %494 = arith.subf %493, %488 : f32
            %495 = arith.mulf %96, %494 : f32
            %496 = arith.addf %490, %495 : f32
            %497 = arith.addi %278, %481 : i32
            %498 = arith.index_cast %497 : i32 to index
            %499 = memref.load %arg12[%498] : memref<?xf32>
            %500 = arith.subf %499, %488 : f32
            %501 = arith.mulf %110, %500 : f32
            %502 = arith.addf %496, %501 : f32
            %503 = arith.addi %292, %481 : i32
            %504 = arith.index_cast %503 : i32 to index
            %505 = memref.load %arg12[%504] : memref<?xf32>
            %506 = arith.subf %505, %488 : f32
            %507 = arith.mulf %113, %506 : f32
            %508 = arith.addf %502, %507 : f32
            %509 = arith.mulf %484, %508 : f32
            %510 = memref.load %arg17[%125] : memref<?xf32>
            %511 = arith.addi %301, %481 : i32
            %512 = arith.index_cast %511 : i32 to index
            %513 = memref.load %arg12[%512] : memref<?xf32>
            %514 = arith.subf %513, %488 : f32
            %515 = arith.mulf %140, %514 : f32
            %516 = arith.addi %308, %481 : i32
            %517 = arith.index_cast %516 : i32 to index
            %518 = memref.load %arg12[%517] : memref<?xf32>
            %519 = arith.subf %518, %488 : f32
            %520 = arith.mulf %154, %519 : f32
            %521 = arith.addf %515, %520 : f32
            %522 = arith.addi %316, %481 : i32
            %523 = arith.index_cast %522 : i32 to index
            %524 = memref.load %arg12[%523] : memref<?xf32>
            %525 = arith.subf %524, %488 : f32
            %526 = arith.mulf %168, %525 : f32
            %527 = arith.addf %521, %526 : f32
            %528 = arith.addi %324, %481 : i32
            %529 = arith.index_cast %528 : i32 to index
            %530 = memref.load %arg12[%529] : memref<?xf32>
            %531 = arith.subf %530, %488 : f32
            %532 = arith.mulf %171, %531 : f32
            %533 = arith.addf %527, %532 : f32
            %534 = arith.mulf %510, %533 : f32
            %535 = arith.addf %509, %534 : f32
            %536 = memref.load %arg18[%182] : memref<?xf32>
            %537 = arith.mulf %196, %cst_3 : f32
            %538 = memref.load %arg14[%175] : memref<?xf32>
            %539 = memref.load %arg18[%178] : memref<?xf32>
            %540 = arith.mulf %538, %539 : f32
            %541 = arith.addf %537, %540 : f32
            %542 = memref.load %arg14[%64] : memref<?xf32>
            %543 = arith.mulf %542, %536 : f32
            %544 = memref.load %arg14[%188] : memref<?xf32>
            %545 = memref.load %arg18[%191] : memref<?xf32>
            %546 = arith.mulf %544, %545 : f32
            %547 = arith.addf %543, %546 : f32
            %548 = arith.mulf %547, %cst_5 : f32
            %549 = arith.subf %541, %548 : f32
            %550 = arith.addi %333, %481 : i32
            %551 = arith.index_cast %550 : i32 to index
            %552 = memref.load %arg12[%551] : memref<?xf32>
            %553 = arith.subf %552, %488 : f32
            %554 = arith.mulf %549, %553 : f32
            %555 = arith.mulf %209, %cst_3 : f32
            %556 = arith.addf %555, %546 : f32
            %557 = memref.load %arg14[%200] : memref<?xf32>
            %558 = memref.load %arg18[%203] : memref<?xf32>
            %559 = arith.mulf %557, %558 : f32
            %560 = arith.addf %556, %559 : f32
            %561 = arith.addf %543, %540 : f32
            %562 = arith.mulf %561, %cst_4 : f32
            %563 = arith.addf %560, %562 : f32
            %564 = arith.addi %339, %481 : i32
            %565 = arith.index_cast %564 : i32 to index
            %566 = memref.load %arg12[%565] : memref<?xf32>
            %567 = arith.subf %566, %488 : f32
            %568 = arith.mulf %563, %567 : f32
            %569 = arith.addf %554, %568 : f32
            %570 = arith.mulf %222, %cst_3 : f32
            %571 = arith.addf %570, %540 : f32
            %572 = memref.load %arg14[%213] : memref<?xf32>
            %573 = memref.load %arg18[%216] : memref<?xf32>
            %574 = arith.mulf %572, %573 : f32
            %575 = arith.addf %571, %574 : f32
            %576 = arith.addf %559, %543 : f32
            %577 = arith.mulf %576, %cst_4 : f32
            %578 = arith.addf %575, %577 : f32
            %579 = arith.addi %346, %481 : i32
            %580 = arith.index_cast %579 : i32 to index
            %581 = memref.load %arg12[%580] : memref<?xf32>
            %582 = arith.subf %581, %488 : f32
            %583 = arith.mulf %578, %582 : f32
            %584 = arith.addf %569, %583 : f32
            %585 = arith.mulf %225, %cst_3 : f32
            %586 = arith.addf %585, %559 : f32
            %587 = arith.addf %543, %574 : f32
            %588 = arith.mulf %587, %cst_5 : f32
            %589 = arith.subf %586, %588 : f32
            %590 = arith.addi %353, %481 : i32
            %591 = arith.index_cast %590 : i32 to index
            %592 = memref.load %arg12[%591] : memref<?xf32>
            %593 = arith.subf %592, %488 : f32
            %594 = arith.mulf %589, %593 : f32
            %595 = arith.addf %584, %594 : f32
            %596 = arith.mulf %536, %595 : f32
            %597 = arith.addf %535, %596 : f32
            %598 = arith.mulf %0, %597 : f32
            memref.store %598, %arg11[%483] : memref<?xf32>
            %599 = memref.load %arg11[%230] : memref<?xf32>
            %600 = memref.load %arg16[%67] : memref<?xf32>
            %601 = memref.load %arg17[%125] : memref<?xf32>
            %602 = arith.mulf %600, %601 : f32
            %603 = arith.mulf %602, %2 : f32
            %604 = memref.load %arg14[%73] : memref<?xf32>
            %605 = arith.addi %242, %129 : i32
            %606 = arith.addi %605, %53 : i32
            %607 = arith.addi %606, %363 : i32
            %608 = arith.index_cast %607 : i32 to index
            %609 = memref.load %arg12[%608] : memref<?xf32>
            %610 = arith.addi %242, %156 : i32
            %611 = arith.addi %610, %53 : i32
            %612 = arith.addi %611, %363 : i32
            %613 = arith.index_cast %612 : i32 to index
            %614 = memref.load %arg12[%613] : memref<?xf32>
            %615 = arith.subf %609, %614 : f32
            %616 = arith.addi %242, %115 : i32
            %617 = arith.addi %616, %53 : i32
            %618 = arith.addi %617, %363 : i32
            %619 = arith.index_cast %618 : i32 to index
            %620 = memref.load %arg12[%619] : memref<?xf32>
            %621 = arith.negf %620 : f32
            %622 = arith.addi %242, %142 : i32
            %623 = arith.addi %622, %53 : i32
            %624 = arith.addi %623, %363 : i32
            %625 = arith.index_cast %624 : i32 to index
            %626 = memref.load %arg12[%625] : memref<?xf32>
            %627 = arith.addf %621, %626 : f32
            %628 = arith.mulf %627, %cst_2 : f32
            %629 = arith.addf %615, %628 : f32
            %630 = arith.mulf %604, %629 : f32
            %631 = memref.load %arg14[%55] : memref<?xf32>
            %632 = arith.addi %259, %129 : i32
            %633 = arith.addi %632, %53 : i32
            %634 = arith.addi %633, %363 : i32
            %635 = arith.index_cast %634 : i32 to index
            %636 = memref.load %arg12[%635] : memref<?xf32>
            %637 = arith.addi %259, %156 : i32
            %638 = arith.addi %637, %53 : i32
            %639 = arith.addi %638, %363 : i32
            %640 = arith.index_cast %639 : i32 to index
            %641 = memref.load %arg12[%640] : memref<?xf32>
            %642 = arith.subf %636, %641 : f32
            %643 = arith.addi %259, %115 : i32
            %644 = arith.addi %643, %53 : i32
            %645 = arith.addi %644, %363 : i32
            %646 = arith.index_cast %645 : i32 to index
            %647 = memref.load %arg12[%646] : memref<?xf32>
            %648 = arith.negf %647 : f32
            %649 = arith.addi %259, %142 : i32
            %650 = arith.addi %649, %53 : i32
            %651 = arith.addi %650, %363 : i32
            %652 = arith.index_cast %651 : i32 to index
            %653 = memref.load %arg12[%652] : memref<?xf32>
            %654 = arith.addf %648, %653 : f32
            %655 = arith.mulf %654, %cst_2 : f32
            %656 = arith.addf %642, %655 : f32
            %657 = arith.mulf %631, %656 : f32
            %658 = arith.mulf %657, %cst_2 : f32
            %659 = arith.subf %630, %658 : f32
            %660 = memref.load %arg14[%86] : memref<?xf32>
            %661 = arith.addi %276, %129 : i32
            %662 = arith.addi %661, %53 : i32
            %663 = arith.addi %662, %363 : i32
            %664 = arith.index_cast %663 : i32 to index
            %665 = memref.load %arg12[%664] : memref<?xf32>
            %666 = arith.addi %276, %156 : i32
            %667 = arith.addi %666, %53 : i32
            %668 = arith.addi %667, %363 : i32
            %669 = arith.index_cast %668 : i32 to index
            %670 = memref.load %arg12[%669] : memref<?xf32>
            %671 = arith.subf %665, %670 : f32
            %672 = arith.addi %276, %115 : i32
            %673 = arith.addi %672, %53 : i32
            %674 = arith.addi %673, %363 : i32
            %675 = arith.index_cast %674 : i32 to index
            %676 = memref.load %arg12[%675] : memref<?xf32>
            %677 = arith.negf %676 : f32
            %678 = arith.addi %276, %142 : i32
            %679 = arith.addi %678, %53 : i32
            %680 = arith.addi %679, %363 : i32
            %681 = arith.index_cast %680 : i32 to index
            %682 = memref.load %arg12[%681] : memref<?xf32>
            %683 = arith.addf %677, %682 : f32
            %684 = arith.mulf %683, %cst_2 : f32
            %685 = arith.addf %671, %684 : f32
            %686 = arith.mulf %660, %685 : f32
            %687 = arith.mulf %686, %cst_2 : f32
            %688 = arith.addf %659, %687 : f32
            %689 = memref.load %arg14[%100] : memref<?xf32>
            %690 = arith.addi %290, %129 : i32
            %691 = arith.addi %690, %53 : i32
            %692 = arith.addi %691, %363 : i32
            %693 = arith.index_cast %692 : i32 to index
            %694 = memref.load %arg12[%693] : memref<?xf32>
            %695 = arith.addi %290, %156 : i32
            %696 = arith.addi %695, %53 : i32
            %697 = arith.addi %696, %363 : i32
            %698 = arith.index_cast %697 : i32 to index
            %699 = memref.load %arg12[%698] : memref<?xf32>
            %700 = arith.subf %694, %699 : f32
            %701 = arith.addi %290, %115 : i32
            %702 = arith.addi %701, %53 : i32
            %703 = arith.addi %702, %363 : i32
            %704 = arith.index_cast %703 : i32 to index
            %705 = memref.load %arg12[%704] : memref<?xf32>
            %706 = arith.negf %705 : f32
            %707 = arith.addi %290, %142 : i32
            %708 = arith.addi %707, %53 : i32
            %709 = arith.addi %708, %363 : i32
            %710 = arith.index_cast %709 : i32 to index
            %711 = memref.load %arg12[%710] : memref<?xf32>
            %712 = arith.addf %706, %711 : f32
            %713 = arith.mulf %712, %cst_2 : f32
            %714 = arith.addf %700, %713 : f32
            %715 = arith.mulf %689, %714 : f32
            %716 = arith.subf %688, %715 : f32
            %717 = arith.mulf %603, %716 : f32
            %718 = arith.addf %599, %717 : f32
            %719 = memref.load %arg18[%182] : memref<?xf32>
            %720 = arith.mulf %600, %719 : f32
            %721 = arith.mulf %720, %2 : f32
            %722 = arith.addi %243, %186 : i32
            %723 = arith.addi %722, %481 : i32
            %724 = arith.index_cast %723 : i32 to index
            %725 = memref.load %arg12[%724] : memref<?xf32>
            %726 = arith.addi %243, %211 : i32
            %727 = arith.addi %726, %481 : i32
            %728 = arith.index_cast %727 : i32 to index
            %729 = memref.load %arg12[%728] : memref<?xf32>
            %730 = arith.subf %725, %729 : f32
            %731 = arith.addi %243, %173 : i32
            %732 = arith.addi %731, %481 : i32
            %733 = arith.index_cast %732 : i32 to index
            %734 = memref.load %arg12[%733] : memref<?xf32>
            %735 = arith.negf %734 : f32
            %736 = arith.addi %243, %198 : i32
            %737 = arith.addi %736, %481 : i32
            %738 = arith.index_cast %737 : i32 to index
            %739 = memref.load %arg12[%738] : memref<?xf32>
            %740 = arith.addf %735, %739 : f32
            %741 = arith.mulf %740, %cst_2 : f32
            %742 = arith.addf %730, %741 : f32
            %743 = arith.mulf %604, %742 : f32
            %744 = arith.addi %260, %186 : i32
            %745 = arith.addi %744, %481 : i32
            %746 = arith.index_cast %745 : i32 to index
            %747 = memref.load %arg12[%746] : memref<?xf32>
            %748 = arith.addi %260, %211 : i32
            %749 = arith.addi %748, %481 : i32
            %750 = arith.index_cast %749 : i32 to index
            %751 = memref.load %arg12[%750] : memref<?xf32>
            %752 = arith.subf %747, %751 : f32
            %753 = arith.addi %260, %173 : i32
            %754 = arith.addi %753, %481 : i32
            %755 = arith.index_cast %754 : i32 to index
            %756 = memref.load %arg12[%755] : memref<?xf32>
            %757 = arith.negf %756 : f32
            %758 = arith.addi %260, %198 : i32
            %759 = arith.addi %758, %481 : i32
            %760 = arith.index_cast %759 : i32 to index
            %761 = memref.load %arg12[%760] : memref<?xf32>
            %762 = arith.addf %757, %761 : f32
            %763 = arith.mulf %762, %cst_2 : f32
            %764 = arith.addf %752, %763 : f32
            %765 = arith.mulf %631, %764 : f32
            %766 = arith.mulf %765, %cst_2 : f32
            %767 = arith.subf %743, %766 : f32
            %768 = arith.addi %277, %186 : i32
            %769 = arith.addi %768, %481 : i32
            %770 = arith.index_cast %769 : i32 to index
            %771 = memref.load %arg12[%770] : memref<?xf32>
            %772 = arith.addi %277, %211 : i32
            %773 = arith.addi %772, %481 : i32
            %774 = arith.index_cast %773 : i32 to index
            %775 = memref.load %arg12[%774] : memref<?xf32>
            %776 = arith.subf %771, %775 : f32
            %777 = arith.addi %277, %173 : i32
            %778 = arith.addi %777, %481 : i32
            %779 = arith.index_cast %778 : i32 to index
            %780 = memref.load %arg12[%779] : memref<?xf32>
            %781 = arith.negf %780 : f32
            %782 = arith.addi %277, %198 : i32
            %783 = arith.addi %782, %481 : i32
            %784 = arith.index_cast %783 : i32 to index
            %785 = memref.load %arg12[%784] : memref<?xf32>
            %786 = arith.addf %781, %785 : f32
            %787 = arith.mulf %786, %cst_2 : f32
            %788 = arith.addf %776, %787 : f32
            %789 = arith.mulf %660, %788 : f32
            %790 = arith.mulf %789, %cst_2 : f32
            %791 = arith.addf %767, %790 : f32
            %792 = arith.addi %291, %186 : i32
            %793 = arith.addi %792, %481 : i32
            %794 = arith.index_cast %793 : i32 to index
            %795 = memref.load %arg12[%794] : memref<?xf32>
            %796 = arith.addi %291, %211 : i32
            %797 = arith.addi %796, %481 : i32
            %798 = arith.index_cast %797 : i32 to index
            %799 = memref.load %arg12[%798] : memref<?xf32>
            %800 = arith.subf %795, %799 : f32
            %801 = arith.addi %291, %173 : i32
            %802 = arith.addi %801, %481 : i32
            %803 = arith.index_cast %802 : i32 to index
            %804 = memref.load %arg12[%803] : memref<?xf32>
            %805 = arith.negf %804 : f32
            %806 = arith.addi %291, %198 : i32
            %807 = arith.addi %806, %481 : i32
            %808 = arith.index_cast %807 : i32 to index
            %809 = memref.load %arg12[%808] : memref<?xf32>
            %810 = arith.addf %805, %809 : f32
            %811 = arith.mulf %810, %cst_2 : f32
            %812 = arith.addf %800, %811 : f32
            %813 = arith.mulf %689, %812 : f32
            %814 = arith.subf %791, %813 : f32
            %815 = arith.mulf %721, %814 : f32
            %816 = arith.addf %718, %815 : f32
            %817 = memref.load %arg13[%132] : memref<?xf32>
            %818 = arith.subf %609, %694 : f32
            %819 = arith.negf %636 : f32
            %820 = arith.addf %819, %665 : f32
            %821 = arith.mulf %820, %cst_2 : f32
            %822 = arith.addf %818, %821 : f32
            %823 = arith.mulf %817, %822 : f32
            %824 = memref.load %arg13[%118] : memref<?xf32>
            %825 = arith.subf %620, %705 : f32
            %826 = arith.addf %648, %676 : f32
            %827 = arith.mulf %826, %cst_2 : f32
            %828 = arith.addf %825, %827 : f32
            %829 = arith.mulf %824, %828 : f32
            %830 = arith.mulf %829, %cst_2 : f32
            %831 = arith.subf %823, %830 : f32
            %832 = memref.load %arg13[%145] : memref<?xf32>
            %833 = arith.subf %626, %711 : f32
            %834 = arith.negf %653 : f32
            %835 = arith.addf %834, %682 : f32
            %836 = arith.mulf %835, %cst_2 : f32
            %837 = arith.addf %833, %836 : f32
            %838 = arith.mulf %832, %837 : f32
            %839 = arith.mulf %838, %cst_2 : f32
            %840 = arith.addf %831, %839 : f32
            %841 = memref.load %arg13[%159] : memref<?xf32>
            %842 = arith.subf %614, %699 : f32
            %843 = arith.negf %641 : f32
            %844 = arith.addf %843, %670 : f32
            %845 = arith.mulf %844, %cst_2 : f32
            %846 = arith.addf %842, %845 : f32
            %847 = arith.mulf %841, %846 : f32
            %848 = arith.subf %840, %847 : f32
            %849 = arith.mulf %603, %848 : f32
            %850 = arith.addf %816, %849 : f32
            %851 = memref.load %arg13[%188] : memref<?xf32>
            %852 = arith.subf %725, %795 : f32
            %853 = arith.negf %747 : f32
            %854 = arith.addf %853, %771 : f32
            %855 = arith.mulf %854, %cst_2 : f32
            %856 = arith.addf %852, %855 : f32
            %857 = arith.mulf %851, %856 : f32
            %858 = memref.load %arg13[%175] : memref<?xf32>
            %859 = arith.subf %734, %804 : f32
            %860 = arith.addf %757, %780 : f32
            %861 = arith.mulf %860, %cst_2 : f32
            %862 = arith.addf %859, %861 : f32
            %863 = arith.mulf %858, %862 : f32
            %864 = arith.mulf %863, %cst_2 : f32
            %865 = arith.subf %857, %864 : f32
            %866 = memref.load %arg13[%200] : memref<?xf32>
            %867 = arith.subf %739, %809 : f32
            %868 = arith.negf %761 : f32
            %869 = arith.addf %868, %785 : f32
            %870 = arith.mulf %869, %cst_2 : f32
            %871 = arith.addf %867, %870 : f32
            %872 = arith.mulf %866, %871 : f32
            %873 = arith.mulf %872, %cst_2 : f32
            %874 = arith.addf %865, %873 : f32
            %875 = memref.load %arg13[%213] : memref<?xf32>
            %876 = arith.subf %729, %799 : f32
            %877 = arith.negf %751 : f32
            %878 = arith.addf %877, %775 : f32
            %879 = arith.mulf %878, %cst_2 : f32
            %880 = arith.addf %876, %879 : f32
            %881 = arith.mulf %875, %880 : f32
            %882 = arith.subf %874, %881 : f32
            %883 = arith.mulf %721, %882 : f32
            %884 = arith.addf %850, %883 : f32
            memref.store %884, %arg11[%230] : memref<?xf32>
            %885 = memref.load %arg11[%230] : memref<?xf32>
            %886 = arith.mulf %20, %885 : f32
            memref.store %886, %arg11[%230] : memref<?xf32>
            %887 = memref.load %arg11[%365] : memref<?xf32>
            %888 = memref.load %arg16[%67] : memref<?xf32>
            %889 = memref.load %arg17[%125] : memref<?xf32>
            %890 = arith.mulf %888, %889 : f32
            %891 = arith.mulf %890, %2 : f32
            %892 = memref.load %arg13[%73] : memref<?xf32>
            %893 = arith.addi %606, %10 : i32
            %894 = arith.index_cast %893 : i32 to index
            %895 = memref.load %arg12[%894] : memref<?xf32>
            %896 = arith.addi %611, %10 : i32
            %897 = arith.index_cast %896 : i32 to index
            %898 = memref.load %arg12[%897] : memref<?xf32>
            %899 = arith.subf %895, %898 : f32
            %900 = arith.addi %617, %10 : i32
            %901 = arith.index_cast %900 : i32 to index
            %902 = memref.load %arg12[%901] : memref<?xf32>
            %903 = arith.negf %902 : f32
            %904 = arith.addi %623, %10 : i32
            %905 = arith.index_cast %904 : i32 to index
            %906 = memref.load %arg12[%905] : memref<?xf32>
            %907 = arith.addf %903, %906 : f32
            %908 = arith.mulf %907, %cst_2 : f32
            %909 = arith.addf %899, %908 : f32
            %910 = arith.mulf %892, %909 : f32
            %911 = memref.load %arg13[%55] : memref<?xf32>
            %912 = arith.addi %633, %10 : i32
            %913 = arith.index_cast %912 : i32 to index
            %914 = memref.load %arg12[%913] : memref<?xf32>
            %915 = arith.addi %638, %10 : i32
            %916 = arith.index_cast %915 : i32 to index
            %917 = memref.load %arg12[%916] : memref<?xf32>
            %918 = arith.subf %914, %917 : f32
            %919 = arith.addi %644, %10 : i32
            %920 = arith.index_cast %919 : i32 to index
            %921 = memref.load %arg12[%920] : memref<?xf32>
            %922 = arith.negf %921 : f32
            %923 = arith.addi %650, %10 : i32
            %924 = arith.index_cast %923 : i32 to index
            %925 = memref.load %arg12[%924] : memref<?xf32>
            %926 = arith.addf %922, %925 : f32
            %927 = arith.mulf %926, %cst_2 : f32
            %928 = arith.addf %918, %927 : f32
            %929 = arith.mulf %911, %928 : f32
            %930 = arith.mulf %929, %cst_2 : f32
            %931 = arith.subf %910, %930 : f32
            %932 = memref.load %arg13[%86] : memref<?xf32>
            %933 = arith.addi %662, %10 : i32
            %934 = arith.index_cast %933 : i32 to index
            %935 = memref.load %arg12[%934] : memref<?xf32>
            %936 = arith.addi %667, %10 : i32
            %937 = arith.index_cast %936 : i32 to index
            %938 = memref.load %arg12[%937] : memref<?xf32>
            %939 = arith.subf %935, %938 : f32
            %940 = arith.addi %673, %10 : i32
            %941 = arith.index_cast %940 : i32 to index
            %942 = memref.load %arg12[%941] : memref<?xf32>
            %943 = arith.negf %942 : f32
            %944 = arith.addi %679, %10 : i32
            %945 = arith.index_cast %944 : i32 to index
            %946 = memref.load %arg12[%945] : memref<?xf32>
            %947 = arith.addf %943, %946 : f32
            %948 = arith.mulf %947, %cst_2 : f32
            %949 = arith.addf %939, %948 : f32
            %950 = arith.mulf %932, %949 : f32
            %951 = arith.mulf %950, %cst_2 : f32
            %952 = arith.addf %931, %951 : f32
            %953 = memref.load %arg13[%100] : memref<?xf32>
            %954 = arith.addi %691, %10 : i32
            %955 = arith.index_cast %954 : i32 to index
            %956 = memref.load %arg12[%955] : memref<?xf32>
            %957 = arith.addi %696, %10 : i32
            %958 = arith.index_cast %957 : i32 to index
            %959 = memref.load %arg12[%958] : memref<?xf32>
            %960 = arith.subf %956, %959 : f32
            %961 = arith.addi %702, %10 : i32
            %962 = arith.index_cast %961 : i32 to index
            %963 = memref.load %arg12[%962] : memref<?xf32>
            %964 = arith.negf %963 : f32
            %965 = arith.addi %708, %10 : i32
            %966 = arith.index_cast %965 : i32 to index
            %967 = memref.load %arg12[%966] : memref<?xf32>
            %968 = arith.addf %964, %967 : f32
            %969 = arith.mulf %968, %cst_2 : f32
            %970 = arith.addf %960, %969 : f32
            %971 = arith.mulf %953, %970 : f32
            %972 = arith.subf %952, %971 : f32
            %973 = arith.mulf %891, %972 : f32
            %974 = arith.addf %887, %973 : f32
            %975 = memref.load %arg14[%132] : memref<?xf32>
            %976 = arith.subf %895, %956 : f32
            %977 = arith.negf %914 : f32
            %978 = arith.addf %977, %935 : f32
            %979 = arith.mulf %978, %cst_2 : f32
            %980 = arith.addf %976, %979 : f32
            %981 = arith.mulf %975, %980 : f32
            %982 = memref.load %arg14[%118] : memref<?xf32>
            %983 = arith.subf %902, %963 : f32
            %984 = arith.addf %922, %942 : f32
            %985 = arith.mulf %984, %cst_2 : f32
            %986 = arith.addf %983, %985 : f32
            %987 = arith.mulf %982, %986 : f32
            %988 = arith.mulf %987, %cst_2 : f32
            %989 = arith.subf %981, %988 : f32
            %990 = memref.load %arg14[%145] : memref<?xf32>
            %991 = arith.subf %906, %967 : f32
            %992 = arith.negf %925 : f32
            %993 = arith.addf %992, %946 : f32
            %994 = arith.mulf %993, %cst_2 : f32
            %995 = arith.addf %991, %994 : f32
            %996 = arith.mulf %990, %995 : f32
            %997 = arith.mulf %996, %cst_2 : f32
            %998 = arith.addf %989, %997 : f32
            %999 = memref.load %arg14[%159] : memref<?xf32>
            %1000 = arith.subf %898, %959 : f32
            %1001 = arith.negf %917 : f32
            %1002 = arith.addf %1001, %938 : f32
            %1003 = arith.mulf %1002, %cst_2 : f32
            %1004 = arith.addf %1000, %1003 : f32
            %1005 = arith.mulf %999, %1004 : f32
            %1006 = arith.subf %998, %1005 : f32
            %1007 = arith.mulf %891, %1006 : f32
            %1008 = arith.addf %974, %1007 : f32
            %1009 = memref.load %arg18[%182] : memref<?xf32>
            %1010 = arith.mulf %889, %1009 : f32
            %1011 = arith.mulf %1010, %2 : f32
            %1012 = arith.addi %300, %186 : i32
            %1013 = arith.addi %1012, %481 : i32
            %1014 = arith.index_cast %1013 : i32 to index
            %1015 = memref.load %arg12[%1014] : memref<?xf32>
            %1016 = arith.addi %300, %211 : i32
            %1017 = arith.addi %1016, %481 : i32
            %1018 = arith.index_cast %1017 : i32 to index
            %1019 = memref.load %arg12[%1018] : memref<?xf32>
            %1020 = arith.subf %1015, %1019 : f32
            %1021 = arith.addi %300, %173 : i32
            %1022 = arith.addi %1021, %481 : i32
            %1023 = arith.index_cast %1022 : i32 to index
            %1024 = memref.load %arg12[%1023] : memref<?xf32>
            %1025 = arith.negf %1024 : f32
            %1026 = arith.addi %300, %198 : i32
            %1027 = arith.addi %1026, %481 : i32
            %1028 = arith.index_cast %1027 : i32 to index
            %1029 = memref.load %arg12[%1028] : memref<?xf32>
            %1030 = arith.addf %1025, %1029 : f32
            %1031 = arith.mulf %1030, %cst_2 : f32
            %1032 = arith.addf %1020, %1031 : f32
            %1033 = arith.mulf %975, %1032 : f32
            %1034 = arith.addi %307, %186 : i32
            %1035 = arith.addi %1034, %481 : i32
            %1036 = arith.index_cast %1035 : i32 to index
            %1037 = memref.load %arg12[%1036] : memref<?xf32>
            %1038 = arith.addi %307, %211 : i32
            %1039 = arith.addi %1038, %481 : i32
            %1040 = arith.index_cast %1039 : i32 to index
            %1041 = memref.load %arg12[%1040] : memref<?xf32>
            %1042 = arith.subf %1037, %1041 : f32
            %1043 = arith.addi %307, %173 : i32
            %1044 = arith.addi %1043, %481 : i32
            %1045 = arith.index_cast %1044 : i32 to index
            %1046 = memref.load %arg12[%1045] : memref<?xf32>
            %1047 = arith.negf %1046 : f32
            %1048 = arith.addi %307, %198 : i32
            %1049 = arith.addi %1048, %481 : i32
            %1050 = arith.index_cast %1049 : i32 to index
            %1051 = memref.load %arg12[%1050] : memref<?xf32>
            %1052 = arith.addf %1047, %1051 : f32
            %1053 = arith.mulf %1052, %cst_2 : f32
            %1054 = arith.addf %1042, %1053 : f32
            %1055 = arith.mulf %982, %1054 : f32
            %1056 = arith.mulf %1055, %cst_2 : f32
            %1057 = arith.subf %1033, %1056 : f32
            %1058 = arith.addi %315, %186 : i32
            %1059 = arith.addi %1058, %481 : i32
            %1060 = arith.index_cast %1059 : i32 to index
            %1061 = memref.load %arg12[%1060] : memref<?xf32>
            %1062 = arith.addi %315, %211 : i32
            %1063 = arith.addi %1062, %481 : i32
            %1064 = arith.index_cast %1063 : i32 to index
            %1065 = memref.load %arg12[%1064] : memref<?xf32>
            %1066 = arith.subf %1061, %1065 : f32
            %1067 = arith.addi %315, %173 : i32
            %1068 = arith.addi %1067, %481 : i32
            %1069 = arith.index_cast %1068 : i32 to index
            %1070 = memref.load %arg12[%1069] : memref<?xf32>
            %1071 = arith.negf %1070 : f32
            %1072 = arith.addi %315, %198 : i32
            %1073 = arith.addi %1072, %481 : i32
            %1074 = arith.index_cast %1073 : i32 to index
            %1075 = memref.load %arg12[%1074] : memref<?xf32>
            %1076 = arith.addf %1071, %1075 : f32
            %1077 = arith.mulf %1076, %cst_2 : f32
            %1078 = arith.addf %1066, %1077 : f32
            %1079 = arith.mulf %990, %1078 : f32
            %1080 = arith.mulf %1079, %cst_2 : f32
            %1081 = arith.addf %1057, %1080 : f32
            %1082 = arith.addi %323, %186 : i32
            %1083 = arith.addi %1082, %481 : i32
            %1084 = arith.index_cast %1083 : i32 to index
            %1085 = memref.load %arg12[%1084] : memref<?xf32>
            %1086 = arith.addi %323, %211 : i32
            %1087 = arith.addi %1086, %481 : i32
            %1088 = arith.index_cast %1087 : i32 to index
            %1089 = memref.load %arg12[%1088] : memref<?xf32>
            %1090 = arith.subf %1085, %1089 : f32
            %1091 = arith.addi %323, %173 : i32
            %1092 = arith.addi %1091, %481 : i32
            %1093 = arith.index_cast %1092 : i32 to index
            %1094 = memref.load %arg12[%1093] : memref<?xf32>
            %1095 = arith.negf %1094 : f32
            %1096 = arith.addi %323, %198 : i32
            %1097 = arith.addi %1096, %481 : i32
            %1098 = arith.index_cast %1097 : i32 to index
            %1099 = memref.load %arg12[%1098] : memref<?xf32>
            %1100 = arith.addf %1095, %1099 : f32
            %1101 = arith.mulf %1100, %cst_2 : f32
            %1102 = arith.addf %1090, %1101 : f32
            %1103 = arith.mulf %999, %1102 : f32
            %1104 = arith.subf %1081, %1103 : f32
            %1105 = arith.mulf %1011, %1104 : f32
            %1106 = arith.addf %1008, %1105 : f32
            %1107 = memref.load %arg13[%188] : memref<?xf32>
            %1108 = arith.subf %1015, %1085 : f32
            %1109 = arith.negf %1037 : f32
            %1110 = arith.addf %1109, %1061 : f32
            %1111 = arith.mulf %1110, %cst_2 : f32
            %1112 = arith.addf %1108, %1111 : f32
            %1113 = arith.mulf %1107, %1112 : f32
            %1114 = memref.load %arg13[%175] : memref<?xf32>
            %1115 = arith.subf %1024, %1094 : f32
            %1116 = arith.addf %1047, %1070 : f32
            %1117 = arith.mulf %1116, %cst_2 : f32
            %1118 = arith.addf %1115, %1117 : f32
            %1119 = arith.mulf %1114, %1118 : f32
            %1120 = arith.mulf %1119, %cst_2 : f32
            %1121 = arith.subf %1113, %1120 : f32
            %1122 = memref.load %arg13[%200] : memref<?xf32>
            %1123 = arith.subf %1029, %1099 : f32
            %1124 = arith.negf %1051 : f32
            %1125 = arith.addf %1124, %1075 : f32
            %1126 = arith.mulf %1125, %cst_2 : f32
            %1127 = arith.addf %1123, %1126 : f32
            %1128 = arith.mulf %1122, %1127 : f32
            %1129 = arith.mulf %1128, %cst_2 : f32
            %1130 = arith.addf %1121, %1129 : f32
            %1131 = memref.load %arg13[%213] : memref<?xf32>
            %1132 = arith.subf %1019, %1089 : f32
            %1133 = arith.negf %1041 : f32
            %1134 = arith.addf %1133, %1065 : f32
            %1135 = arith.mulf %1134, %cst_2 : f32
            %1136 = arith.addf %1132, %1135 : f32
            %1137 = arith.mulf %1131, %1136 : f32
            %1138 = arith.subf %1130, %1137 : f32
            %1139 = arith.mulf %1011, %1138 : f32
            %1140 = arith.addf %1106, %1139 : f32
            memref.store %1140, %arg11[%365] : memref<?xf32>
            %1141 = memref.load %arg11[%365] : memref<?xf32>
            %1142 = arith.mulf %20, %1141 : f32
            memref.store %1142, %arg11[%365] : memref<?xf32>
            %1143 = memref.load %arg11[%483] : memref<?xf32>
            %1144 = memref.load %arg16[%67] : memref<?xf32>
            %1145 = memref.load %arg18[%182] : memref<?xf32>
            %1146 = arith.mulf %1144, %1145 : f32
            %1147 = arith.mulf %1146, %2 : f32
            %1148 = memref.load %arg13[%73] : memref<?xf32>
            %1149 = arith.addi %722, %10 : i32
            %1150 = arith.index_cast %1149 : i32 to index
            %1151 = memref.load %arg12[%1150] : memref<?xf32>
            %1152 = arith.addi %726, %10 : i32
            %1153 = arith.index_cast %1152 : i32 to index
            %1154 = memref.load %arg12[%1153] : memref<?xf32>
            %1155 = arith.subf %1151, %1154 : f32
            %1156 = arith.addi %731, %10 : i32
            %1157 = arith.index_cast %1156 : i32 to index
            %1158 = memref.load %arg12[%1157] : memref<?xf32>
            %1159 = arith.negf %1158 : f32
            %1160 = arith.addi %736, %10 : i32
            %1161 = arith.index_cast %1160 : i32 to index
            %1162 = memref.load %arg12[%1161] : memref<?xf32>
            %1163 = arith.addf %1159, %1162 : f32
            %1164 = arith.mulf %1163, %cst_2 : f32
            %1165 = arith.addf %1155, %1164 : f32
            %1166 = arith.mulf %1148, %1165 : f32
            %1167 = memref.load %arg13[%55] : memref<?xf32>
            %1168 = arith.addi %744, %10 : i32
            %1169 = arith.index_cast %1168 : i32 to index
            %1170 = memref.load %arg12[%1169] : memref<?xf32>
            %1171 = arith.addi %748, %10 : i32
            %1172 = arith.index_cast %1171 : i32 to index
            %1173 = memref.load %arg12[%1172] : memref<?xf32>
            %1174 = arith.subf %1170, %1173 : f32
            %1175 = arith.addi %753, %10 : i32
            %1176 = arith.index_cast %1175 : i32 to index
            %1177 = memref.load %arg12[%1176] : memref<?xf32>
            %1178 = arith.negf %1177 : f32
            %1179 = arith.addi %758, %10 : i32
            %1180 = arith.index_cast %1179 : i32 to index
            %1181 = memref.load %arg12[%1180] : memref<?xf32>
            %1182 = arith.addf %1178, %1181 : f32
            %1183 = arith.mulf %1182, %cst_2 : f32
            %1184 = arith.addf %1174, %1183 : f32
            %1185 = arith.mulf %1167, %1184 : f32
            %1186 = arith.mulf %1185, %cst_2 : f32
            %1187 = arith.subf %1166, %1186 : f32
            %1188 = memref.load %arg13[%86] : memref<?xf32>
            %1189 = arith.addi %768, %10 : i32
            %1190 = arith.index_cast %1189 : i32 to index
            %1191 = memref.load %arg12[%1190] : memref<?xf32>
            %1192 = arith.addi %772, %10 : i32
            %1193 = arith.index_cast %1192 : i32 to index
            %1194 = memref.load %arg12[%1193] : memref<?xf32>
            %1195 = arith.subf %1191, %1194 : f32
            %1196 = arith.addi %777, %10 : i32
            %1197 = arith.index_cast %1196 : i32 to index
            %1198 = memref.load %arg12[%1197] : memref<?xf32>
            %1199 = arith.negf %1198 : f32
            %1200 = arith.addi %782, %10 : i32
            %1201 = arith.index_cast %1200 : i32 to index
            %1202 = memref.load %arg12[%1201] : memref<?xf32>
            %1203 = arith.addf %1199, %1202 : f32
            %1204 = arith.mulf %1203, %cst_2 : f32
            %1205 = arith.addf %1195, %1204 : f32
            %1206 = arith.mulf %1188, %1205 : f32
            %1207 = arith.mulf %1206, %cst_2 : f32
            %1208 = arith.addf %1187, %1207 : f32
            %1209 = memref.load %arg13[%100] : memref<?xf32>
            %1210 = arith.addi %792, %10 : i32
            %1211 = arith.index_cast %1210 : i32 to index
            %1212 = memref.load %arg12[%1211] : memref<?xf32>
            %1213 = arith.addi %796, %10 : i32
            %1214 = arith.index_cast %1213 : i32 to index
            %1215 = memref.load %arg12[%1214] : memref<?xf32>
            %1216 = arith.subf %1212, %1215 : f32
            %1217 = arith.addi %801, %10 : i32
            %1218 = arith.index_cast %1217 : i32 to index
            %1219 = memref.load %arg12[%1218] : memref<?xf32>
            %1220 = arith.negf %1219 : f32
            %1221 = arith.addi %806, %10 : i32
            %1222 = arith.index_cast %1221 : i32 to index
            %1223 = memref.load %arg12[%1222] : memref<?xf32>
            %1224 = arith.addf %1220, %1223 : f32
            %1225 = arith.mulf %1224, %cst_2 : f32
            %1226 = arith.addf %1216, %1225 : f32
            %1227 = arith.mulf %1209, %1226 : f32
            %1228 = arith.subf %1208, %1227 : f32
            %1229 = arith.mulf %1147, %1228 : f32
            %1230 = arith.addf %1143, %1229 : f32
            %1231 = memref.load %arg17[%125] : memref<?xf32>
            %1232 = arith.mulf %1231, %1145 : f32
            %1233 = arith.mulf %1232, %2 : f32
            %1234 = memref.load %arg13[%132] : memref<?xf32>
            %1235 = arith.addi %1012, %363 : i32
            %1236 = arith.index_cast %1235 : i32 to index
            %1237 = memref.load %arg12[%1236] : memref<?xf32>
            %1238 = arith.addi %1016, %363 : i32
            %1239 = arith.index_cast %1238 : i32 to index
            %1240 = memref.load %arg12[%1239] : memref<?xf32>
            %1241 = arith.subf %1237, %1240 : f32
            %1242 = arith.addi %1021, %363 : i32
            %1243 = arith.index_cast %1242 : i32 to index
            %1244 = memref.load %arg12[%1243] : memref<?xf32>
            %1245 = arith.negf %1244 : f32
            %1246 = arith.addi %1026, %363 : i32
            %1247 = arith.index_cast %1246 : i32 to index
            %1248 = memref.load %arg12[%1247] : memref<?xf32>
            %1249 = arith.addf %1245, %1248 : f32
            %1250 = arith.mulf %1249, %cst_2 : f32
            %1251 = arith.addf %1241, %1250 : f32
            %1252 = arith.mulf %1234, %1251 : f32
            %1253 = memref.load %arg13[%118] : memref<?xf32>
            %1254 = arith.addi %1034, %363 : i32
            %1255 = arith.index_cast %1254 : i32 to index
            %1256 = memref.load %arg12[%1255] : memref<?xf32>
            %1257 = arith.addi %1038, %363 : i32
            %1258 = arith.index_cast %1257 : i32 to index
            %1259 = memref.load %arg12[%1258] : memref<?xf32>
            %1260 = arith.subf %1256, %1259 : f32
            %1261 = arith.addi %1043, %363 : i32
            %1262 = arith.index_cast %1261 : i32 to index
            %1263 = memref.load %arg12[%1262] : memref<?xf32>
            %1264 = arith.negf %1263 : f32
            %1265 = arith.addi %1048, %363 : i32
            %1266 = arith.index_cast %1265 : i32 to index
            %1267 = memref.load %arg12[%1266] : memref<?xf32>
            %1268 = arith.addf %1264, %1267 : f32
            %1269 = arith.mulf %1268, %cst_2 : f32
            %1270 = arith.addf %1260, %1269 : f32
            %1271 = arith.mulf %1253, %1270 : f32
            %1272 = arith.mulf %1271, %cst_2 : f32
            %1273 = arith.subf %1252, %1272 : f32
            %1274 = memref.load %arg13[%145] : memref<?xf32>
            %1275 = arith.addi %1058, %363 : i32
            %1276 = arith.index_cast %1275 : i32 to index
            %1277 = memref.load %arg12[%1276] : memref<?xf32>
            %1278 = arith.addi %1062, %363 : i32
            %1279 = arith.index_cast %1278 : i32 to index
            %1280 = memref.load %arg12[%1279] : memref<?xf32>
            %1281 = arith.subf %1277, %1280 : f32
            %1282 = arith.addi %1067, %363 : i32
            %1283 = arith.index_cast %1282 : i32 to index
            %1284 = memref.load %arg12[%1283] : memref<?xf32>
            %1285 = arith.negf %1284 : f32
            %1286 = arith.addi %1072, %363 : i32
            %1287 = arith.index_cast %1286 : i32 to index
            %1288 = memref.load %arg12[%1287] : memref<?xf32>
            %1289 = arith.addf %1285, %1288 : f32
            %1290 = arith.mulf %1289, %cst_2 : f32
            %1291 = arith.addf %1281, %1290 : f32
            %1292 = arith.mulf %1274, %1291 : f32
            %1293 = arith.mulf %1292, %cst_2 : f32
            %1294 = arith.addf %1273, %1293 : f32
            %1295 = memref.load %arg13[%159] : memref<?xf32>
            %1296 = arith.addi %1082, %363 : i32
            %1297 = arith.index_cast %1296 : i32 to index
            %1298 = memref.load %arg12[%1297] : memref<?xf32>
            %1299 = arith.addi %1086, %363 : i32
            %1300 = arith.index_cast %1299 : i32 to index
            %1301 = memref.load %arg12[%1300] : memref<?xf32>
            %1302 = arith.subf %1298, %1301 : f32
            %1303 = arith.addi %1091, %363 : i32
            %1304 = arith.index_cast %1303 : i32 to index
            %1305 = memref.load %arg12[%1304] : memref<?xf32>
            %1306 = arith.negf %1305 : f32
            %1307 = arith.addi %1096, %363 : i32
            %1308 = arith.index_cast %1307 : i32 to index
            %1309 = memref.load %arg12[%1308] : memref<?xf32>
            %1310 = arith.addf %1306, %1309 : f32
            %1311 = arith.mulf %1310, %cst_2 : f32
            %1312 = arith.addf %1302, %1311 : f32
            %1313 = arith.mulf %1295, %1312 : f32
            %1314 = arith.subf %1294, %1313 : f32
            %1315 = arith.mulf %1233, %1314 : f32
            %1316 = arith.addf %1230, %1315 : f32
            %1317 = memref.load %arg14[%188] : memref<?xf32>
            %1318 = arith.subf %1151, %1212 : f32
            %1319 = arith.negf %1170 : f32
            %1320 = arith.addf %1319, %1191 : f32
            %1321 = arith.mulf %1320, %cst_2 : f32
            %1322 = arith.addf %1318, %1321 : f32
            %1323 = arith.mulf %1317, %1322 : f32
            %1324 = memref.load %arg14[%175] : memref<?xf32>
            %1325 = arith.subf %1158, %1219 : f32
            %1326 = arith.addf %1178, %1198 : f32
            %1327 = arith.mulf %1326, %cst_2 : f32
            %1328 = arith.addf %1325, %1327 : f32
            %1329 = arith.mulf %1324, %1328 : f32
            %1330 = arith.mulf %1329, %cst_2 : f32
            %1331 = arith.subf %1323, %1330 : f32
            %1332 = memref.load %arg14[%200] : memref<?xf32>
            %1333 = arith.subf %1162, %1223 : f32
            %1334 = arith.negf %1181 : f32
            %1335 = arith.addf %1334, %1202 : f32
            %1336 = arith.mulf %1335, %cst_2 : f32
            %1337 = arith.addf %1333, %1336 : f32
            %1338 = arith.mulf %1332, %1337 : f32
            %1339 = arith.mulf %1338, %cst_2 : f32
            %1340 = arith.addf %1331, %1339 : f32
            %1341 = memref.load %arg14[%213] : memref<?xf32>
            %1342 = arith.subf %1154, %1215 : f32
            %1343 = arith.negf %1173 : f32
            %1344 = arith.addf %1343, %1194 : f32
            %1345 = arith.mulf %1344, %cst_2 : f32
            %1346 = arith.addf %1342, %1345 : f32
            %1347 = arith.mulf %1341, %1346 : f32
            %1348 = arith.subf %1340, %1347 : f32
            %1349 = arith.mulf %1147, %1348 : f32
            %1350 = arith.addf %1316, %1349 : f32
            %1351 = arith.subf %1237, %1298 : f32
            %1352 = arith.negf %1256 : f32
            %1353 = arith.addf %1352, %1277 : f32
            %1354 = arith.mulf %1353, %cst_2 : f32
            %1355 = arith.addf %1351, %1354 : f32
            %1356 = arith.mulf %1317, %1355 : f32
            %1357 = arith.subf %1244, %1305 : f32
            %1358 = arith.addf %1264, %1284 : f32
            %1359 = arith.mulf %1358, %cst_2 : f32
            %1360 = arith.addf %1357, %1359 : f32
            %1361 = arith.mulf %1324, %1360 : f32
            %1362 = arith.mulf %1361, %cst_2 : f32
            %1363 = arith.subf %1356, %1362 : f32
            %1364 = arith.subf %1248, %1309 : f32
            %1365 = arith.negf %1267 : f32
            %1366 = arith.addf %1365, %1288 : f32
            %1367 = arith.mulf %1366, %cst_2 : f32
            %1368 = arith.addf %1364, %1367 : f32
            %1369 = arith.mulf %1332, %1368 : f32
            %1370 = arith.mulf %1369, %cst_2 : f32
            %1371 = arith.addf %1363, %1370 : f32
            %1372 = arith.subf %1240, %1301 : f32
            %1373 = arith.negf %1259 : f32
            %1374 = arith.addf %1373, %1280 : f32
            %1375 = arith.mulf %1374, %cst_2 : f32
            %1376 = arith.addf %1372, %1375 : f32
            %1377 = arith.mulf %1341, %1376 : f32
            %1378 = arith.subf %1371, %1377 : f32
            %1379 = arith.mulf %1233, %1378 : f32
            %1380 = arith.addf %1350, %1379 : f32
            memref.store %1380, %arg11[%483] : memref<?xf32>
            %1381 = memref.load %arg11[%483] : memref<?xf32>
            %1382 = arith.mulf %20, %1381 : f32
            memref.store %1382, %arg11[%483] : memref<?xf32>
          }
        }
      }}
      %34 = memref.load %arg7[%c4] : memref<?xi32>
      %35 = arith.cmpi eq, %34, %c1_i32 : i32
      scf.if %35 {
        arts.for(%c1) to(%c7) step(%c1) {{
        ^bb0(%arg19: index):
          %38 = arith.index_cast %arg19 : index to i32
          %39 = arith.addi %arg2, %c2_i32 : i32
          %40 = arith.addi %arg3, %c-1_i32 : i32
          %41 = arith.index_cast %40 : i32 to index
          %42 = arith.index_cast %39 : i32 to index
          scf.for %arg20 = %42 to %41 step %c1 {
            %43 = arith.index_cast %arg20 : index to i32
            %44 = arith.addi %arg0, %c2_i32 : i32
            %45 = arith.addi %arg1, %c-1_i32 : i32
            %46 = arith.index_cast %45 : i32 to index
            %47 = arith.index_cast %44 : i32 to index
            scf.for %arg21 = %47 to %46 step %c1 {
              %48 = arith.index_cast %arg21 : index to i32
              %49 = arith.addi %15, %48 : i32
              %50 = arith.addi %49, %c-1_i32 : i32
              %51 = arith.muli %4, %43 : i32
              %52 = arith.addi %50, %51 : i32
              %53 = arith.muli %7, %38 : i32
              %54 = arith.addi %52, %53 : i32
              %55 = arith.index_cast %54 : i32 to index
              %56 = memref.load %arg13[%55] : memref<?xf32>
              %57 = arith.addi %48, %c-1_i32 : i32
              %58 = arith.subi %57, %arg0 : i32
              %59 = arith.index_cast %58 : i32 to index
              %60 = memref.load %arg16[%59] : memref<?xf32>
              %61 = arith.mulf %56, %60 : f32
              %62 = arith.addi %49, %51 : i32
              %63 = arith.addi %62, %53 : i32
              %64 = arith.index_cast %63 : i32 to index
              %65 = memref.load %arg13[%64] : memref<?xf32>
              %66 = arith.subi %48, %arg0 : i32
              %67 = arith.index_cast %66 : i32 to index
              %68 = memref.load %arg16[%67] : memref<?xf32>
              %69 = arith.mulf %65, %68 : f32
              %70 = arith.addi %49, %c-2_i32 : i32
              %71 = arith.addi %70, %51 : i32
              %72 = arith.addi %71, %53 : i32
              %73 = arith.index_cast %72 : i32 to index
              %74 = memref.load %arg13[%73] : memref<?xf32>
              %75 = arith.addi %48, %c-2_i32 : i32
              %76 = arith.subi %75, %arg0 : i32
              %77 = arith.index_cast %76 : i32 to index
              %78 = memref.load %arg16[%77] : memref<?xf32>
              %79 = arith.mulf %74, %78 : f32
              %80 = arith.addf %69, %79 : f32
              %81 = arith.mulf %80, %cst_5 : f32
              %82 = arith.subf %61, %81 : f32
              %83 = arith.addi %49, %c1_i32 : i32
              %84 = arith.addi %83, %51 : i32
              %85 = arith.addi %84, %53 : i32
              %86 = arith.index_cast %85 : i32 to index
              %87 = memref.load %arg13[%86] : memref<?xf32>
              %88 = arith.addi %48, %c1_i32 : i32
              %89 = arith.subi %88, %arg0 : i32
              %90 = arith.index_cast %89 : i32 to index
              %91 = memref.load %arg16[%90] : memref<?xf32>
              %92 = arith.mulf %87, %91 : f32
              %93 = arith.addf %79, %92 : f32
              %94 = arith.addf %69, %61 : f32
              %95 = arith.mulf %94, %cst_4 : f32
              %96 = arith.addf %93, %95 : f32
              %97 = arith.addi %49, %c2_i32 : i32
              %98 = arith.addi %97, %51 : i32
              %99 = arith.addi %98, %53 : i32
              %100 = arith.index_cast %99 : i32 to index
              %101 = memref.load %arg13[%100] : memref<?xf32>
              %102 = arith.addi %48, %c2_i32 : i32
              %103 = arith.subi %102, %arg0 : i32
              %104 = arith.index_cast %103 : i32 to index
              %105 = memref.load %arg16[%104] : memref<?xf32>
              %106 = arith.mulf %101, %105 : f32
              %107 = arith.addf %61, %106 : f32
              %108 = arith.addf %92, %69 : f32
              %109 = arith.mulf %108, %cst_4 : f32
              %110 = arith.addf %107, %109 : f32
              %111 = arith.addf %69, %106 : f32
              %112 = arith.mulf %111, %cst_5 : f32
              %113 = arith.subf %92, %112 : f32
              %114 = arith.addi %43, %c-1_i32 : i32
              %115 = arith.muli %4, %114 : i32
              %116 = arith.addi %49, %115 : i32
              %117 = arith.addi %116, %53 : i32
              %118 = arith.index_cast %117 : i32 to index
              %119 = memref.load %arg13[%118] : memref<?xf32>
              %120 = arith.subi %114, %arg2 : i32
              %121 = arith.index_cast %120 : i32 to index
              %122 = memref.load %arg17[%121] : memref<?xf32>
              %123 = arith.mulf %119, %122 : f32
              %124 = arith.subi %43, %arg2 : i32
              %125 = arith.index_cast %124 : i32 to index
              %126 = memref.load %arg17[%125] : memref<?xf32>
              %127 = arith.mulf %65, %126 : f32
              %128 = arith.addi %43, %c-2_i32 : i32
              %129 = arith.muli %4, %128 : i32
              %130 = arith.addi %49, %129 : i32
              %131 = arith.addi %130, %53 : i32
              %132 = arith.index_cast %131 : i32 to index
              %133 = memref.load %arg13[%132] : memref<?xf32>
              %134 = arith.subi %128, %arg2 : i32
              %135 = arith.index_cast %134 : i32 to index
              %136 = memref.load %arg17[%135] : memref<?xf32>
              %137 = arith.mulf %133, %136 : f32
              %138 = arith.addf %127, %137 : f32
              %139 = arith.mulf %138, %cst_5 : f32
              %140 = arith.subf %123, %139 : f32
              %141 = arith.addi %43, %c1_i32 : i32
              %142 = arith.muli %4, %141 : i32
              %143 = arith.addi %49, %142 : i32
              %144 = arith.addi %143, %53 : i32
              %145 = arith.index_cast %144 : i32 to index
              %146 = memref.load %arg13[%145] : memref<?xf32>
              %147 = arith.subi %141, %arg2 : i32
              %148 = arith.index_cast %147 : i32 to index
              %149 = memref.load %arg17[%148] : memref<?xf32>
              %150 = arith.mulf %146, %149 : f32
              %151 = arith.addf %137, %150 : f32
              %152 = arith.addf %127, %123 : f32
              %153 = arith.mulf %152, %cst_4 : f32
              %154 = arith.addf %151, %153 : f32
              %155 = arith.addi %43, %c2_i32 : i32
              %156 = arith.muli %4, %155 : i32
              %157 = arith.addi %49, %156 : i32
              %158 = arith.addi %157, %53 : i32
              %159 = arith.index_cast %158 : i32 to index
              %160 = memref.load %arg13[%159] : memref<?xf32>
              %161 = arith.subi %155, %arg2 : i32
              %162 = arith.index_cast %161 : i32 to index
              %163 = memref.load %arg17[%162] : memref<?xf32>
              %164 = arith.mulf %160, %163 : f32
              %165 = arith.addf %123, %164 : f32
              %166 = arith.addf %150, %127 : f32
              %167 = arith.mulf %166, %cst_4 : f32
              %168 = arith.addf %165, %167 : f32
              %169 = arith.addf %127, %164 : f32
              %170 = arith.mulf %169, %cst_5 : f32
              %171 = arith.subf %150, %170 : f32
              %172 = arith.mulf %82, %cst_3 : f32
              %173 = memref.load %arg14[%55] : memref<?xf32>
              %174 = arith.mulf %173, %60 : f32
              %175 = arith.addf %172, %174 : f32
              %176 = memref.load %arg14[%64] : memref<?xf32>
              %177 = arith.mulf %176, %68 : f32
              %178 = memref.load %arg14[%73] : memref<?xf32>
              %179 = arith.mulf %178, %78 : f32
              %180 = arith.addf %177, %179 : f32
              %181 = arith.mulf %180, %cst_5 : f32
              %182 = arith.subf %175, %181 : f32
              %183 = arith.addi %16, %48 : i32
              %184 = arith.addi %183, %c-2_i32 : i32
              %185 = arith.addi %184, %51 : i32
              %186 = arith.addi %185, %53 : i32
              %187 = arith.addi %186, %10 : i32
              %188 = arith.index_cast %187 : i32 to index
              %189 = memref.load %arg12[%188] : memref<?xf32>
              %190 = arith.addi %183, %51 : i32
              %191 = arith.addi %190, %53 : i32
              %192 = arith.addi %191, %10 : i32
              %193 = arith.index_cast %192 : i32 to index
              %194 = memref.load %arg12[%193] : memref<?xf32>
              %195 = arith.subf %189, %194 : f32
              %196 = arith.mulf %182, %195 : f32
              %197 = arith.mulf %96, %cst_3 : f32
              %198 = arith.addf %197, %179 : f32
              %199 = memref.load %arg14[%86] : memref<?xf32>
              %200 = arith.mulf %199, %91 : f32
              %201 = arith.addf %198, %200 : f32
              %202 = arith.addf %177, %174 : f32
              %203 = arith.mulf %202, %cst_4 : f32
              %204 = arith.addf %201, %203 : f32
              %205 = arith.addi %183, %c-1_i32 : i32
              %206 = arith.addi %205, %51 : i32
              %207 = arith.addi %206, %53 : i32
              %208 = arith.addi %207, %10 : i32
              %209 = arith.index_cast %208 : i32 to index
              %210 = memref.load %arg12[%209] : memref<?xf32>
              %211 = arith.subf %210, %194 : f32
              %212 = arith.mulf %204, %211 : f32
              %213 = arith.addf %196, %212 : f32
              %214 = arith.mulf %110, %cst_3 : f32
              %215 = arith.addf %214, %174 : f32
              %216 = memref.load %arg14[%100] : memref<?xf32>
              %217 = arith.mulf %216, %105 : f32
              %218 = arith.addf %215, %217 : f32
              %219 = arith.addf %200, %177 : f32
              %220 = arith.mulf %219, %cst_4 : f32
              %221 = arith.addf %218, %220 : f32
              %222 = arith.addi %183, %c1_i32 : i32
              %223 = arith.addi %222, %51 : i32
              %224 = arith.addi %223, %53 : i32
              %225 = arith.addi %224, %10 : i32
              %226 = arith.index_cast %225 : i32 to index
              %227 = memref.load %arg12[%226] : memref<?xf32>
              %228 = arith.subf %227, %194 : f32
              %229 = arith.mulf %221, %228 : f32
              %230 = arith.addf %213, %229 : f32
              %231 = arith.mulf %113, %cst_3 : f32
              %232 = arith.addf %231, %200 : f32
              %233 = arith.addf %177, %217 : f32
              %234 = arith.mulf %233, %cst_5 : f32
              %235 = arith.subf %232, %234 : f32
              %236 = arith.addi %183, %c2_i32 : i32
              %237 = arith.addi %236, %51 : i32
              %238 = arith.addi %237, %53 : i32
              %239 = arith.addi %238, %10 : i32
              %240 = arith.index_cast %239 : i32 to index
              %241 = memref.load %arg12[%240] : memref<?xf32>
              %242 = arith.subf %241, %194 : f32
              %243 = arith.mulf %235, %242 : f32
              %244 = arith.addf %230, %243 : f32
              %245 = arith.mulf %68, %244 : f32
              %246 = arith.addi %183, %129 : i32
              %247 = arith.addi %246, %53 : i32
              %248 = arith.addi %247, %10 : i32
              %249 = arith.index_cast %248 : i32 to index
              %250 = memref.load %arg12[%249] : memref<?xf32>
              %251 = arith.subf %250, %194 : f32
              %252 = arith.mulf %140, %251 : f32
              %253 = arith.addi %183, %115 : i32
              %254 = arith.addi %253, %53 : i32
              %255 = arith.addi %254, %10 : i32
              %256 = arith.index_cast %255 : i32 to index
              %257 = memref.load %arg12[%256] : memref<?xf32>
              %258 = arith.subf %257, %194 : f32
              %259 = arith.mulf %154, %258 : f32
              %260 = arith.addf %252, %259 : f32
              %261 = arith.addi %183, %142 : i32
              %262 = arith.addi %261, %53 : i32
              %263 = arith.addi %262, %10 : i32
              %264 = arith.index_cast %263 : i32 to index
              %265 = memref.load %arg12[%264] : memref<?xf32>
              %266 = arith.subf %265, %194 : f32
              %267 = arith.mulf %168, %266 : f32
              %268 = arith.addf %260, %267 : f32
              %269 = arith.addi %183, %156 : i32
              %270 = arith.addi %269, %53 : i32
              %271 = arith.addi %270, %10 : i32
              %272 = arith.index_cast %271 : i32 to index
              %273 = memref.load %arg12[%272] : memref<?xf32>
              %274 = arith.subf %273, %194 : f32
              %275 = arith.mulf %171, %274 : f32
              %276 = arith.addf %268, %275 : f32
              %277 = arith.mulf %126, %276 : f32
              %278 = arith.addf %245, %277 : f32
              %279 = arith.mulf %0, %278 : f32
              %280:3 = scf.for %arg22 = %c1 to %c9 step %c1 iter_args(%arg23 = %cst_7, %arg24 = %cst_7, %arg25 = %cst_7) -> (f32, f32, f32) {
                %782 = arith.index_cast %arg22 : index to i32
                %783 = arith.addi %38, %c-1_i32 : i32
                %784 = arith.addi %782, %c-1_i32 : i32
                %785 = arith.muli %784, %c6_i32 : i32
                %786 = arith.addi %783, %785 : i32
                %787 = arith.index_cast %786 : i32 to index
                %788 = memref.load %arg8[%787] : memref<?xf32>
                %789 = arith.addi %62, %7 : i32
                %790 = arith.index_cast %789 : i32 to index
                %791 = memref.load %arg14[%790] : memref<?xf32>
                %792 = memref.load %arg13[%790] : memref<?xf32>
                %793 = arith.mulf %792, %cst_3 : f32
                %794 = arith.addf %791, %793 : f32
                %795 = arith.mulf %788, %794 : f32
                %796 = arith.addi %786, %c48_i32 : i32
                %797 = arith.index_cast %796 : i32 to index
                %798 = memref.load %arg8[%797] : memref<?xf32>
                %799 = arith.muli %7, %c2_i32 : i32
                %800 = arith.addi %62, %799 : i32
                %801 = arith.index_cast %800 : i32 to index
                %802 = memref.load %arg14[%801] : memref<?xf32>
                %803 = memref.load %arg13[%801] : memref<?xf32>
                %804 = arith.mulf %803, %cst_3 : f32
                %805 = arith.addf %802, %804 : f32
                %806 = arith.mulf %798, %805 : f32
                %807 = arith.addf %795, %806 : f32
                %808 = arith.addi %786, %c96_i32 : i32
                %809 = arith.index_cast %808 : i32 to index
                %810 = memref.load %arg8[%809] : memref<?xf32>
                %811 = arith.muli %7, %c3_i32 : i32
                %812 = arith.addi %62, %811 : i32
                %813 = arith.index_cast %812 : i32 to index
                %814 = memref.load %arg14[%813] : memref<?xf32>
                %815 = memref.load %arg13[%813] : memref<?xf32>
                %816 = arith.mulf %815, %cst_3 : f32
                %817 = arith.addf %814, %816 : f32
                %818 = arith.mulf %810, %817 : f32
                %819 = arith.addf %807, %818 : f32
                %820 = arith.addi %786, %c144_i32 : i32
                %821 = arith.index_cast %820 : i32 to index
                %822 = memref.load %arg8[%821] : memref<?xf32>
                %823 = arith.muli %7, %c4_i32 : i32
                %824 = arith.addi %62, %823 : i32
                %825 = arith.index_cast %824 : i32 to index
                %826 = memref.load %arg14[%825] : memref<?xf32>
                %827 = memref.load %arg13[%825] : memref<?xf32>
                %828 = arith.mulf %827, %cst_3 : f32
                %829 = arith.addf %826, %828 : f32
                %830 = arith.mulf %822, %829 : f32
                %831 = arith.addf %819, %830 : f32
                %832 = arith.addi %786, %c192_i32 : i32
                %833 = arith.index_cast %832 : i32 to index
                %834 = memref.load %arg8[%833] : memref<?xf32>
                %835 = arith.muli %7, %c5_i32 : i32
                %836 = arith.addi %62, %835 : i32
                %837 = arith.index_cast %836 : i32 to index
                %838 = memref.load %arg14[%837] : memref<?xf32>
                %839 = memref.load %arg13[%837] : memref<?xf32>
                %840 = arith.mulf %839, %cst_3 : f32
                %841 = arith.addf %838, %840 : f32
                %842 = arith.mulf %834, %841 : f32
                %843 = arith.addf %831, %842 : f32
                %844 = arith.addi %786, %c240_i32 : i32
                %845 = arith.index_cast %844 : i32 to index
                %846 = memref.load %arg8[%845] : memref<?xf32>
                %847 = arith.muli %7, %c6_i32 : i32
                %848 = arith.addi %62, %847 : i32
                %849 = arith.index_cast %848 : i32 to index
                %850 = memref.load %arg14[%849] : memref<?xf32>
                %851 = memref.load %arg13[%849] : memref<?xf32>
                %852 = arith.mulf %851, %cst_3 : f32
                %853 = arith.addf %850, %852 : f32
                %854 = arith.mulf %846, %853 : f32
                %855 = arith.addf %843, %854 : f32
                %856 = arith.addi %786, %c288_i32 : i32
                %857 = arith.index_cast %856 : i32 to index
                %858 = memref.load %arg8[%857] : memref<?xf32>
                %859 = arith.muli %7, %c7_i32 : i32
                %860 = arith.addi %62, %859 : i32
                %861 = arith.index_cast %860 : i32 to index
                %862 = memref.load %arg14[%861] : memref<?xf32>
                %863 = memref.load %arg13[%861] : memref<?xf32>
                %864 = arith.mulf %863, %cst_3 : f32
                %865 = arith.addf %862, %864 : f32
                %866 = arith.mulf %858, %865 : f32
                %867 = arith.addf %855, %866 : f32
                %868 = arith.addi %786, %c336_i32 : i32
                %869 = arith.index_cast %868 : i32 to index
                %870 = memref.load %arg8[%869] : memref<?xf32>
                %871 = arith.muli %7, %c8_i32 : i32
                %872 = arith.addi %62, %871 : i32
                %873 = arith.index_cast %872 : i32 to index
                %874 = memref.load %arg14[%873] : memref<?xf32>
                %875 = memref.load %arg13[%873] : memref<?xf32>
                %876 = arith.mulf %875, %cst_3 : f32
                %877 = arith.addf %874, %876 : f32
                %878 = arith.mulf %870, %877 : f32
                %879 = arith.addf %867, %878 : f32
                %880 = arith.mulf %788, %792 : f32
                %881 = arith.mulf %798, %803 : f32
                %882 = arith.addf %880, %881 : f32
                %883 = arith.mulf %810, %815 : f32
                %884 = arith.addf %882, %883 : f32
                %885 = arith.mulf %822, %827 : f32
                %886 = arith.addf %884, %885 : f32
                %887 = arith.mulf %834, %839 : f32
                %888 = arith.addf %886, %887 : f32
                %889 = arith.mulf %846, %851 : f32
                %890 = arith.addf %888, %889 : f32
                %891 = arith.mulf %858, %863 : f32
                %892 = arith.addf %890, %891 : f32
                %893 = arith.mulf %870, %875 : f32
                %894 = arith.addf %892, %893 : f32
                %895 = arith.muli %7, %782 : i32
                %896 = arith.addi %190, %895 : i32
                %897 = arith.addi %896, %10 : i32
                %898 = arith.index_cast %897 : i32 to index
                %899 = memref.load %arg12[%898] : memref<?xf32>
                %900 = arith.mulf %894, %899 : f32
                %901 = arith.addf %arg25, %900 : f32
                %902 = arith.muli %10, %c2_i32 : i32
                %903 = arith.addi %896, %902 : i32
                %904 = arith.index_cast %903 : i32 to index
                %905 = memref.load %arg12[%904] : memref<?xf32>
                %906 = arith.mulf %894, %905 : f32
                %907 = arith.addf %arg24, %906 : f32
                %908 = arith.muli %10, %c3_i32 : i32
                %909 = arith.addi %896, %908 : i32
                %910 = arith.index_cast %909 : i32 to index
                %911 = memref.load %arg12[%910] : memref<?xf32>
                %912 = arith.mulf %879, %911 : f32
                %913 = arith.addf %arg23, %912 : f32
                scf.yield %913, %907, %901 : f32, f32, f32
              }
              %281 = arith.addi %38, %c-1_i32 : i32
              %282 = arith.index_cast %281 : i32 to index
              %283 = memref.load %arg10[%282] : memref<?xf32>
              %284 = arith.addi %62, %7 : i32
              %285 = arith.index_cast %284 : i32 to index
              %286 = memref.load %arg13[%285] : memref<?xf32>
              %287 = arith.mulf %283, %286 : f32
              %288 = arith.addi %190, %10 : i32
              %289 = arith.index_cast %288 : i32 to index
              %290 = memref.load %arg12[%289] : memref<?xf32>
              %291 = arith.mulf %287, %290 : f32
              %292 = arith.addf %280#2, %291 : f32
              %293 = arith.addf %279, %292 : f32
              %294 = arith.muli %10, %c2_i32 : i32
              %295 = arith.addi %186, %294 : i32
              %296 = arith.index_cast %295 : i32 to index
              %297 = memref.load %arg12[%296] : memref<?xf32>
              %298 = arith.addi %191, %294 : i32
              %299 = arith.index_cast %298 : i32 to index
              %300 = memref.load %arg12[%299] : memref<?xf32>
              %301 = arith.subf %297, %300 : f32
              %302 = arith.mulf %82, %301 : f32
              %303 = arith.addi %207, %294 : i32
              %304 = arith.index_cast %303 : i32 to index
              %305 = memref.load %arg12[%304] : memref<?xf32>
              %306 = arith.subf %305, %300 : f32
              %307 = arith.mulf %96, %306 : f32
              %308 = arith.addf %302, %307 : f32
              %309 = arith.addi %224, %294 : i32
              %310 = arith.index_cast %309 : i32 to index
              %311 = memref.load %arg12[%310] : memref<?xf32>
              %312 = arith.subf %311, %300 : f32
              %313 = arith.mulf %110, %312 : f32
              %314 = arith.addf %308, %313 : f32
              %315 = arith.addi %238, %294 : i32
              %316 = arith.index_cast %315 : i32 to index
              %317 = memref.load %arg12[%316] : memref<?xf32>
              %318 = arith.subf %317, %300 : f32
              %319 = arith.mulf %113, %318 : f32
              %320 = arith.addf %314, %319 : f32
              %321 = arith.mulf %68, %320 : f32
              %322 = arith.mulf %140, %cst_3 : f32
              %323 = memref.load %arg14[%118] : memref<?xf32>
              %324 = arith.mulf %323, %122 : f32
              %325 = arith.addf %322, %324 : f32
              %326 = arith.mulf %176, %126 : f32
              %327 = memref.load %arg14[%132] : memref<?xf32>
              %328 = arith.mulf %327, %136 : f32
              %329 = arith.addf %326, %328 : f32
              %330 = arith.mulf %329, %cst_5 : f32
              %331 = arith.subf %325, %330 : f32
              %332 = arith.addi %247, %294 : i32
              %333 = arith.index_cast %332 : i32 to index
              %334 = memref.load %arg12[%333] : memref<?xf32>
              %335 = arith.subf %334, %300 : f32
              %336 = arith.mulf %331, %335 : f32
              %337 = arith.mulf %154, %cst_3 : f32
              %338 = arith.addf %337, %328 : f32
              %339 = memref.load %arg14[%145] : memref<?xf32>
              %340 = arith.mulf %339, %149 : f32
              %341 = arith.addf %338, %340 : f32
              %342 = arith.addf %326, %324 : f32
              %343 = arith.mulf %342, %cst_4 : f32
              %344 = arith.addf %341, %343 : f32
              %345 = arith.addi %254, %294 : i32
              %346 = arith.index_cast %345 : i32 to index
              %347 = memref.load %arg12[%346] : memref<?xf32>
              %348 = arith.subf %347, %300 : f32
              %349 = arith.mulf %344, %348 : f32
              %350 = arith.addf %336, %349 : f32
              %351 = arith.mulf %168, %cst_3 : f32
              %352 = arith.addf %351, %324 : f32
              %353 = memref.load %arg14[%159] : memref<?xf32>
              %354 = arith.mulf %353, %163 : f32
              %355 = arith.addf %352, %354 : f32
              %356 = arith.addf %340, %326 : f32
              %357 = arith.mulf %356, %cst_4 : f32
              %358 = arith.addf %355, %357 : f32
              %359 = arith.addi %262, %294 : i32
              %360 = arith.index_cast %359 : i32 to index
              %361 = memref.load %arg12[%360] : memref<?xf32>
              %362 = arith.subf %361, %300 : f32
              %363 = arith.mulf %358, %362 : f32
              %364 = arith.addf %350, %363 : f32
              %365 = arith.mulf %171, %cst_3 : f32
              %366 = arith.addf %365, %340 : f32
              %367 = arith.addf %326, %354 : f32
              %368 = arith.mulf %367, %cst_5 : f32
              %369 = arith.subf %366, %368 : f32
              %370 = arith.addi %270, %294 : i32
              %371 = arith.index_cast %370 : i32 to index
              %372 = memref.load %arg12[%371] : memref<?xf32>
              %373 = arith.subf %372, %300 : f32
              %374 = arith.mulf %369, %373 : f32
              %375 = arith.addf %364, %374 : f32
              %376 = arith.mulf %126, %375 : f32
              %377 = arith.addf %321, %376 : f32
              %378 = arith.mulf %0, %377 : f32
              %379 = arith.addi %190, %294 : i32
              %380 = arith.index_cast %379 : i32 to index
              %381 = memref.load %arg12[%380] : memref<?xf32>
              %382 = arith.mulf %287, %381 : f32
              %383 = arith.addf %280#1, %382 : f32
              %384 = arith.addf %378, %383 : f32
              %385 = arith.muli %10, %c3_i32 : i32
              %386 = arith.addi %186, %385 : i32
              %387 = arith.index_cast %386 : i32 to index
              %388 = memref.load %arg12[%387] : memref<?xf32>
              %389 = arith.addi %191, %385 : i32
              %390 = arith.index_cast %389 : i32 to index
              %391 = memref.load %arg12[%390] : memref<?xf32>
              %392 = arith.subf %388, %391 : f32
              %393 = arith.mulf %82, %392 : f32
              %394 = arith.addi %207, %385 : i32
              %395 = arith.index_cast %394 : i32 to index
              %396 = memref.load %arg12[%395] : memref<?xf32>
              %397 = arith.subf %396, %391 : f32
              %398 = arith.mulf %96, %397 : f32
              %399 = arith.addf %393, %398 : f32
              %400 = arith.addi %224, %385 : i32
              %401 = arith.index_cast %400 : i32 to index
              %402 = memref.load %arg12[%401] : memref<?xf32>
              %403 = arith.subf %402, %391 : f32
              %404 = arith.mulf %110, %403 : f32
              %405 = arith.addf %399, %404 : f32
              %406 = arith.addi %238, %385 : i32
              %407 = arith.index_cast %406 : i32 to index
              %408 = memref.load %arg12[%407] : memref<?xf32>
              %409 = arith.subf %408, %391 : f32
              %410 = arith.mulf %113, %409 : f32
              %411 = arith.addf %405, %410 : f32
              %412 = arith.mulf %68, %411 : f32
              %413 = arith.addi %247, %385 : i32
              %414 = arith.index_cast %413 : i32 to index
              %415 = memref.load %arg12[%414] : memref<?xf32>
              %416 = arith.subf %415, %391 : f32
              %417 = arith.mulf %140, %416 : f32
              %418 = arith.addi %254, %385 : i32
              %419 = arith.index_cast %418 : i32 to index
              %420 = memref.load %arg12[%419] : memref<?xf32>
              %421 = arith.subf %420, %391 : f32
              %422 = arith.mulf %154, %421 : f32
              %423 = arith.addf %417, %422 : f32
              %424 = arith.addi %262, %385 : i32
              %425 = arith.index_cast %424 : i32 to index
              %426 = memref.load %arg12[%425] : memref<?xf32>
              %427 = arith.subf %426, %391 : f32
              %428 = arith.mulf %168, %427 : f32
              %429 = arith.addf %423, %428 : f32
              %430 = arith.addi %270, %385 : i32
              %431 = arith.index_cast %430 : i32 to index
              %432 = memref.load %arg12[%431] : memref<?xf32>
              %433 = arith.subf %432, %391 : f32
              %434 = arith.mulf %171, %433 : f32
              %435 = arith.addf %429, %434 : f32
              %436 = arith.mulf %126, %435 : f32
              %437 = arith.addf %412, %436 : f32
              %438 = arith.mulf %0, %437 : f32
              %439 = memref.load %arg14[%285] : memref<?xf32>
              %440 = arith.mulf %286, %cst_3 : f32
              %441 = arith.addf %439, %440 : f32
              %442 = arith.mulf %283, %441 : f32
              %443 = arith.addi %190, %385 : i32
              %444 = arith.index_cast %443 : i32 to index
              %445 = memref.load %arg12[%444] : memref<?xf32>
              %446 = arith.mulf %442, %445 : f32
              %447 = arith.addf %280#0, %446 : f32
              %448 = arith.addf %438, %447 : f32
              %449 = arith.mulf %68, %126 : f32
              %450 = arith.addi %184, %129 : i32
              %451 = arith.addi %450, %53 : i32
              %452 = arith.addi %451, %294 : i32
              %453 = arith.index_cast %452 : i32 to index
              %454 = memref.load %arg12[%453] : memref<?xf32>
              %455 = arith.addi %184, %156 : i32
              %456 = arith.addi %455, %53 : i32
              %457 = arith.addi %456, %294 : i32
              %458 = arith.index_cast %457 : i32 to index
              %459 = memref.load %arg12[%458] : memref<?xf32>
              %460 = arith.subf %454, %459 : f32
              %461 = arith.addi %184, %115 : i32
              %462 = arith.addi %461, %53 : i32
              %463 = arith.addi %462, %294 : i32
              %464 = arith.index_cast %463 : i32 to index
              %465 = memref.load %arg12[%464] : memref<?xf32>
              %466 = arith.negf %465 : f32
              %467 = arith.addi %184, %142 : i32
              %468 = arith.addi %467, %53 : i32
              %469 = arith.addi %468, %294 : i32
              %470 = arith.index_cast %469 : i32 to index
              %471 = memref.load %arg12[%470] : memref<?xf32>
              %472 = arith.addf %466, %471 : f32
              %473 = arith.mulf %472, %cst_2 : f32
              %474 = arith.addf %460, %473 : f32
              %475 = arith.mulf %178, %474 : f32
              %476 = arith.addi %205, %129 : i32
              %477 = arith.addi %476, %53 : i32
              %478 = arith.addi %477, %294 : i32
              %479 = arith.index_cast %478 : i32 to index
              %480 = memref.load %arg12[%479] : memref<?xf32>
              %481 = arith.addi %205, %156 : i32
              %482 = arith.addi %481, %53 : i32
              %483 = arith.addi %482, %294 : i32
              %484 = arith.index_cast %483 : i32 to index
              %485 = memref.load %arg12[%484] : memref<?xf32>
              %486 = arith.subf %480, %485 : f32
              %487 = arith.addi %205, %115 : i32
              %488 = arith.addi %487, %53 : i32
              %489 = arith.addi %488, %294 : i32
              %490 = arith.index_cast %489 : i32 to index
              %491 = memref.load %arg12[%490] : memref<?xf32>
              %492 = arith.negf %491 : f32
              %493 = arith.addi %205, %142 : i32
              %494 = arith.addi %493, %53 : i32
              %495 = arith.addi %494, %294 : i32
              %496 = arith.index_cast %495 : i32 to index
              %497 = memref.load %arg12[%496] : memref<?xf32>
              %498 = arith.addf %492, %497 : f32
              %499 = arith.mulf %498, %cst_2 : f32
              %500 = arith.addf %486, %499 : f32
              %501 = arith.mulf %173, %500 : f32
              %502 = arith.mulf %501, %cst_2 : f32
              %503 = arith.subf %475, %502 : f32
              %504 = arith.addi %222, %129 : i32
              %505 = arith.addi %504, %53 : i32
              %506 = arith.addi %505, %294 : i32
              %507 = arith.index_cast %506 : i32 to index
              %508 = memref.load %arg12[%507] : memref<?xf32>
              %509 = arith.addi %222, %156 : i32
              %510 = arith.addi %509, %53 : i32
              %511 = arith.addi %510, %294 : i32
              %512 = arith.index_cast %511 : i32 to index
              %513 = memref.load %arg12[%512] : memref<?xf32>
              %514 = arith.subf %508, %513 : f32
              %515 = arith.addi %222, %115 : i32
              %516 = arith.addi %515, %53 : i32
              %517 = arith.addi %516, %294 : i32
              %518 = arith.index_cast %517 : i32 to index
              %519 = memref.load %arg12[%518] : memref<?xf32>
              %520 = arith.negf %519 : f32
              %521 = arith.addi %222, %142 : i32
              %522 = arith.addi %521, %53 : i32
              %523 = arith.addi %522, %294 : i32
              %524 = arith.index_cast %523 : i32 to index
              %525 = memref.load %arg12[%524] : memref<?xf32>
              %526 = arith.addf %520, %525 : f32
              %527 = arith.mulf %526, %cst_2 : f32
              %528 = arith.addf %514, %527 : f32
              %529 = arith.mulf %199, %528 : f32
              %530 = arith.mulf %529, %cst_2 : f32
              %531 = arith.addf %503, %530 : f32
              %532 = arith.addi %236, %129 : i32
              %533 = arith.addi %532, %53 : i32
              %534 = arith.addi %533, %294 : i32
              %535 = arith.index_cast %534 : i32 to index
              %536 = memref.load %arg12[%535] : memref<?xf32>
              %537 = arith.addi %236, %156 : i32
              %538 = arith.addi %537, %53 : i32
              %539 = arith.addi %538, %294 : i32
              %540 = arith.index_cast %539 : i32 to index
              %541 = memref.load %arg12[%540] : memref<?xf32>
              %542 = arith.subf %536, %541 : f32
              %543 = arith.addi %236, %115 : i32
              %544 = arith.addi %543, %53 : i32
              %545 = arith.addi %544, %294 : i32
              %546 = arith.index_cast %545 : i32 to index
              %547 = memref.load %arg12[%546] : memref<?xf32>
              %548 = arith.negf %547 : f32
              %549 = arith.addi %236, %142 : i32
              %550 = arith.addi %549, %53 : i32
              %551 = arith.addi %550, %294 : i32
              %552 = arith.index_cast %551 : i32 to index
              %553 = memref.load %arg12[%552] : memref<?xf32>
              %554 = arith.addf %548, %553 : f32
              %555 = arith.mulf %554, %cst_2 : f32
              %556 = arith.addf %542, %555 : f32
              %557 = arith.mulf %216, %556 : f32
              %558 = arith.subf %531, %557 : f32
              %559 = arith.mulf %2, %558 : f32
              %560 = arith.subf %454, %536 : f32
              %561 = arith.negf %480 : f32
              %562 = arith.addf %561, %508 : f32
              %563 = arith.mulf %562, %cst_2 : f32
              %564 = arith.addf %560, %563 : f32
              %565 = arith.mulf %133, %564 : f32
              %566 = arith.subf %465, %547 : f32
              %567 = arith.addf %492, %519 : f32
              %568 = arith.mulf %567, %cst_2 : f32
              %569 = arith.addf %566, %568 : f32
              %570 = arith.mulf %119, %569 : f32
              %571 = arith.mulf %570, %cst_2 : f32
              %572 = arith.subf %565, %571 : f32
              %573 = arith.subf %471, %553 : f32
              %574 = arith.negf %497 : f32
              %575 = arith.addf %574, %525 : f32
              %576 = arith.mulf %575, %cst_2 : f32
              %577 = arith.addf %573, %576 : f32
              %578 = arith.mulf %146, %577 : f32
              %579 = arith.mulf %578, %cst_2 : f32
              %580 = arith.addf %572, %579 : f32
              %581 = arith.subf %459, %541 : f32
              %582 = arith.negf %485 : f32
              %583 = arith.addf %582, %513 : f32
              %584 = arith.mulf %583, %cst_2 : f32
              %585 = arith.addf %581, %584 : f32
              %586 = arith.mulf %160, %585 : f32
              %587 = arith.subf %580, %586 : f32
              %588 = arith.mulf %2, %587 : f32
              %589 = arith.addf %559, %588 : f32
              %590 = arith.mulf %449, %589 : f32
              %591 = arith.addf %293, %590 : f32
              %592:4 = scf.for %arg22 = %c1 to %c9 step %c1 iter_args(%arg23 = %cst_7, %arg24 = %cst_7, %arg25 = %cst_7, %arg26 = %cst_7) -> (f32, f32, f32, f32) {
                %782 = arith.index_cast %arg22 : index to i32
                %783 = arith.addi %782, %c-1_i32 : i32
                %784 = arith.muli %783, %c6_i32 : i32
                %785 = arith.addi %281, %784 : i32
                %786 = arith.index_cast %785 : i32 to index
                %787 = memref.load %arg9[%786] : memref<?xf32>
                %788 = arith.muli %7, %782 : i32
                %789 = arith.addi %237, %788 : i32
                %790 = arith.addi %789, %385 : i32
                %791 = arith.index_cast %790 : i32 to index
                %792 = memref.load %arg12[%791] : memref<?xf32>
                %793 = arith.mulf %787, %792 : f32
                %794 = arith.addf %arg26, %793 : f32
                %795 = arith.addi %223, %788 : i32
                %796 = arith.addi %795, %385 : i32
                %797 = arith.index_cast %796 : i32 to index
                %798 = memref.load %arg12[%797] : memref<?xf32>
                %799 = arith.mulf %787, %798 : f32
                %800 = arith.addf %arg25, %799 : f32
                %801 = arith.addi %206, %788 : i32
                %802 = arith.addi %801, %385 : i32
                %803 = arith.index_cast %802 : i32 to index
                %804 = memref.load %arg12[%803] : memref<?xf32>
                %805 = arith.mulf %787, %804 : f32
                %806 = arith.addf %arg24, %805 : f32
                %807 = arith.addi %185, %788 : i32
                %808 = arith.addi %807, %385 : i32
                %809 = arith.index_cast %808 : i32 to index
                %810 = memref.load %arg12[%809] : memref<?xf32>
                %811 = arith.mulf %787, %810 : f32
                %812 = arith.addf %arg23, %811 : f32
                scf.yield %812, %806, %800, %794 : f32, f32, f32, f32
              }
              %593 = arith.negf %216 : f32
              %594 = arith.mulf %593, %592#3 : f32
              %595 = arith.mulf %199, %cst_2 : f32
              %596 = arith.mulf %595, %592#2 : f32
              %597 = arith.addf %594, %596 : f32
              %598 = arith.mulf %173, %cst_2 : f32
              %599 = arith.mulf %598, %592#1 : f32
              %600 = arith.subf %597, %599 : f32
              %601 = arith.mulf %178, %592#0 : f32
              %602 = arith.addf %600, %601 : f32
              %603 = arith.mulf %1, %602 : f32
              %604 = arith.mulf %68, %603 : f32
              %605 = arith.addf %591, %604 : f32
              %606 = scf.for %arg22 = %c1 to %c9 step %c1 iter_args(%arg23 = %cst_7) -> (f32) {
                %782 = arith.index_cast %arg22 : index to i32
                %783 = arith.addi %782, %c-1_i32 : i32
                %784 = arith.muli %783, %c6_i32 : i32
                %785 = arith.addi %281, %784 : i32
                %786 = arith.index_cast %785 : i32 to index
                %787 = memref.load %arg9[%786] : memref<?xf32>
                %788 = arith.muli %7, %782 : i32
                %789 = arith.addi %62, %788 : i32
                %790 = arith.index_cast %789 : i32 to index
                %791 = memref.load %arg13[%790] : memref<?xf32>
                %792 = arith.mulf %791, %1 : f32
                %793 = arith.addi %237, %788 : i32
                %794 = arith.addi %793, %385 : i32
                %795 = arith.index_cast %794 : i32 to index
                %796 = memref.load %arg12[%795] : memref<?xf32>
                %797 = arith.negf %796 : f32
                %798 = arith.addi %223, %788 : i32
                %799 = arith.addi %798, %385 : i32
                %800 = arith.index_cast %799 : i32 to index
                %801 = memref.load %arg12[%800] : memref<?xf32>
                %802 = arith.mulf %801, %cst_2 : f32
                %803 = arith.addf %797, %802 : f32
                %804 = arith.addi %206, %788 : i32
                %805 = arith.addi %804, %385 : i32
                %806 = arith.index_cast %805 : i32 to index
                %807 = memref.load %arg12[%806] : memref<?xf32>
                %808 = arith.mulf %807, %cst_2 : f32
                %809 = arith.subf %803, %808 : f32
                %810 = arith.addi %185, %788 : i32
                %811 = arith.addi %810, %385 : i32
                %812 = arith.index_cast %811 : i32 to index
                %813 = memref.load %arg12[%812] : memref<?xf32>
                %814 = arith.addf %809, %813 : f32
                %815 = arith.mulf %792, %814 : f32
                %816 = arith.mulf %787, %815 : f32
                %817 = arith.addf %arg23, %816 : f32
                scf.yield %817 : f32
              }
              %607 = arith.mulf %68, %606 : f32
              %608 = arith.addf %605, %607 : f32
              %609 = arith.addi %451, %10 : i32
              %610 = arith.index_cast %609 : i32 to index
              %611 = memref.load %arg12[%610] : memref<?xf32>
              %612 = arith.addi %456, %10 : i32
              %613 = arith.index_cast %612 : i32 to index
              %614 = memref.load %arg12[%613] : memref<?xf32>
              %615 = arith.subf %611, %614 : f32
              %616 = arith.addi %462, %10 : i32
              %617 = arith.index_cast %616 : i32 to index
              %618 = memref.load %arg12[%617] : memref<?xf32>
              %619 = arith.negf %618 : f32
              %620 = arith.addi %468, %10 : i32
              %621 = arith.index_cast %620 : i32 to index
              %622 = memref.load %arg12[%621] : memref<?xf32>
              %623 = arith.addf %619, %622 : f32
              %624 = arith.mulf %623, %cst_2 : f32
              %625 = arith.addf %615, %624 : f32
              %626 = arith.mulf %74, %625 : f32
              %627 = arith.addi %477, %10 : i32
              %628 = arith.index_cast %627 : i32 to index
              %629 = memref.load %arg12[%628] : memref<?xf32>
              %630 = arith.addi %482, %10 : i32
              %631 = arith.index_cast %630 : i32 to index
              %632 = memref.load %arg12[%631] : memref<?xf32>
              %633 = arith.subf %629, %632 : f32
              %634 = arith.addi %488, %10 : i32
              %635 = arith.index_cast %634 : i32 to index
              %636 = memref.load %arg12[%635] : memref<?xf32>
              %637 = arith.negf %636 : f32
              %638 = arith.addi %494, %10 : i32
              %639 = arith.index_cast %638 : i32 to index
              %640 = memref.load %arg12[%639] : memref<?xf32>
              %641 = arith.addf %637, %640 : f32
              %642 = arith.mulf %641, %cst_2 : f32
              %643 = arith.addf %633, %642 : f32
              %644 = arith.mulf %56, %643 : f32
              %645 = arith.mulf %644, %cst_2 : f32
              %646 = arith.subf %626, %645 : f32
              %647 = arith.addi %505, %10 : i32
              %648 = arith.index_cast %647 : i32 to index
              %649 = memref.load %arg12[%648] : memref<?xf32>
              %650 = arith.addi %510, %10 : i32
              %651 = arith.index_cast %650 : i32 to index
              %652 = memref.load %arg12[%651] : memref<?xf32>
              %653 = arith.subf %649, %652 : f32
              %654 = arith.addi %516, %10 : i32
              %655 = arith.index_cast %654 : i32 to index
              %656 = memref.load %arg12[%655] : memref<?xf32>
              %657 = arith.negf %656 : f32
              %658 = arith.addi %522, %10 : i32
              %659 = arith.index_cast %658 : i32 to index
              %660 = memref.load %arg12[%659] : memref<?xf32>
              %661 = arith.addf %657, %660 : f32
              %662 = arith.mulf %661, %cst_2 : f32
              %663 = arith.addf %653, %662 : f32
              %664 = arith.mulf %87, %663 : f32
              %665 = arith.mulf %664, %cst_2 : f32
              %666 = arith.addf %646, %665 : f32
              %667 = arith.addi %533, %10 : i32
              %668 = arith.index_cast %667 : i32 to index
              %669 = memref.load %arg12[%668] : memref<?xf32>
              %670 = arith.addi %538, %10 : i32
              %671 = arith.index_cast %670 : i32 to index
              %672 = memref.load %arg12[%671] : memref<?xf32>
              %673 = arith.subf %669, %672 : f32
              %674 = arith.addi %544, %10 : i32
              %675 = arith.index_cast %674 : i32 to index
              %676 = memref.load %arg12[%675] : memref<?xf32>
              %677 = arith.negf %676 : f32
              %678 = arith.addi %550, %10 : i32
              %679 = arith.index_cast %678 : i32 to index
              %680 = memref.load %arg12[%679] : memref<?xf32>
              %681 = arith.addf %677, %680 : f32
              %682 = arith.mulf %681, %cst_2 : f32
              %683 = arith.addf %673, %682 : f32
              %684 = arith.mulf %101, %683 : f32
              %685 = arith.subf %666, %684 : f32
              %686 = arith.mulf %2, %685 : f32
              %687 = arith.subf %611, %669 : f32
              %688 = arith.negf %629 : f32
              %689 = arith.addf %688, %649 : f32
              %690 = arith.mulf %689, %cst_2 : f32
              %691 = arith.addf %687, %690 : f32
              %692 = arith.mulf %327, %691 : f32
              %693 = arith.subf %618, %676 : f32
              %694 = arith.addf %637, %656 : f32
              %695 = arith.mulf %694, %cst_2 : f32
              %696 = arith.addf %693, %695 : f32
              %697 = arith.mulf %323, %696 : f32
              %698 = arith.mulf %697, %cst_2 : f32
              %699 = arith.subf %692, %698 : f32
              %700 = arith.subf %622, %680 : f32
              %701 = arith.negf %640 : f32
              %702 = arith.addf %701, %660 : f32
              %703 = arith.mulf %702, %cst_2 : f32
              %704 = arith.addf %700, %703 : f32
              %705 = arith.mulf %339, %704 : f32
              %706 = arith.mulf %705, %cst_2 : f32
              %707 = arith.addf %699, %706 : f32
              %708 = arith.subf %614, %672 : f32
              %709 = arith.negf %632 : f32
              %710 = arith.addf %709, %652 : f32
              %711 = arith.mulf %710, %cst_2 : f32
              %712 = arith.addf %708, %711 : f32
              %713 = arith.mulf %353, %712 : f32
              %714 = arith.subf %707, %713 : f32
              %715 = arith.mulf %2, %714 : f32
              %716 = arith.addf %686, %715 : f32
              %717 = arith.mulf %449, %716 : f32
              %718 = arith.addf %384, %717 : f32
              %719:4 = scf.for %arg22 = %c1 to %c9 step %c1 iter_args(%arg23 = %cst_7, %arg24 = %cst_7, %arg25 = %cst_7, %arg26 = %cst_7) -> (f32, f32, f32, f32) {
                %782 = arith.index_cast %arg22 : index to i32
                %783 = arith.addi %782, %c-1_i32 : i32
                %784 = arith.muli %783, %c6_i32 : i32
                %785 = arith.addi %281, %784 : i32
                %786 = arith.index_cast %785 : i32 to index
                %787 = memref.load %arg9[%786] : memref<?xf32>
                %788 = arith.muli %7, %782 : i32
                %789 = arith.addi %269, %788 : i32
                %790 = arith.addi %789, %385 : i32
                %791 = arith.index_cast %790 : i32 to index
                %792 = memref.load %arg12[%791] : memref<?xf32>
                %793 = arith.mulf %787, %792 : f32
                %794 = arith.addf %arg26, %793 : f32
                %795 = arith.addi %261, %788 : i32
                %796 = arith.addi %795, %385 : i32
                %797 = arith.index_cast %796 : i32 to index
                %798 = memref.load %arg12[%797] : memref<?xf32>
                %799 = arith.mulf %787, %798 : f32
                %800 = arith.addf %arg25, %799 : f32
                %801 = arith.addi %253, %788 : i32
                %802 = arith.addi %801, %385 : i32
                %803 = arith.index_cast %802 : i32 to index
                %804 = memref.load %arg12[%803] : memref<?xf32>
                %805 = arith.mulf %787, %804 : f32
                %806 = arith.addf %arg24, %805 : f32
                %807 = arith.addi %246, %788 : i32
                %808 = arith.addi %807, %385 : i32
                %809 = arith.index_cast %808 : i32 to index
                %810 = memref.load %arg12[%809] : memref<?xf32>
                %811 = arith.mulf %787, %810 : f32
                %812 = arith.addf %arg23, %811 : f32
                scf.yield %812, %806, %800, %794 : f32, f32, f32, f32
              }
              %720 = arith.negf %353 : f32
              %721 = arith.mulf %720, %719#3 : f32
              %722 = arith.mulf %339, %cst_2 : f32
              %723 = arith.mulf %722, %719#2 : f32
              %724 = arith.addf %721, %723 : f32
              %725 = arith.mulf %323, %cst_2 : f32
              %726 = arith.mulf %725, %719#1 : f32
              %727 = arith.subf %724, %726 : f32
              %728 = arith.mulf %327, %719#0 : f32
              %729 = arith.addf %727, %728 : f32
              %730 = arith.mulf %1, %729 : f32
              %731 = arith.mulf %126, %730 : f32
              %732 = arith.addf %718, %731 : f32
              %733 = scf.for %arg22 = %c1 to %c9 step %c1 iter_args(%arg23 = %cst_7) -> (f32) {
                %782 = arith.index_cast %arg22 : index to i32
                %783 = arith.addi %782, %c-1_i32 : i32
                %784 = arith.muli %783, %c6_i32 : i32
                %785 = arith.addi %281, %784 : i32
                %786 = arith.index_cast %785 : i32 to index
                %787 = memref.load %arg9[%786] : memref<?xf32>
                %788 = arith.muli %7, %782 : i32
                %789 = arith.addi %62, %788 : i32
                %790 = arith.index_cast %789 : i32 to index
                %791 = memref.load %arg13[%790] : memref<?xf32>
                %792 = arith.mulf %791, %1 : f32
                %793 = arith.addi %269, %788 : i32
                %794 = arith.addi %793, %385 : i32
                %795 = arith.index_cast %794 : i32 to index
                %796 = memref.load %arg12[%795] : memref<?xf32>
                %797 = arith.negf %796 : f32
                %798 = arith.addi %261, %788 : i32
                %799 = arith.addi %798, %385 : i32
                %800 = arith.index_cast %799 : i32 to index
                %801 = memref.load %arg12[%800] : memref<?xf32>
                %802 = arith.mulf %801, %cst_2 : f32
                %803 = arith.addf %797, %802 : f32
                %804 = arith.addi %253, %788 : i32
                %805 = arith.addi %804, %385 : i32
                %806 = arith.index_cast %805 : i32 to index
                %807 = memref.load %arg12[%806] : memref<?xf32>
                %808 = arith.mulf %807, %cst_2 : f32
                %809 = arith.subf %803, %808 : f32
                %810 = arith.addi %246, %788 : i32
                %811 = arith.addi %810, %385 : i32
                %812 = arith.index_cast %811 : i32 to index
                %813 = memref.load %arg12[%812] : memref<?xf32>
                %814 = arith.addf %809, %813 : f32
                %815 = arith.mulf %792, %814 : f32
                %816 = arith.mulf %787, %815 : f32
                %817 = arith.addf %arg23, %816 : f32
                scf.yield %817 : f32
              }
              %734 = arith.mulf %126, %733 : f32
              %735 = arith.addf %732, %734 : f32
              %736:4 = scf.for %arg22 = %c1 to %c9 step %c1 iter_args(%arg23 = %cst_7, %arg24 = %cst_7, %arg25 = %cst_7, %arg26 = %cst_7) -> (f32, f32, f32, f32) {
                %782 = arith.index_cast %arg22 : index to i32
                %783 = arith.addi %782, %c-1_i32 : i32
                %784 = arith.muli %783, %c6_i32 : i32
                %785 = arith.addi %281, %784 : i32
                %786 = arith.index_cast %785 : i32 to index
                %787 = memref.load %arg9[%786] : memref<?xf32>
                %788 = arith.muli %7, %782 : i32
                %789 = arith.addi %237, %788 : i32
                %790 = arith.addi %789, %10 : i32
                %791 = arith.index_cast %790 : i32 to index
                %792 = memref.load %arg12[%791] : memref<?xf32>
                %793 = arith.mulf %787, %792 : f32
                %794 = arith.addf %arg26, %793 : f32
                %795 = arith.addi %223, %788 : i32
                %796 = arith.addi %795, %10 : i32
                %797 = arith.index_cast %796 : i32 to index
                %798 = memref.load %arg12[%797] : memref<?xf32>
                %799 = arith.mulf %787, %798 : f32
                %800 = arith.addf %arg25, %799 : f32
                %801 = arith.addi %206, %788 : i32
                %802 = arith.addi %801, %10 : i32
                %803 = arith.index_cast %802 : i32 to index
                %804 = memref.load %arg12[%803] : memref<?xf32>
                %805 = arith.mulf %787, %804 : f32
                %806 = arith.addf %arg24, %805 : f32
                %807 = arith.addi %185, %788 : i32
                %808 = arith.addi %807, %10 : i32
                %809 = arith.index_cast %808 : i32 to index
                %810 = memref.load %arg12[%809] : memref<?xf32>
                %811 = arith.mulf %787, %810 : f32
                %812 = arith.addf %arg23, %811 : f32
                scf.yield %812, %806, %800, %794 : f32, f32, f32, f32
              }
              %737 = arith.negf %101 : f32
              %738 = arith.mulf %737, %736#3 : f32
              %739 = arith.mulf %87, %cst_2 : f32
              %740 = arith.mulf %739, %736#2 : f32
              %741 = arith.addf %738, %740 : f32
              %742 = arith.mulf %56, %cst_2 : f32
              %743 = arith.mulf %742, %736#1 : f32
              %744 = arith.subf %741, %743 : f32
              %745 = arith.mulf %74, %736#0 : f32
              %746 = arith.addf %744, %745 : f32
              %747 = arith.mulf %1, %746 : f32
              %748 = arith.mulf %68, %747 : f32
              %749 = arith.addf %448, %748 : f32
              %750:4 = scf.for %arg22 = %c1 to %c9 step %c1 iter_args(%arg23 = %cst_7, %arg24 = %cst_7, %arg25 = %cst_7, %arg26 = %cst_7) -> (f32, f32, f32, f32) {
                %782 = arith.index_cast %arg22 : index to i32
                %783 = arith.addi %782, %c-1_i32 : i32
                %784 = arith.muli %783, %c6_i32 : i32
                %785 = arith.addi %281, %784 : i32
                %786 = arith.index_cast %785 : i32 to index
                %787 = memref.load %arg9[%786] : memref<?xf32>
                %788 = arith.muli %7, %782 : i32
                %789 = arith.addi %269, %788 : i32
                %790 = arith.addi %789, %294 : i32
                %791 = arith.index_cast %790 : i32 to index
                %792 = memref.load %arg12[%791] : memref<?xf32>
                %793 = arith.mulf %787, %792 : f32
                %794 = arith.addf %arg26, %793 : f32
                %795 = arith.addi %261, %788 : i32
                %796 = arith.addi %795, %294 : i32
                %797 = arith.index_cast %796 : i32 to index
                %798 = memref.load %arg12[%797] : memref<?xf32>
                %799 = arith.mulf %787, %798 : f32
                %800 = arith.addf %arg25, %799 : f32
                %801 = arith.addi %253, %788 : i32
                %802 = arith.addi %801, %294 : i32
                %803 = arith.index_cast %802 : i32 to index
                %804 = memref.load %arg12[%803] : memref<?xf32>
                %805 = arith.mulf %787, %804 : f32
                %806 = arith.addf %arg24, %805 : f32
                %807 = arith.addi %246, %788 : i32
                %808 = arith.addi %807, %294 : i32
                %809 = arith.index_cast %808 : i32 to index
                %810 = memref.load %arg12[%809] : memref<?xf32>
                %811 = arith.mulf %787, %810 : f32
                %812 = arith.addf %arg23, %811 : f32
                scf.yield %812, %806, %800, %794 : f32, f32, f32, f32
              }
              %751 = arith.negf %160 : f32
              %752 = arith.mulf %751, %750#3 : f32
              %753 = arith.mulf %146, %cst_2 : f32
              %754 = arith.mulf %753, %750#2 : f32
              %755 = arith.addf %752, %754 : f32
              %756 = arith.mulf %119, %cst_2 : f32
              %757 = arith.mulf %756, %750#1 : f32
              %758 = arith.subf %755, %757 : f32
              %759 = arith.mulf %133, %750#0 : f32
              %760 = arith.addf %758, %759 : f32
              %761 = arith.mulf %1, %760 : f32
              %762 = arith.mulf %126, %761 : f32
              %763 = arith.addf %749, %762 : f32
              %764 = scf.for %arg22 = %c1 to %c9 step %c1 iter_args(%arg23 = %cst_7) -> (f32) {
                %782 = arith.index_cast %arg22 : index to i32
                %783 = arith.addi %782, %c-1_i32 : i32
                %784 = arith.muli %783, %c6_i32 : i32
                %785 = arith.addi %281, %784 : i32
                %786 = arith.index_cast %785 : i32 to index
                %787 = memref.load %arg9[%786] : memref<?xf32>
                %788 = arith.muli %7, %782 : i32
                %789 = arith.addi %62, %788 : i32
                %790 = arith.index_cast %789 : i32 to index
                %791 = memref.load %arg14[%790] : memref<?xf32>
                %792 = arith.mulf %791, %1 : f32
                %793 = arith.addi %237, %788 : i32
                %794 = arith.addi %793, %10 : i32
                %795 = arith.index_cast %794 : i32 to index
                %796 = memref.load %arg12[%795] : memref<?xf32>
                %797 = arith.negf %796 : f32
                %798 = arith.addi %223, %788 : i32
                %799 = arith.addi %798, %10 : i32
                %800 = arith.index_cast %799 : i32 to index
                %801 = memref.load %arg12[%800] : memref<?xf32>
                %802 = arith.mulf %801, %cst_2 : f32
                %803 = arith.addf %797, %802 : f32
                %804 = arith.addi %206, %788 : i32
                %805 = arith.addi %804, %10 : i32
                %806 = arith.index_cast %805 : i32 to index
                %807 = memref.load %arg12[%806] : memref<?xf32>
                %808 = arith.mulf %807, %cst_2 : f32
                %809 = arith.subf %803, %808 : f32
                %810 = arith.addi %185, %788 : i32
                %811 = arith.addi %810, %10 : i32
                %812 = arith.index_cast %811 : i32 to index
                %813 = memref.load %arg12[%812] : memref<?xf32>
                %814 = arith.addf %809, %813 : f32
                %815 = arith.mulf %792, %814 : f32
                %816 = arith.mulf %787, %815 : f32
                %817 = arith.addf %arg23, %816 : f32
                scf.yield %817 : f32
              }
              %765 = arith.mulf %68, %764 : f32
              %766 = arith.addf %763, %765 : f32
              %767 = scf.for %arg22 = %c1 to %c9 step %c1 iter_args(%arg23 = %cst_7) -> (f32) {
                %782 = arith.index_cast %arg22 : index to i32
                %783 = arith.addi %782, %c-1_i32 : i32
                %784 = arith.muli %783, %c6_i32 : i32
                %785 = arith.addi %281, %784 : i32
                %786 = arith.index_cast %785 : i32 to index
                %787 = memref.load %arg9[%786] : memref<?xf32>
                %788 = arith.muli %7, %782 : i32
                %789 = arith.addi %62, %788 : i32
                %790 = arith.index_cast %789 : i32 to index
                %791 = memref.load %arg14[%790] : memref<?xf32>
                %792 = arith.mulf %791, %1 : f32
                %793 = arith.addi %269, %788 : i32
                %794 = arith.addi %793, %294 : i32
                %795 = arith.index_cast %794 : i32 to index
                %796 = memref.load %arg12[%795] : memref<?xf32>
                %797 = arith.negf %796 : f32
                %798 = arith.addi %261, %788 : i32
                %799 = arith.addi %798, %294 : i32
                %800 = arith.index_cast %799 : i32 to index
                %801 = memref.load %arg12[%800] : memref<?xf32>
                %802 = arith.mulf %801, %cst_2 : f32
                %803 = arith.addf %797, %802 : f32
                %804 = arith.addi %253, %788 : i32
                %805 = arith.addi %804, %294 : i32
                %806 = arith.index_cast %805 : i32 to index
                %807 = memref.load %arg12[%806] : memref<?xf32>
                %808 = arith.mulf %807, %cst_2 : f32
                %809 = arith.subf %803, %808 : f32
                %810 = arith.addi %246, %788 : i32
                %811 = arith.addi %810, %294 : i32
                %812 = arith.index_cast %811 : i32 to index
                %813 = memref.load %arg12[%812] : memref<?xf32>
                %814 = arith.addf %809, %813 : f32
                %815 = arith.mulf %792, %814 : f32
                %816 = arith.mulf %787, %815 : f32
                %817 = arith.addf %arg23, %816 : f32
                scf.yield %817 : f32
              }
              %768 = arith.mulf %126, %767 : f32
              %769 = arith.addf %766, %768 : f32
              %770 = memref.load %arg11[%193] : memref<?xf32>
              %771 = arith.mulf %770, %cst_7 : f32
              %772 = arith.mulf %20, %608 : f32
              %773 = arith.addf %771, %772 : f32
              memref.store %773, %arg11[%193] : memref<?xf32>
              %774 = memref.load %arg11[%299] : memref<?xf32>
              %775 = arith.mulf %774, %cst_7 : f32
              %776 = arith.mulf %20, %735 : f32
              %777 = arith.addf %775, %776 : f32
              memref.store %777, %arg11[%299] : memref<?xf32>
              %778 = memref.load %arg11[%390] : memref<?xf32>
              %779 = arith.mulf %778, %cst_7 : f32
              %780 = arith.mulf %20, %769 : f32
              %781 = arith.addf %779, %780 : f32
              memref.store %781, %arg11[%390] : memref<?xf32>
            }
          }
        }}
      }
      %36 = memref.load %arg7[%c5] : memref<?xi32>
      %37 = arith.cmpi eq, %36, %c1_i32 : i32
      scf.if %37 {
        %38 = arith.addi %arg6, %c-5_i32 : i32
        %39 = arith.index_cast %38 : i32 to index
        %40 = arith.subi %arg6, %38 : i32
        %41 = arith.addi %40, %c1_i32 : i32
        %42 = arith.addi %38, %41 : i32
        %43 = arith.index_cast %42 : i32 to index
        arts.for(%39) to(%43) step(%c1) {{
        ^bb0(%arg19: index):
          %44 = arith.index_cast %arg19 : index to i32
          %45 = arith.addi %arg2, %c2_i32 : i32
          %46 = arith.addi %arg3, %c-1_i32 : i32
          %47 = arith.index_cast %46 : i32 to index
          %48 = arith.index_cast %45 : i32 to index
          scf.for %arg20 = %48 to %47 step %c1 {
            %49 = arith.index_cast %arg20 : index to i32
            %50 = arith.addi %arg0, %c2_i32 : i32
            %51 = arith.addi %arg1, %c-1_i32 : i32
            %52 = arith.index_cast %51 : i32 to index
            %53 = arith.index_cast %50 : i32 to index
            scf.for %arg21 = %53 to %52 step %c1 {
              %54 = arith.index_cast %arg21 : index to i32
              %55 = arith.addi %15, %54 : i32
              %56 = arith.addi %55, %c-1_i32 : i32
              %57 = arith.muli %4, %49 : i32
              %58 = arith.addi %56, %57 : i32
              %59 = arith.muli %7, %44 : i32
              %60 = arith.addi %58, %59 : i32
              %61 = arith.index_cast %60 : i32 to index
              %62 = memref.load %arg13[%61] : memref<?xf32>
              %63 = arith.addi %54, %c-1_i32 : i32
              %64 = arith.subi %63, %arg0 : i32
              %65 = arith.index_cast %64 : i32 to index
              %66 = memref.load %arg16[%65] : memref<?xf32>
              %67 = arith.mulf %62, %66 : f32
              %68 = arith.addi %55, %57 : i32
              %69 = arith.addi %68, %59 : i32
              %70 = arith.index_cast %69 : i32 to index
              %71 = memref.load %arg13[%70] : memref<?xf32>
              %72 = arith.subi %54, %arg0 : i32
              %73 = arith.index_cast %72 : i32 to index
              %74 = memref.load %arg16[%73] : memref<?xf32>
              %75 = arith.mulf %71, %74 : f32
              %76 = arith.addi %55, %c-2_i32 : i32
              %77 = arith.addi %76, %57 : i32
              %78 = arith.addi %77, %59 : i32
              %79 = arith.index_cast %78 : i32 to index
              %80 = memref.load %arg13[%79] : memref<?xf32>
              %81 = arith.addi %54, %c-2_i32 : i32
              %82 = arith.subi %81, %arg0 : i32
              %83 = arith.index_cast %82 : i32 to index
              %84 = memref.load %arg16[%83] : memref<?xf32>
              %85 = arith.mulf %80, %84 : f32
              %86 = arith.addf %75, %85 : f32
              %87 = arith.mulf %86, %cst_5 : f32
              %88 = arith.subf %67, %87 : f32
              %89 = arith.addi %55, %c1_i32 : i32
              %90 = arith.addi %89, %57 : i32
              %91 = arith.addi %90, %59 : i32
              %92 = arith.index_cast %91 : i32 to index
              %93 = memref.load %arg13[%92] : memref<?xf32>
              %94 = arith.addi %54, %c1_i32 : i32
              %95 = arith.subi %94, %arg0 : i32
              %96 = arith.index_cast %95 : i32 to index
              %97 = memref.load %arg16[%96] : memref<?xf32>
              %98 = arith.mulf %93, %97 : f32
              %99 = arith.addf %85, %98 : f32
              %100 = arith.addf %75, %67 : f32
              %101 = arith.mulf %100, %cst_4 : f32
              %102 = arith.addf %99, %101 : f32
              %103 = arith.addi %55, %c2_i32 : i32
              %104 = arith.addi %103, %57 : i32
              %105 = arith.addi %104, %59 : i32
              %106 = arith.index_cast %105 : i32 to index
              %107 = memref.load %arg13[%106] : memref<?xf32>
              %108 = arith.addi %54, %c2_i32 : i32
              %109 = arith.subi %108, %arg0 : i32
              %110 = arith.index_cast %109 : i32 to index
              %111 = memref.load %arg16[%110] : memref<?xf32>
              %112 = arith.mulf %107, %111 : f32
              %113 = arith.addf %67, %112 : f32
              %114 = arith.addf %98, %75 : f32
              %115 = arith.mulf %114, %cst_4 : f32
              %116 = arith.addf %113, %115 : f32
              %117 = arith.addf %75, %112 : f32
              %118 = arith.mulf %117, %cst_5 : f32
              %119 = arith.subf %98, %118 : f32
              %120 = arith.addi %49, %c-1_i32 : i32
              %121 = arith.muli %4, %120 : i32
              %122 = arith.addi %55, %121 : i32
              %123 = arith.addi %122, %59 : i32
              %124 = arith.index_cast %123 : i32 to index
              %125 = memref.load %arg13[%124] : memref<?xf32>
              %126 = arith.subi %120, %arg2 : i32
              %127 = arith.index_cast %126 : i32 to index
              %128 = memref.load %arg17[%127] : memref<?xf32>
              %129 = arith.mulf %125, %128 : f32
              %130 = arith.subi %49, %arg2 : i32
              %131 = arith.index_cast %130 : i32 to index
              %132 = memref.load %arg17[%131] : memref<?xf32>
              %133 = arith.mulf %71, %132 : f32
              %134 = arith.addi %49, %c-2_i32 : i32
              %135 = arith.muli %4, %134 : i32
              %136 = arith.addi %55, %135 : i32
              %137 = arith.addi %136, %59 : i32
              %138 = arith.index_cast %137 : i32 to index
              %139 = memref.load %arg13[%138] : memref<?xf32>
              %140 = arith.subi %134, %arg2 : i32
              %141 = arith.index_cast %140 : i32 to index
              %142 = memref.load %arg17[%141] : memref<?xf32>
              %143 = arith.mulf %139, %142 : f32
              %144 = arith.addf %133, %143 : f32
              %145 = arith.mulf %144, %cst_5 : f32
              %146 = arith.subf %129, %145 : f32
              %147 = arith.addi %49, %c1_i32 : i32
              %148 = arith.muli %4, %147 : i32
              %149 = arith.addi %55, %148 : i32
              %150 = arith.addi %149, %59 : i32
              %151 = arith.index_cast %150 : i32 to index
              %152 = memref.load %arg13[%151] : memref<?xf32>
              %153 = arith.subi %147, %arg2 : i32
              %154 = arith.index_cast %153 : i32 to index
              %155 = memref.load %arg17[%154] : memref<?xf32>
              %156 = arith.mulf %152, %155 : f32
              %157 = arith.addf %143, %156 : f32
              %158 = arith.addf %133, %129 : f32
              %159 = arith.mulf %158, %cst_4 : f32
              %160 = arith.addf %157, %159 : f32
              %161 = arith.addi %49, %c2_i32 : i32
              %162 = arith.muli %4, %161 : i32
              %163 = arith.addi %55, %162 : i32
              %164 = arith.addi %163, %59 : i32
              %165 = arith.index_cast %164 : i32 to index
              %166 = memref.load %arg13[%165] : memref<?xf32>
              %167 = arith.subi %161, %arg2 : i32
              %168 = arith.index_cast %167 : i32 to index
              %169 = memref.load %arg17[%168] : memref<?xf32>
              %170 = arith.mulf %166, %169 : f32
              %171 = arith.addf %129, %170 : f32
              %172 = arith.addf %156, %133 : f32
              %173 = arith.mulf %172, %cst_4 : f32
              %174 = arith.addf %171, %173 : f32
              %175 = arith.addf %133, %170 : f32
              %176 = arith.mulf %175, %cst_5 : f32
              %177 = arith.subf %156, %176 : f32
              %178 = arith.mulf %88, %cst_3 : f32
              %179 = memref.load %arg14[%61] : memref<?xf32>
              %180 = arith.mulf %179, %66 : f32
              %181 = arith.addf %178, %180 : f32
              %182 = memref.load %arg14[%70] : memref<?xf32>
              %183 = arith.mulf %182, %74 : f32
              %184 = memref.load %arg14[%79] : memref<?xf32>
              %185 = arith.mulf %184, %84 : f32
              %186 = arith.addf %183, %185 : f32
              %187 = arith.mulf %186, %cst_5 : f32
              %188 = arith.subf %181, %187 : f32
              %189 = arith.addi %16, %54 : i32
              %190 = arith.addi %189, %c-2_i32 : i32
              %191 = arith.addi %190, %57 : i32
              %192 = arith.addi %191, %59 : i32
              %193 = arith.addi %192, %10 : i32
              %194 = arith.index_cast %193 : i32 to index
              %195 = memref.load %arg12[%194] : memref<?xf32>
              %196 = arith.addi %189, %57 : i32
              %197 = arith.addi %196, %59 : i32
              %198 = arith.addi %197, %10 : i32
              %199 = arith.index_cast %198 : i32 to index
              %200 = memref.load %arg12[%199] : memref<?xf32>
              %201 = arith.subf %195, %200 : f32
              %202 = arith.mulf %188, %201 : f32
              %203 = arith.mulf %102, %cst_3 : f32
              %204 = arith.addf %203, %185 : f32
              %205 = memref.load %arg14[%92] : memref<?xf32>
              %206 = arith.mulf %205, %97 : f32
              %207 = arith.addf %204, %206 : f32
              %208 = arith.addf %183, %180 : f32
              %209 = arith.mulf %208, %cst_4 : f32
              %210 = arith.addf %207, %209 : f32
              %211 = arith.addi %189, %c-1_i32 : i32
              %212 = arith.addi %211, %57 : i32
              %213 = arith.addi %212, %59 : i32
              %214 = arith.addi %213, %10 : i32
              %215 = arith.index_cast %214 : i32 to index
              %216 = memref.load %arg12[%215] : memref<?xf32>
              %217 = arith.subf %216, %200 : f32
              %218 = arith.mulf %210, %217 : f32
              %219 = arith.addf %202, %218 : f32
              %220 = arith.mulf %116, %cst_3 : f32
              %221 = arith.addf %220, %180 : f32
              %222 = memref.load %arg14[%106] : memref<?xf32>
              %223 = arith.mulf %222, %111 : f32
              %224 = arith.addf %221, %223 : f32
              %225 = arith.addf %206, %183 : f32
              %226 = arith.mulf %225, %cst_4 : f32
              %227 = arith.addf %224, %226 : f32
              %228 = arith.addi %189, %c1_i32 : i32
              %229 = arith.addi %228, %57 : i32
              %230 = arith.addi %229, %59 : i32
              %231 = arith.addi %230, %10 : i32
              %232 = arith.index_cast %231 : i32 to index
              %233 = memref.load %arg12[%232] : memref<?xf32>
              %234 = arith.subf %233, %200 : f32
              %235 = arith.mulf %227, %234 : f32
              %236 = arith.addf %219, %235 : f32
              %237 = arith.mulf %119, %cst_3 : f32
              %238 = arith.addf %237, %206 : f32
              %239 = arith.addf %183, %223 : f32
              %240 = arith.mulf %239, %cst_5 : f32
              %241 = arith.subf %238, %240 : f32
              %242 = arith.addi %189, %c2_i32 : i32
              %243 = arith.addi %242, %57 : i32
              %244 = arith.addi %243, %59 : i32
              %245 = arith.addi %244, %10 : i32
              %246 = arith.index_cast %245 : i32 to index
              %247 = memref.load %arg12[%246] : memref<?xf32>
              %248 = arith.subf %247, %200 : f32
              %249 = arith.mulf %241, %248 : f32
              %250 = arith.addf %236, %249 : f32
              %251 = arith.mulf %74, %250 : f32
              %252 = arith.addi %189, %135 : i32
              %253 = arith.addi %252, %59 : i32
              %254 = arith.addi %253, %10 : i32
              %255 = arith.index_cast %254 : i32 to index
              %256 = memref.load %arg12[%255] : memref<?xf32>
              %257 = arith.subf %256, %200 : f32
              %258 = arith.mulf %146, %257 : f32
              %259 = arith.addi %189, %121 : i32
              %260 = arith.addi %259, %59 : i32
              %261 = arith.addi %260, %10 : i32
              %262 = arith.index_cast %261 : i32 to index
              %263 = memref.load %arg12[%262] : memref<?xf32>
              %264 = arith.subf %263, %200 : f32
              %265 = arith.mulf %160, %264 : f32
              %266 = arith.addf %258, %265 : f32
              %267 = arith.addi %189, %148 : i32
              %268 = arith.addi %267, %59 : i32
              %269 = arith.addi %268, %10 : i32
              %270 = arith.index_cast %269 : i32 to index
              %271 = memref.load %arg12[%270] : memref<?xf32>
              %272 = arith.subf %271, %200 : f32
              %273 = arith.mulf %174, %272 : f32
              %274 = arith.addf %266, %273 : f32
              %275 = arith.addi %189, %162 : i32
              %276 = arith.addi %275, %59 : i32
              %277 = arith.addi %276, %10 : i32
              %278 = arith.index_cast %277 : i32 to index
              %279 = memref.load %arg12[%278] : memref<?xf32>
              %280 = arith.subf %279, %200 : f32
              %281 = arith.mulf %177, %280 : f32
              %282 = arith.addf %274, %281 : f32
              %283 = arith.mulf %132, %282 : f32
              %284 = arith.addf %251, %283 : f32
              %285 = arith.mulf %0, %284 : f32
              %286 = arith.subi %arg6, %44 : i32
              %287:3 = scf.for %arg22 = %c1 to %c9 step %c1 iter_args(%arg23 = %cst_7, %arg24 = %cst_7, %arg25 = %cst_7) -> (f32, f32, f32) {
                %792 = arith.index_cast %arg22 : index to i32
                %793:2 = scf.for %arg26 = %c1 to %c9 step %c1 iter_args(%arg27 = %cst_7, %arg28 = %cst_7) -> (f32, f32) {
                  %815 = arith.index_cast %arg26 : index to i32
                  %816 = arith.addi %792, %c-1_i32 : i32
                  %817 = arith.muli %816, %c6_i32 : i32
                  %818 = arith.addi %286, %817 : i32
                  %819 = arith.addi %815, %c-1_i32 : i32
                  %820 = arith.muli %819, %c48_i32 : i32
                  %821 = arith.addi %818, %820 : i32
                  %822 = arith.index_cast %821 : i32 to index
                  %823 = memref.load %arg8[%822] : memref<?xf32>
                  %824 = arith.subi %arg6, %815 : i32
…
              %318 = arith.addf %312, %317 : f32
              %319 = arith.addi %230, %304 : i32
              %320 = arith.index_cast %319 : i32 to index
              %321 = memref.load %arg12[%320] : memref<?xf32>
              %322 = arith.subf %321, %310 : f32
              %323 = arith.mulf %116, %322 : f32
              %324 = arith.addf %318, %323 : f32
              %325 = arith.addi %244, %304 : i32
              %326 = arith.index_cast %325 : i32 to index
              %327 = memref.load %arg12[%326] : memref<?xf32>
              %328 = arith.subf %327, %310 : f32
              %329 = arith.mulf %119, %328 : f32
              %330 = arith.addf %324, %329 : f32
              %331 = arith.mulf %74, %330 : f32
              %332 = arith.mulf %146, %cst_3 : f32
              %333 = memref.load %arg14[%124] : memref<?xf32>
              %334 = arith.mulf %333, %128 : f32
              %335 = arith.addf %332, %334 : f32
              %336 = arith.mulf %182, %132 : f32
              %337 = memref.load %arg14[%138] : memref<?xf32>
              %338 = arith.mulf %337, %142 : f32
              %339 = arith.addf %336, %338 : f32
              %340 = arith.mulf %339, %cst_5 : f32
              %341 = arith.subf %335, %340 : f32
              %342 = arith.addi %253, %304 : i32
              %343 = arith.index_cast %342 : i32 to index
              %344 = memref.load %arg12[%343] : memref<?xf32>
              %345 = arith.subf %344, %310 : f32
              %346 = arith.mulf %341, %345 : f32
              %347 = arith.mulf %160, %cst_3 : f32
              %348 = arith.addf %347, %338 : f32
              %349 = memref.load %arg14[%151] : memref<?xf32>
              %350 = arith.mulf %349, %155 : f32
              %351 = arith.addf %348, %350 : f32
              %352 = arith.addf %336, %334 : f32
              %353 = arith.mulf %352, %cst_4 : f32
              %354 = arith.addf %351, %353 : f32
              %355 = arith.addi %260, %304 : i32
              %356 = arith.index_cast %355 : i32 to index
              %357 = memref.load %arg12[%356] : memref<?xf32>
              %358 = arith.subf %357, %310 : f32
              %359 = arith.mulf %354, %358 : f32
              %360 = arith.addf %346, %359 : f32
              %361 = arith.mulf %174, %cst_3 : f32
              %362 = arith.addf %361, %334 : f32
              %363 = memref.load %arg14[%165] : memref<?xf32>
              %364 = arith.mulf %363, %169 : f32
              %365 = arith.addf %362, %364 : f32
              %366 = arith.addf %350, %336 : f32
              %367 = arith.mulf %366, %cst_4 : f32
              %368 = arith.addf %365, %367 : f32
              %369 = arith.addi %268, %304 : i32
              %370 = arith.index_cast %369 : i32 to index
              %371 = memref.load %arg12[%370] : memref<?xf32>
              %372 = arith.subf %371, %310 : f32
              %373 = arith.mulf %368, %372 : f32
              %374 = arith.addf %360, %373 : f32
              %375 = arith.mulf %177, %cst_3 : f32
              %376 = arith.addf %375, %350 : f32
              %377 = arith.addf %336, %364 : f32
              %378 = arith.mulf %377, %cst_5 : f32
              %379 = arith.subf %376, %378 : f32
              %380 = arith.addi %276, %304 : i32
              %381 = arith.index_cast %380 : i32 to index
              %382 = memref.load %arg12[%381] : memref<?xf32>
              %383 = arith.subf %382, %310 : f32
              %384 = arith.mulf %379, %383 : f32
              %385 = arith.addf %374, %384 : f32
              %386 = arith.mulf %132, %385 : f32
              %387 = arith.addf %331, %386 : f32
              %388 = arith.mulf %0, %387 : f32
              %389 = arith.addi %297, %304 : i32
              %390 = arith.index_cast %389 : i32 to index
              %391 = memref.load %arg12[%390] : memref<?xf32>
              %392 = arith.mulf %294, %391 : f32
              %393 = arith.addf %287#1, %392 : f32
              %394 = arith.addf %388, %393 : f32
              %395 = arith.muli %10, %c3_i32 : i32
              %396 = arith.addi %192, %395 : i32
              %397 = arith.index_cast %396 : i32 to index
              %398 = memref.load %arg12[%397] : memref<?xf32>
              %399 = arith.addi %197, %395 : i32
              %400 = arith.index_cast %399 : i32 to index
              %401 = memref.load %arg12[%400] : memref<?xf32>
              %402 = arith.subf %398, %401 : f32
              %403 = arith.mulf %88, %402 : f32
              %404 = arith.addi %213, %395 : i32
              %405 = arith.index_cast %404 : i32 to index
              %406 = memref.load %arg12[%405] : memref<?xf32>
              %407 = arith.subf %406, %401 : f32
              %408 = arith.mulf %102, %407 : f32
              %409 = arith.addf %403, %408 : f32
              %410 = arith.addi %230, %395 : i32
              %411 = arith.index_cast %410 : i32 to index
              %412 = memref.load %arg12[%411] : memref<?xf32>
              %413 = arith.subf %412, %401 : f32
              %414 = arith.mulf %116, %413 : f32
              %415 = arith.addf %409, %414 : f32
              %416 = arith.addi %244, %395 : i32
              %417 = arith.index_cast %416 : i32 to index
              %418 = memref.load %arg12[%417] : memref<?xf32>
              %419 = arith.subf %418, %401 : f32
              %420 = arith.mulf %119, %419 : f32
              %421 = arith.addf %415, %420 : f32
              %422 = arith.mulf %74, %421 : f32
              %423 = arith.addi %253, %395 : i32
              %424 = arith.index_cast %423 : i32 to index
              %425 = memref.load %arg12[%424] : memref<?xf32>
              %426 = arith.subf %425, %401 : f32
              %427 = arith.mulf %146, %426 : f32
              %428 = arith.addi %260, %395 : i32
              %429 = arith.index_cast %428 : i32 to index
              %430 = memref.load %arg12[%429] : memref<?xf32>
              %431 = arith.subf %430, %401 : f32
              %432 = arith.mulf %160, %431 : f32
              %433 = arith.addf %427, %432 : f32
              %434 = arith.addi %268, %395 : i32
              %435 = arith.index_cast %434 : i32 to index
              %436 = memref.load %arg12[%435] : memref<?xf32>
              %437 = arith.subf %436, %401 : f32
              %438 = arith.mulf %174, %437 : f32
              %439 = arith.addf %433, %438 : f32
              %440 = arith.addi %276, %395 : i32
              %441 = arith.index_cast %440 : i32 to index
              %442 = memref.load %arg12[%441] : memref<?xf32>
              %443 = arith.subf %442, %401 : f32
              %444 = arith.mulf %177, %443 : f32
              %445 = arith.addf %439, %444 : f32
              %446 = arith.mulf %132, %445 : f32
              %447 = arith.addf %422, %446 : f32
              %448 = arith.mulf %0, %447 : f32
              %449 = memref.load %arg14[%292] : memref<?xf32>
              %450 = arith.mulf %293, %cst_3 : f32
              %451 = arith.addf %449, %450 : f32
              %452 = arith.mulf %289, %451 : f32
              %453 = arith.addi %297, %395 : i32
              %454 = arith.index_cast %453 : i32 to index
              %455 = memref.load %arg12[%454] : memref<?xf32>
              %456 = arith.mulf %452, %455 : f32
              %457 = arith.addf %287#0, %456 : f32
              %458 = arith.addf %448, %457 : f32
              %459 = arith.mulf %74, %132 : f32
              %460 = arith.addi %190, %135 : i32
              %461 = arith.addi %460, %59 : i32
              %462 = arith.addi %461, %304 : i32
              %463 = arith.index_cast %462 : i32 to index
              %464 = memref.load %arg12[%463] : memref<?xf32>
              %465 = arith.addi %190, %162 : i32
              %466 = arith.addi %465, %59 : i32
              %467 = arith.addi %466, %304 : i32
              %468 = arith.index_cast %467 : i32 to index
              %469 = memref.load %arg12[%468] : memref<?xf32>
              %470 = arith.subf %464, %469 : f32
              %471 = arith.addi %190, %121 : i32
              %472 = arith.addi %471, %59 : i32
              %473 = arith.addi %472, %304 : i32
              %474 = arith.index_cast %473 : i32 to index
              %475 = memref.load %arg12[%474] : memref<?xf32>
              %476 = arith.negf %475 : f32
              %477 = arith.addi %190, %148 : i32
              %478 = arith.addi %477, %59 : i32
              %479 = arith.addi %478, %304 : i32
              %480 = arith.index_cast %479 : i32 to index
              %481 = memref.load %arg12[%480] : memref<?xf32>
              %482 = arith.addf %476, %481 : f32
              %483 = arith.mulf %482, %cst_2 : f32
              %484 = arith.addf %470, %483 : f32
              %485 = arith.mulf %184, %484 : f32
              %486 = arith.addi %211, %135 : i32
              %487 = arith.addi %486, %59 : i32
              %488 = arith.addi %487, %304 : i32
              %489 = arith.index_cast %488 : i32 to index
              %490 = memref.load %arg12[%489] : memref<?xf32>
              %491 = arith.addi %211, %162 : i32
              %492 = arith.addi %491, %59 : i32
              %493 = arith.addi %492, %304 : i32
              %494 = arith.index_cast %493 : i32 to index
              %495 = memref.load %arg12[%494] : memref<?xf32>
              %496 = arith.subf %490, %495 : f32
              %497 = arith.addi %211, %121 : i32
              %498 = arith.addi %497, %59 : i32
              %499 = arith.addi %498, %304 : i32
              %500 = arith.index_cast %499 : i32 to index
              %501 = memref.load %arg12[%500] : memref<?xf32>
              %502 = arith.negf %501 : f32
              %503 = arith.addi %211, %148 : i32
              %504 = arith.addi %503, %59 : i32
              %505 = arith.addi %504, %304 : i32
              %506 = arith.index_cast %505 : i32 to index
              %507 = memref.load %arg12[%506] : memref<?xf32>
              %508 = arith.addf %502, %507 : f32
              %509 = arith.mulf %508, %cst_2 : f32
              %510 = arith.addf %496, %509 : f32
              %511 = arith.mulf %179, %510 : f32
              %512 = arith.mulf %511, %cst_2 : f32
              %513 = arith.subf %485, %512 : f32
              %514 = arith.addi %228, %135 : i32
              %515 = arith.addi %514, %59 : i32
              %516 = arith.addi %515, %304 : i32
              %517 = arith.index_cast %516 : i32 to index
              %518 = memref.load %arg12[%517] : memref<?xf32>
              %519 = arith.addi %228, %162 : i32
              %520 = arith.addi %519, %59 : i32
              %521 = arith.addi %520, %304 : i32
              %522 = arith.index_cast %521 : i32 to index
              %523 = memref.load %arg12[%522] : memref<?xf32>
              %524 = arith.subf %518, %523 : f32
              %525 = arith.addi %228, %121 : i32
              %526 = arith.addi %525, %59 : i32
              %527 = arith.addi %526, %304 : i32
              %528 = arith.index_cast %527 : i32 to index
              %529 = memref.load %arg12[%528] : memref<?xf32>
              %530 = arith.negf %529 : f32
              %531 = arith.addi %228, %148 : i32
              %532 = arith.addi %531, %59 : i32
              %533 = arith.addi %532, %304 : i32
              %534 = arith.index_cast %533 : i32 to index
              %535 = memref.load %arg12[%534] : memref<?xf32>
              %536 = arith.addf %530, %535 : f32
              %537 = arith.mulf %536, %cst_2 : f32
              %538 = arith.addf %524, %537 : f32
              %539 = arith.mulf %205, %538 : f32
              %540 = arith.mulf %539, %cst_2 : f32
              %541 = arith.addf %513, %540 : f32
              %542 = arith.addi %242, %135 : i32
              %543 = arith.addi %542, %59 : i32
              %544 = arith.addi %543, %304 : i32
              %545 = arith.index_cast %544 : i32 to index
              %546 = memref.load %arg12[%545] : memref<?xf32>
              %547 = arith.addi %242, %162 : i32
              %548 = arith.addi %547, %59 : i32
              %549 = arith.addi %548, %304 : i32
              %550 = arith.index_cast %549 : i32 to index
              %551 = memref.load %arg12[%550] : memref<?xf32>
              %552 = arith.subf %546, %551 : f32
              %553 = arith.addi %242, %121 : i32
              %554 = arith.addi %553, %59 : i32
              %555 = arith.addi %554, %304 : i32
              %556 = arith.index_cast %555 : i32 to index
              %557 = memref.load %arg12[%556] : memref<?xf32>
              %558 = arith.negf %557 : f32
              %559 = arith.addi %242, %148 : i32
              %560 = arith.addi %559, %59 : i32
              %561 = arith.addi %560, %304 : i32
              %562 = arith.index_cast %561 : i32 to index
              %563 = memref.load %arg12[%562] : memref<?xf32>
              %564 = arith.addf %558, %563 : f32
              %565 = arith.mulf %564, %cst_2 : f32
              %566 = arith.addf %552, %565 : f32
              %567 = arith.mulf %222, %566 : f32
              %568 = arith.subf %541, %567 : f32
              %569 = arith.mulf %2, %568 : f32
              %570 = arith.subf %464, %546 : f32
              %571 = arith.negf %490 : f32
              %572 = arith.addf %571, %518 : f32
              %573 = arith.mulf %572, %cst_2 : f32
              %574 = arith.addf %570, %573 : f32
              %575 = arith.mulf %139, %574 : f32
              %576 = arith.subf %475, %557 : f32
              %577 = arith.addf %502, %529 : f32
              %578 = arith.mulf %577, %cst_2 : f32
              %579 = arith.addf %576, %578 : f32
              %580 = arith.mulf %125, %579 : f32
              %581 = arith.mulf %580, %cst_2 : f32
              %582 = arith.subf %575, %581 : f32
              %583 = arith.subf %481, %563 : f32
              %584 = arith.negf %507 : f32
              %585 = arith.addf %584, %535 : f32
              %586 = arith.mulf %585, %cst_2 : f32
              %587 = arith.addf %583, %586 : f32
              %588 = arith.mulf %152, %587 : f32
              %589 = arith.mulf %588, %cst_2 : f32
              %590 = arith.addf %582, %589 : f32
              %591 = arith.subf %469, %551 : f32
              %592 = arith.negf %495 : f32
              %593 = arith.addf %592, %523 : f32
              %594 = arith.mulf %593, %cst_2 : f32
              %595 = arith.addf %591, %594 : f32
              %596 = arith.mulf %166, %595 : f32
              %597 = arith.subf %590, %596 : f32
              %598 = arith.mulf %2, %597 : f32
              %599 = arith.addf %569, %598 : f32
              %600 = arith.mulf %459, %599 : f32
              %601 = arith.addf %303, %600 : f32
              %602:4 = scf.for %arg22 = %c1 to %c9 step %c1 iter_args(%arg23 = %cst_7, %arg24 = %cst_7, %arg25 = %cst_7, %arg26 = %cst_7) -> (f32, f32, f32, f32) {
                %792 = arith.index_cast %arg22 : index to i32
                %793 = arith.addi %792, %c-1_i32 : i32
                %794 = arith.muli %793, %c6_i32 : i32
                %795 = arith.addi %286, %794 : i32
                %796 = arith.index_cast %795 : i32 to index
                %797 = memref.load %arg9[%796] : memref<?xf32>
                %798 = arith.subi %arg6, %792 : i32
                %799 = arith.addi %798, %c1_i32 : i32
                %800 = arith.muli %7, %799 : i32
                %801 = arith.addi %243, %800 : i32
                %802 = arith.addi %801, %395 : i32
                %803 = arith.index_cast %802 : i32 to index
                %804 = memref.load %arg12[%803] : memref<?xf32>
                %805 = arith.mulf %797, %804 : f32
                %806 = arith.subf %arg26, %805 : f32
                %807 = arith.addi %229, %800 : i32
                %808 = arith.addi %807, %395 : i32
                %809 = arith.index_cast %808 : i32 to index
                %810 = memref.load %arg12[%809] : memref<?xf32>
                %811 = arith.mulf %797, %810 : f32
                %812 = arith.subf %arg25, %811 : f32
                %813 = arith.addi %212, %800 : i32
                %814 = arith.addi %813, %395 : i32
                %815 = arith.index_cast %814 : i32 to index
                %816 = memref.load %arg12[%815] : memref<?xf32>
                %817 = arith.mulf %797, %816 : f32
                %818 = arith.subf %arg24, %817 : f32
                %819 = arith.addi %191, %800 : i32
                %820 = arith.addi %819, %395 : i32
                %821 = arith.index_cast %820 : i32 to index
                %822 = memref.load %arg12[%821] : memref<?xf32>
                %823 = arith.mulf %797, %822 : f32
                %824 = arith.subf %arg23, %823 : f32
                scf.yield %824, %818, %812, %806 : f32, f32, f32, f32
              }
              %603 = arith.negf %222 : f32
              %604 = arith.mulf %603, %602#3 : f32
              %605 = arith.mulf %205, %cst_2 : f32
              %606 = arith.mulf %605, %602#2 : f32
              %607 = arith.addf %604, %606 : f32
              %608 = arith.mulf %179, %cst_2 : f32
              %609 = arith.mulf %608, %602#1 : f32
              %610 = arith.subf %607, %609 : f32
              %611 = arith.mulf %184, %602#0 : f32
              %612 = arith.addf %610, %611 : f32
              %613 = arith.mulf %1, %612 : f32
              %614 = arith.mulf %74, %613 : f32
              %615 = arith.addf %601, %614 : f32
              %616 = scf.for %arg22 = %c1 to %c9 step %c1 iter_args(%arg23 = %cst_7) -> (f32) {
                %792 = arith.index_cast %arg22 : index to i32
                %793 = arith.addi %792, %c-1_i32 : i32
                %794 = arith.muli %793, %c6_i32 : i32
                %795 = arith.addi %286, %794 : i32
                %796 = arith.index_cast %795 : i32 to index
                %797 = memref.load %arg9[%796] : memref<?xf32>
                %798 = arith.subi %arg6, %792 : i32
                %799 = arith.addi %798, %c1_i32 : i32
                %800 = arith.muli %7, %799 : i32
                %801 = arith.addi %68, %800 : i32
                %802 = arith.index_cast %801 : i32 to index
                %803 = memref.load %arg13[%802] : memref<?xf32>
                %804 = arith.mulf %803, %1 : f32
                %805 = arith.addi %243, %800 : i32
                %806 = arith.addi %805, %395 : i32
                %807 = arith.index_cast %806 : i32 to index
                %808 = memref.load %arg12[%807] : memref<?xf32>
                %809 = arith.negf %808 : f32
                %810 = arith.addi %229, %800 : i32
                %811 = arith.addi %810, %395 : i32
                %812 = arith.index_cast %811 : i32 to index
                %813 = memref.load %arg12[%812] : memref<?xf32>
                %814 = arith.mulf %813, %cst_2 : f32
                %815 = arith.addf %809, %814 : f32
                %816 = arith.addi %212, %800 : i32
                %817 = arith.addi %816, %395 : i32
                %818 = arith.index_cast %817 : i32 to index
                %819 = memref.load %arg12[%818] : memref<?xf32>
                %820 = arith.mulf %819, %cst_2 : f32
                %821 = arith.subf %815, %820 : f32
                %822 = arith.addi %191, %800 : i32
                %823 = arith.addi %822, %395 : i32
                %824 = arith.index_cast %823 : i32 to index
                %825 = memref.load %arg12[%824] : memref<?xf32>
                %826 = arith.addf %821, %825 : f32
                %827 = arith.mulf %804, %826 : f32
                %828 = arith.mulf %797, %827 : f32
                %829 = arith.subf %arg23, %828 : f32
                scf.yield %829 : f32
              }
              %617 = arith.mulf %74, %616 : f32
              %618 = arith.addf %615, %617 : f32
              %619 = arith.addi %461, %10 : i32
              %620 = arith.index_cast %619 : i32 to index
              %621 = memref.load %arg12[%620] : memref<?xf32>
              %622 = arith.addi %466, %10 : i32
              %623 = arith.index_cast %622 : i32 to index
              %624 = memref.load %arg12[%623] : memref<?xf32>
              %625 = arith.subf %621, %624 : f32
              %626 = arith.addi %472, %10 : i32
              %627 = arith.index_cast %626 : i32 to index
              %628 = memref.load %arg12[%627] : memref<?xf32>
              %629 = arith.negf %628 : f32
              %630 = arith.addi %478, %10 : i32
              %631 = arith.index_cast %630 : i32 to index
              %632 = memref.load %arg12[%631] : memref<?xf32>
              %633 = arith.addf %629, %632 : f32
              %634 = arith.mulf %633, %cst_2 : f32
              %635 = arith.addf %625, %634 : f32
              %636 = arith.mulf %80, %635 : f32
              %637 = arith.addi %487, %10 : i32
              %638 = arith.index_cast %637 : i32 to index
              %639 = memref.load %arg12[%638] : memref<?xf32>
              %640 = arith.addi %492, %10 : i32
              %641 = arith.index_cast %640 : i32 to index
              %642 = memref.load %arg12[%641] : memref<?xf32>
              %643 = arith.subf %639, %642 : f32
              %644 = arith.addi %498, %10 : i32
              %645 = arith.index_cast %644 : i32 to index
              %646 = memref.load %arg12[%645] : memref<?xf32>
              %647 = arith.negf %646 : f32
              %648 = arith.addi %504, %10 : i32
              %649 = arith.index_cast %648 : i32 to index
              %650 = memref.load %arg12[%649] : memref<?xf32>
              %651 = arith.addf %647, %650 : f32
              %652 = arith.mulf %651, %cst_2 : f32
              %653 = arith.addf %643, %652 : f32
              %654 = arith.mulf %62, %653 : f32
              %655 = arith.mulf %654, %cst_2 : f32
              %656 = arith.subf %636, %655 : f32
              %657 = arith.addi %515, %10 : i32
              %658 = arith.index_cast %657 : i32 to index
              %659 = memref.load %arg12[%658] : memref<?xf32>
              %660 = arith.addi %520, %10 : i32
              %661 = arith.index_cast %660 : i32 to index
              %662 = memref.load %arg12[%661] : memref<?xf32>
              %663 = arith.subf %659, %662 : f32
              %664 = arith.addi %526, %10 : i32
              %665 = arith.index_cast %664 : i32 to index
              %666 = memref.load %arg12[%665] : memref<?xf32>
              %667 = arith.negf %666 : f32
              %668 = arith.addi %532, %10 : i32
              %669 = arith.index_cast %668 : i32 to index
              %670 = memref.load %arg12[%669] : memref<?xf32>
              %671 = arith.addf %667, %670 : f32
              %672 = arith.mulf %671, %cst_2 : f32
              %673 = arith.addf %663, %672 : f32
              %674 = arith.mulf %93, %673 : f32
              %675 = arith.mulf %674, %cst_2 : f32
              %676 = arith.addf %656, %675 : f32
              %677 = arith.addi %543, %10 : i32
              %678 = arith.index_cast %677 : i32 to index
              %679 = memref.load %arg12[%678] : memref<?xf32>
              %680 = arith.addi %548, %10 : i32
              %681 = arith.index_cast %680 : i32 to index
              %682 = memref.load %arg12[%681] : memref<?xf32>
              %683 = arith.subf %679, %682 : f32
              %684 = arith.addi %554, %10 : i32
              %685 = arith.index_cast %684 : i32 to index
              %686 = memref.load %arg12[%685] : memref<?xf32>
              %687 = arith.negf %686 : f32
              %688 = arith.addi %560, %10 : i32
              %689 = arith.index_cast %688 : i32 to index
              %690 = memref.load %arg12[%689] : memref<?xf32>
              %691 = arith.addf %687, %690 : f32
              %692 = arith.mulf %691, %cst_2 : f32
              %693 = arith.addf %683, %692 : f32
              %694 = arith.mulf %107, %693 : f32
              %695 = arith.subf %676, %694 : f32
              %696 = arith.mulf %2, %695 : f32
              %697 = arith.subf %621, %679 : f32
              %698 = arith.negf %639 : f32
              %699 = arith.addf %698, %659 : f32
              %700 = arith.mulf %699, %cst_2 : f32
              %701 = arith.addf %697, %700 : f32
              %702 = arith.mulf %337, %701 : f32
              %703 = arith.subf %628, %686 : f32
              %704 = arith.addf %647, %666 : f32
              %705 = arith.mulf %704, %cst_2 : f32
              %706 = arith.addf %703, %705 : f32
              %707 = arith.mulf %333, %706 : f32
              %708 = arith.mulf %707, %cst_2 : f32
              %709 = arith.subf %702, %708 : f32
              %710 = arith.subf %632, %690 : f32
              %711 = arith.negf %650 : f32
              %712 = arith.addf %711, %670 : f32
              %713 = arith.mulf %712, %cst_2 : f32
              %714 = arith.addf %710, %713 : f32
              %715 = arith.mulf %349, %714 : f32
              %716 = arith.mulf %715, %cst_2 : f32
              %717 = arith.addf %709, %716 : f32
              %718 = arith.subf %624, %682 : f32
              %719 = arith.negf %642 : f32
              %720 = arith.addf %719, %662 : f32
              %721 = arith.mulf %720, %cst_2 : f32
              %722 = arith.addf %718, %721 : f32
              %723 = arith.mulf %363, %722 : f32
              %724 = arith.subf %717, %723 : f32
              %725 = arith.mulf %2, %724 : f32
              %726 = arith.addf %696, %725 : f32
              %727 = arith.mulf %459, %726 : f32
              %728 = arith.addf %394, %727 : f32
              %729:4 = scf.for %arg22 = %c1 to %c9 step %c1 iter_args(%arg23 = %cst_7, %arg24 = %cst_7, %arg25 = %cst_7, %arg26 = %cst_7) -> (f32, f32, f32, f32) {
                %792 = arith.index_cast %arg22 : index to i32
                %793 = arith.addi %792, %c-1_i32 : i32
                %794 = arith.muli %793, %c6_i32 : i32
                %795 = arith.addi %286, %794 : i32
                %796 = arith.index_cast %795 : i32 to index
                %797 = memref.load %arg9[%796] : memref<?xf32>
                %798 = arith.subi %arg6, %792 : i32
                %799 = arith.addi %798, %c1_i32 : i32
                %800 = arith.muli %7, %799 : i32
                %801 = arith.addi %275, %800 : i32
                %802 = arith.addi %801, %395 : i32
                %803 = arith.index_cast %802 : i32 to index
                %804 = memref.load %arg12[%803] : memref<?xf32>
                %805 = arith.mulf %797, %804 : f32
                %806 = arith.subf %arg26, %805 : f32
                %807 = arith.addi %267, %800 : i32
                %808 = arith.addi %807, %395 : i32
                %809 = arith.index_cast %808 : i32 to index
                %810 = memref.load %arg12[%809] : memref<?xf32>
                %811 = arith.mulf %797, %810 : f32
                %812 = arith.subf %arg25, %811 : f32
                %813 = arith.addi %259, %800 : i32
                %814 = arith.addi %813, %395 : i32
                %815 = arith.index_cast %814 : i32 to index
                %816 = memref.load %arg12[%815] : memref<?xf32>
                %817 = arith.mulf %797, %816 : f32
                %818 = arith.subf %arg24, %817 : f32
                %819 = arith.addi %252, %800 : i32
                %820 = arith.addi %819, %395 : i32
                %821 = arith.index_cast %820 : i32 to index
                %822 = memref.load %arg12[%821] : memref<?xf32>
                %823 = arith.mulf %797, %822 : f32
                %824 = arith.subf %arg23, %823 : f32
                scf.yield %824, %818, %812, %806 : f32, f32, f32, f32
              }
              %730 = arith.negf %363 : f32
              %731 = arith.mulf %730, %729#3 : f32
              %732 = arith.mulf %349, %cst_2 : f32
              %733 = arith.mulf %732, %729#2 : f32
              %734 = arith.addf %731, %733 : f32
              %735 = arith.mulf %333, %cst_2 : f32
              %736 = arith.mulf %735, %729#1 : f32
              %737 = arith.subf %734, %736 : f32
              %738 = arith.mulf %337, %729#0 : f32
              %739 = arith.addf %737, %738 : f32
              %740 = arith.mulf %1, %739 : f32
              %741 = arith.mulf %132, %740 : f32
              %742 = arith.addf %728, %741 : f32
              %743 = scf.for %arg22 = %c1 to %c9 step %c1 iter_args(%arg23 = %cst_7) -> (f32) {
                %792 = arith.index_cast %arg22 : index to i32
                %793 = arith.addi %792, %c-1_i32 : i32
                %794 = arith.muli %793, %c6_i32 : i32
                %795 = arith.addi %286, %794 : i32
                %796 = arith.index_cast %795 : i32 to index
                %797 = memref.load %arg9[%796] : memref<?xf32>
                %798 = arith.subi %arg6, %792 : i32
                %799 = arith.addi %798, %c1_i32 : i32
                %800 = arith.muli %7, %799 : i32
                %801 = arith.addi %68, %800 : i32
                %802 = arith.index_cast %801 : i32 to index
                %803 = memref.load %arg13[%802] : memref<?xf32>
                %804 = arith.mulf %803, %1 : f32
                %805 = arith.addi %275, %800 : i32
                %806 = arith.addi %805, %395 : i32
                %807 = arith.index_cast %806 : i32 to index
                %808 = memref.load %arg12[%807] : memref<?xf32>
                %809 = arith.negf %808 : f32
                %810 = arith.addi %267, %800 : i32
                %811 = arith.addi %810, %395 : i32
                %812 = arith.index_cast %811 : i32 to index
                %813 = memref.load %arg12[%812] : memref<?xf32>
                %814 = arith.mulf %813, %cst_2 : f32
                %815 = arith.addf %809, %814 : f32
                %816 = arith.addi %259, %800 : i32
                %817 = arith.addi %816, %395 : i32
                %818 = arith.index_cast %817 : i32 to index
                %819 = memref.load %arg12[%818] : memref<?xf32>
                %820 = arith.mulf %819, %cst_2 : f32
                %821 = arith.subf %815, %820 : f32
                %822 = arith.addi %252, %800 : i32
                %823 = arith.addi %822, %395 : i32
                %824 = arith.index_cast %823 : i32 to index
                %825 = memref.load %arg12[%824] : memref<?xf32>
                %826 = arith.addf %821, %825 : f32
                %827 = arith.mulf %804, %826 : f32
                %828 = arith.mulf %797, %827 : f32
                %829 = arith.subf %arg23, %828 : f32
                scf.yield %829 : f32
              }
              %744 = arith.mulf %132, %743 : f32
              %745 = arith.addf %742, %744 : f32
              %746:4 = scf.for %arg22 = %c1 to %c9 step %c1 iter_args(%arg23 = %cst_7, %arg24 = %cst_7, %arg25 = %cst_7, %arg26 = %cst_7) -> (f32, f32, f32, f32) {
                %792 = arith.index_cast %arg22 : index to i32
                %793 = arith.addi %792, %c-1_i32 : i32
                %794 = arith.muli %793, %c6_i32 : i32
                %795 = arith.addi %286, %794 : i32
                %796 = arith.index_cast %795 : i32 to index
                %797 = memref.load %arg9[%796] : memref<?xf32>
                %798 = arith.subi %arg6, %792 : i32
                %799 = arith.addi %798, %c1_i32 : i32
                %800 = arith.muli %7, %799 : i32
                %801 = arith.addi %243, %800 : i32
                %802 = arith.addi %801, %10 : i32
                %803 = arith.index_cast %802 : i32 to index
                %804 = memref.load %arg12[%803] : memref<?xf32>
                %805 = arith.mulf %797, %804 : f32
                %806 = arith.subf %arg26, %805 : f32
                %807 = arith.addi %229, %800 : i32
                %808 = arith.addi %807, %10 : i32
                %809 = arith.index_cast %808 : i32 to index
                %810 = memref.load %arg12[%809] : memref<?xf32>
                %811 = arith.mulf %797, %810 : f32
                %812 = arith.subf %arg25, %811 : f32
                %813 = arith.addi %212, %800 : i32
                %814 = arith.addi %813, %10 : i32
                %815 = arith.index_cast %814 : i32 to index
                %816 = memref.load %arg12[%815] : memref<?xf32>
                %817 = arith.mulf %797, %816 : f32
                %818 = arith.subf %arg24, %817 : f32
                %819 = arith.addi %191, %800 : i32
                %820 = arith.addi %819, %10 : i32
                %821 = arith.index_cast %820 : i32 to index
                %822 = memref.load %arg12[%821] : memref<?xf32>
                %823 = arith.mulf %797, %822 : f32
                %824 = arith.subf %arg23, %823 : f32
                scf.yield %824, %818, %812, %806 : f32, f32, f32, f32
              }
              %747 = arith.negf %107 : f32
              %748 = arith.mulf %747, %746#3 : f32
              %749 = arith.mulf %93, %cst_2 : f32
              %750 = arith.mulf %749, %746#2 : f32
              %751 = arith.addf %748, %750 : f32
              %752 = arith.mulf %62, %cst_2 : f32
              %753 = arith.mulf %752, %746#1 : f32
              %754 = arith.subf %751, %753 : f32
              %755 = arith.mulf %80, %746#0 : f32
              %756 = arith.addf %754, %755 : f32
              %757 = arith.mulf %1, %756 : f32
              %758 = arith.mulf %74, %757 : f32
              %759 = arith.addf %458, %758 : f32
              %760:4 = scf.for %arg22 = %c1 to %c9 step %c1 iter_args(%arg23 = %cst_7, %arg24 = %cst_7, %arg25 = %cst_7, %arg26 = %cst_7) -> (f32, f32, f32, f32) {
                %792 = arith.index_cast %arg22 : index to i32
                %793 = arith.addi %792, %c-1_i32 : i32
                %794 = arith.muli %793, %c6_i32 : i32
                %795 = arith.addi %286, %794 : i32
                %796 = arith.index_cast %795 : i32 to index
                %797 = memref.load %arg9[%796] : memref<?xf32>
                %798 = arith.subi %arg6, %792 : i32
                %799 = arith.addi %798, %c1_i32 : i32
                %800 = arith.muli %7, %799 : i32
                %801 = arith.addi %275, %800 : i32
                %802 = arith.addi %801, %304 : i32
                %803 = arith.index_cast %802 : i32 to index
                %804 = memref.load %arg12[%803] : memref<?xf32>
                %805 = arith.mulf %797, %804 : f32
                %806 = arith.subf %arg26, %805 : f32
                %807 = arith.addi %267, %800 : i32
                %808 = arith.addi %807, %304 : i32
                %809 = arith.index_cast %808 : i32 to index
                %810 = memref.load %arg12[%809] : memref<?xf32>
                %811 = arith.mulf %797, %810 : f32
                %812 = arith.subf %arg25, %811 : f32
                %813 = arith.addi %259, %800 : i32
                %814 = arith.addi %813, %304 : i32
                %815 = arith.index_cast %814 : i32 to index
                %816 = memref.load %arg12[%815] : memref<?xf32>
                %817 = arith.mulf %797, %816 : f32
                %818 = arith.subf %arg24, %817 : f32
                %819 = arith.addi %252, %800 : i32
                %820 = arith.addi %819, %304 : i32
                %821 = arith.index_cast %820 : i32 to index
                %822 = memref.load %arg12[%821] : memref<?xf32>
                %823 = arith.mulf %797, %822 : f32
                %824 = arith.subf %arg23, %823 : f32
                scf.yield %824, %818, %812, %806 : f32, f32, f32, f32
              }
              %761 = arith.negf %166 : f32
              %762 = arith.mulf %761, %760#3 : f32
              %763 = arith.mulf %152, %cst_2 : f32
              %764 = arith.mulf %763, %760#2 : f32
              %765 = arith.addf %762, %764 : f32
              %766 = arith.mulf %125, %cst_2 : f32
              %767 = arith.mulf %766, %760#1 : f32
              %768 = arith.subf %765, %767 : f32
              %769 = arith.mulf %139, %760#0 : f32
              %770 = arith.addf %768, %769 : f32
              %771 = arith.mulf %1, %770 : f32
              %772 = arith.mulf %132, %771 : f32
              %773 = arith.addf %759, %772 : f32
              %774 = scf.for %arg22 = %c1 to %c9 step %c1 iter_args(%arg23 = %cst_7) -> (f32) {
                %792 = arith.index_cast %arg22 : index to i32
                %793 = arith.addi %792, %c-1_i32 : i32
                %794 = arith.muli %793, %c6_i32 : i32
                %795 = arith.addi %286, %794 : i32
                %796 = arith.index_cast %795 : i32 to index
                %797 = memref.load %arg9[%796] : memref<?xf32>
                %798 = arith.subi %arg6, %792 : i32
                %799 = arith.addi %798, %c1_i32 : i32
                %800 = arith.muli %7, %799 : i32
                %801 = arith.addi %68, %800 : i32
                %802 = arith.index_cast %801 : i32 to index
                %803 = memref.load %arg14[%802] : memref<?xf32>
                %804 = arith.mulf %803, %1 : f32
                %805 = arith.addi %243, %800 : i32
                %806 = arith.addi %805, %10 : i32
                %807 = arith.index_cast %806 : i32 to index
                %808 = memref.load %arg12[%807] : memref<?xf32>
                %809 = arith.negf %808 : f32
                %810 = arith.addi %229, %800 : i32
                %811 = arith.addi %810, %10 : i32
                %812 = arith.index_cast %811 : i32 to index
                %813 = memref.load %arg12[%812] : memref<?xf32>
                %814 = arith.mulf %813, %cst_2 : f32
                %815 = arith.addf %809, %814 : f32
                %816 = arith.addi %212, %800 : i32
                %817 = arith.addi %816, %10 : i32
                %818 = arith.index_cast %817 : i32 to index
                %819 = memref.load %arg12[%818] : memref<?xf32>
                %820 = arith.mulf %819, %cst_2 : f32
                %821 = arith.subf %815, %820 : f32
                %822 = arith.addi %191, %800 : i32
                %823 = arith.addi %822, %10 : i32
                %824 = arith.index_cast %823 : i32 to index
                %825 = memref.load %arg12[%824] : memref<?xf32>
                %826 = arith.addf %821, %825 : f32
                %827 = arith.mulf %804, %826 : f32
                %828 = arith.mulf %797, %827 : f32
                %829 = arith.subf %arg23, %828 : f32
                scf.yield %829 : f32
              }
              %775 = arith.mulf %74, %774 : f32
              %776 = arith.addf %773, %775 : f32
              %777 = scf.for %arg22 = %c1 to %c9 step %c1 iter_args(%arg23 = %cst_7) -> (f32) {
                %792 = arith.index_cast %arg22 : index to i32
                %793 = arith.addi %792, %c-1_i32 : i32
                %794 = arith.muli %793, %c6_i32 : i32
                %795 = arith.addi %286, %794 : i32
                %796 = arith.index_cast %795 : i32 to index
                %797 = memref.load %arg9[%796] : memref<?xf32>
                %798 = arith.subi %arg6, %792 : i32
                %799 = arith.addi %798, %c1_i32 : i32
                %800 = arith.muli %7, %799 : i32
                %801 = arith.addi %68, %800 : i32
                %802 = arith.index_cast %801 : i32 to index
                %803 = memref.load %arg14[%802] : memref<?xf32>
                %804 = arith.mulf %803, %1 : f32
                %805 = arith.addi %275, %800 : i32
                %806 = arith.addi %805, %304 : i32
                %807 = arith.index_cast %806 : i32 to index
                %808 = memref.load %arg12[%807] : memref<?xf32>
                %809 = arith.negf %808 : f32
                %810 = arith.addi %267, %800 : i32
                %811 = arith.addi %810, %304 : i32
                %812 = arith.index_cast %811 : i32 to index
                %813 = memref.load %arg12[%812] : memref<?xf32>
                %814 = arith.mulf %813, %cst_2 : f32
                %815 = arith.addf %809, %814 : f32
                %816 = arith.addi %259, %800 : i32
                %817 = arith.addi %816, %304 : i32
                %818 = arith.index_cast %817 : i32 to index
                %819 = memref.load %arg12[%818] : memref<?xf32>
                %820 = arith.mulf %819, %cst_2 : f32
                %821 = arith.subf %815, %820 : f32
                %822 = arith.addi %252, %800 : i32
                %823 = arith.addi %822, %304 : i32
                %824 = arith.index_cast %823 : i32 to index
                %825 = memref.load %arg12[%824] : memref<?xf32>
                %826 = arith.addf %821, %825 : f32
                %827 = arith.mulf %804, %826 : f32
                %828 = arith.mulf %797, %827 : f32
                %829 = arith.subf %arg23, %828 : f32
                scf.yield %829 : f32
              }
              %778 = arith.mulf %132, %777 : f32
              %779 = arith.addf %776, %778 : f32
              %780 = memref.load %arg11[%199] : memref<?xf32>
              %781 = arith.mulf %780, %cst_7 : f32
              %782 = arith.mulf %20, %618 : f32
              %783 = arith.addf %781, %782 : f32
              memref.store %783, %arg11[%199] : memref<?xf32>
              %784 = memref.load %arg11[%309] : memref<?xf32>
              %785 = arith.mulf %784, %cst_7 : f32
              %786 = arith.mulf %20, %745 : f32
              %787 = arith.addf %785, %786 : f32
              memref.store %787, %arg11[%309] : memref<?xf32>
              %788 = memref.load %arg11[%400] : memref<?xf32>
              %789 = arith.mulf %788, %cst_7 : f32
              %790 = arith.mulf %20, %779 : f32
              %791 = arith.addf %789, %790 : f32
              memref.store %791, %arg11[%400] : memref<?xf32>
            }
          }
        }}
      }
    }
    return
  }
  func.func @main() -> i32 attributes {llvm.linkage = #llvm.linkage<external>} {
    %c1000 = arith.constant 1000 : index
    %c11 = arith.constant 11 : index
    %c13 = arith.constant 13 : index
    %c5 = arith.constant 5 : index
    %c4 = arith.constant 4 : index
    %c2 = arith.constant 2 : index
    %c3 = arith.constant 3 : index
    %c0 = arith.constant 0 : index
    %c1 = arith.constant 1 : index
    %c3000 = arith.constant 3000 : index
    %c-1111_i32 = arith.constant -1111 : i32
    %c100_i32 = arith.constant 100 : i32
    %c1000_i32 = arith.constant 1000 : i32
    %c12000_i64 = arith.constant 12000 : i64
    %c24_i64 = arith.constant 24 : i64
    %c1536_i64 = arith.constant 1536 : i64
    %c192_i64 = arith.constant 192 : i64
    %c32_i64 = arith.constant 32 : i64
    %cst = arith.constant 0.000000e+00 : f64
    %cst_0 = arith.constant 0.00999999977 : f32
    %cst_1 = arith.constant 3.000000e+00 : f32
    %cst_2 = arith.constant 2.000000e+00 : f32
    %cst_3 = arith.constant 0.0833333358 : f32
    %cst_4 = arith.constant -0.666666686 : f32
    %cst_5 = arith.constant 0.000000e+00 : f32
    %cst_6 = arith.constant 0.666666686 : f32
    %cst_7 = arith.constant -0.0833333358 : f32
    %c0_i32 = arith.constant 0 : i32
    %cst_8 = arith.constant 1.000000e+00 : f32
    %c12_i32 = arith.constant 12 : i32
    %c10_i32 = arith.constant 10 : i32
    %c1_i32 = arith.constant 1 : i32
    %alloc = memref.alloc() : memref<6xi32>
    %cast = memref.cast %alloc : memref<6xi32> to memref<?xi32>
    %0 = polygeist.memref2pointer %alloc : memref<6xi32> to !llvm.ptr
    %1 = polygeist.pointer2memref %0 : !llvm.ptr to memref<?xi8>
    %2 = call @__builtin_object_size(%1, %c0_i32) : (memref<?xi8>, i32) -> i64
    %3 = call @__memset_chk(%0, %c0_i32, %c24_i64, %2) : (!llvm.ptr, i32, i64, i64) -> memref<?xi8>
    %alloc_9 = memref.alloc() : memref<384xf32>
    %cast_10 = memref.cast %alloc_9 : memref<384xf32> to memref<?xf32>
    %4 = polygeist.memref2pointer %alloc_9 : memref<384xf32> to !llvm.ptr
    %5 = polygeist.pointer2memref %4 : !llvm.ptr to memref<?xi8>
    %6 = call @__builtin_object_size(%5, %c0_i32) : (memref<?xi8>, i32) -> i64
    %7 = call @__memset_chk(%4, %c0_i32, %c1536_i64, %6) : (!llvm.ptr, i32, i64, i64) -> memref<?xi8>
    %alloc_11 = memref.alloc() : memref<48xf32>
    %cast_12 = memref.cast %alloc_11 : memref<48xf32> to memref<?xf32>
    %8 = polygeist.memref2pointer %alloc_11 : memref<48xf32> to !llvm.ptr
    %9 = polygeist.pointer2memref %8 : !llvm.ptr to memref<?xi8>
    %10 = call @__builtin_object_size(%9, %c0_i32) : (memref<?xi8>, i32) -> i64
    %11 = call @__memset_chk(%8, %c0_i32, %c192_i64, %10) : (!llvm.ptr, i32, i64, i64) -> memref<?xi8>
    %alloc_13 = memref.alloc() : memref<8xf32>
    %cast_14 = memref.cast %alloc_13 : memref<8xf32> to memref<?xf32>
    %12 = polygeist.memref2pointer %alloc_13 : memref<8xf32> to !llvm.ptr
    %13 = polygeist.pointer2memref %12 : !llvm.ptr to memref<?xi8>
    %14 = call @__builtin_object_size(%13, %c0_i32) : (memref<?xi8>, i32) -> i64
    %15 = call @__memset_chk(%12, %c0_i32, %c32_i64, %14) : (!llvm.ptr, i32, i64, i64) -> memref<?xi8>
    %16 = llvm.mlir.zero : !llvm.ptr
    %17 = llvm.icmp "ne" %8, %16 : !llvm.ptr
    scf.if %17 {
      memref.store %cst_7, %alloc_11[%c0] : memref<48xf32>
      memref.store %cst_6, %alloc_11[%c1] : memref<48xf32>
      memref.store %cst_5, %alloc_11[%c2] : memref<48xf32>
      memref.store %cst_4, %alloc_11[%c3] : memref<48xf32>
      memref.store %cst_3, %alloc_11[%c4] : memref<48xf32>
      memref.store %cst_5, %alloc_11[%c5] : memref<48xf32>
    }
    memref.store %cst_8, %alloc_13[%c0] : memref<8xf32>
    %alloc_15 = memref.alloc() : memref<1000xf32>
    %cast_16 = memref.cast %alloc_15 : memref<1000xf32> to memref<?xf32>
    scf.for %arg0 = %c0 to %c1000 step %c1 {
      memref.store %cst_2, %alloc_15[%arg0] : memref<1000xf32>
    }
    %alloc_17 = memref.alloc() : memref<1000xf32>
    %cast_18 = memref.cast %alloc_17 : memref<1000xf32> to memref<?xf32>
    scf.for %arg0 = %c0 to %c1000 step %c1 {
      memref.store %cst_1, %alloc_17[%arg0] : memref<1000xf32>
    }
    %alloc_19 = memref.alloc() : memref<3000xf32>
    %cast_20 = memref.cast %alloc_19 : memref<3000xf32> to memref<?xf32>
    %18 = polygeist.memref2pointer %alloc_19 : memref<3000xf32> to !llvm.ptr
    %19 = polygeist.pointer2memref %18 : !llvm.ptr to memref<?xi8>
    %20 = call @__builtin_object_size(%19, %c0_i32) : (memref<?xi8>, i32) -> i64
    %21 = call @__memset_chk(%18, %c0_i32, %c12000_i64, %20) : (!llvm.ptr, i32, i64, i64) -> memref<?xi8>
    scf.for %arg0 = %c0 to %c3 step %c1 {
      %30 = arith.index_cast %arg0 : index to i32
      scf.for %arg1 = %c1 to %c11 step %c1 {
        %31 = arith.index_cast %arg1 : index to i32
        scf.for %arg2 = %c1 to %c11 step %c1 {
          %32 = arith.index_cast %arg2 : index to i32
          scf.for %arg3 = %c1 to %c11 step %c1 {
            %33 = arith.index_cast %arg3 : index to i32
            %34 = arith.addi %33, %c-1111_i32 : i32
            %35 = arith.muli %32, %c10_i32 : i32
            %36 = arith.addi %34, %35 : i32
            %37 = arith.muli %31, %c100_i32 : i32
            %38 = arith.addi %36, %37 : i32
            %39 = arith.muli %30, %c1000_i32 : i32
            %40 = arith.addi %38, %39 : i32
            %41 = arith.index_cast %40 : i32 to index
            %42 = arith.addi %30, %c1_i32 : i32
            %43 = arith.sitofp %42 : i32 to f32
            %44 = arith.mulf %43, %cst_0 : f32
            %45 = arith.addi %33, %32 : i32
            %46 = arith.addi %45, %31 : i32
            %47 = arith.sitofp %46 : i32 to f32
            %48 = arith.mulf %44, %47 : f32
            memref.store %48, %alloc_19[%41] : memref<3000xf32>
          }
        }
      }
    }
    %alloc_21 = memref.alloc() : memref<3000xf32>
    %cast_22 = memref.cast %alloc_21 : memref<3000xf32> to memref<?xf32>
    %22 = polygeist.memref2pointer %alloc_21 : memref<3000xf32> to !llvm.ptr
    %23 = polygeist.pointer2memref %22 : !llvm.ptr to memref<?xi8>
    %24 = call @__builtin_object_size(%23, %c0_i32) : (memref<?xi8>, i32) -> i64
    %25 = call @__memset_chk(%22, %c0_i32, %c12000_i64, %24) : (!llvm.ptr, i32, i64, i64) -> memref<?xi8>
    %alloc_23 = memref.alloc() : memref<11xf32>
    %cast_24 = memref.cast %alloc_23 : memref<11xf32> to memref<?xf32>
    %alloc_25 = memref.alloc() : memref<11xf32>
    %cast_26 = memref.cast %alloc_25 : memref<11xf32> to memref<?xf32>
    %alloc_27 = memref.alloc() : memref<13xf32>
    %cast_28 = memref.cast %alloc_27 : memref<13xf32> to memref<?xf32>
    scf.for %arg0 = %c0 to %c11 step %c1 {
      memref.store %cst_8, %alloc_23[%arg0] : memref<11xf32>
    }
    scf.for %arg0 = %c0 to %c11 step %c1 {
      memref.store %cst_8, %alloc_25[%arg0] : memref<11xf32>
    }
    scf.for %arg0 = %c0 to %c13 step %c1 {
      memref.store %cst_8, %alloc_27[%arg0] : memref<13xf32>
    }
    call @rhs4sg_rev(%c1_i32, %c10_i32, %c1_i32, %c10_i32, %c1_i32, %c10_i32, %c12_i32, %cast, %cast_10, %cast_12, %cast_14, %cast_22, %cast_20, %cast_16, %cast_18, %cst_8, %cast_24, %cast_26, %cast_28) : (i32, i32, i32, i32, i32, i32, i32, memref<?xi32>, memref<?xf32>, memref<?xf32>, memref<?xf32>, memref<?xf32>, memref<?xf32>, memref<?xf32>, memref<?xf32>, f32, memref<?xf32>, memref<?xf32>, memref<?xf32>) -> ()
    %26 = scf.for %arg0 = %c0 to %c3000 step %c1 iter_args(%arg1 = %cst) -> (f64) {
      %30 = memref.load %alloc_21[%arg0] : memref<3000xf32>
      %31 = arith.extf %30 : f32 to f64
      %32 = arith.addf %arg1, %31 : f64
      scf.yield %32 : f64
    }
    %27 = llvm.mlir.addressof @str0 : !llvm.ptr
    %28 = llvm.getelementptr %27[0, 0] : (!llvm.ptr) -> !llvm.ptr, !llvm.array<17 x i8>
    %29 = llvm.call @printf(%28, %26) vararg(!llvm.func<i32 (ptr, ...)>) : (!llvm.ptr, f64) -> i32
    memref.dealloc %alloc : memref<6xi32>
    memref.dealloc %alloc_9 : memref<384xf32>
    memref.dealloc %alloc_11 : memref<48xf32>
    memref.dealloc %alloc_13 : memref<8xf32>
    memref.dealloc %alloc_15 : memref<1000xf32>
    memref.dealloc %alloc_17 : memref<1000xf32>
    memref.dealloc %alloc_19 : memref<3000xf32>
    memref.dealloc %alloc_21 : memref<3000xf32>
    memref.dealloc %alloc_23 : memref<11xf32>
    memref.dealloc %alloc_25 : memref<11xf32>
    memref.dealloc %alloc_27 : memref<13xf32>
    return %c0_i32 : i32
  }
  func.func private @__builtin_object_size(memref<?xi8>, i32) -> i64 attributes {llvm.linkage = #llvm.linkage<external>}
  func.func private @__memset_chk(!llvm.ptr, i32, i64, i64) -> memref<?xi8>
}
